HloModule xla_computation_unknown.9650

primitive_computation_add.713 {
  parameter.714 = f32[] parameter(0)
  parameter.715 = f32[] parameter(1)
  ROOT add.716 = f32[] add(parameter.714, parameter.715)
}

primitive_computation_add.727 {
  parameter.728 = f32[] parameter(0)
  parameter.729 = f32[] parameter(1)
  ROOT add.730 = f32[] add(parameter.728, parameter.729)
}

primitive_computation_max.792 {
  parameter.793 = bf16[] parameter(0)
  parameter.794 = bf16[] parameter(1)
  ROOT maximum.795 = bf16[] maximum(parameter.793, parameter.794)
}

primitive_computation_add.806 {
  parameter.807 = f32[] parameter(0)
  parameter.808 = f32[] parameter(1)
  ROOT add.809 = f32[] add(parameter.807, parameter.808)
}

primitive_computation_add.820 {
  parameter.821 = f32[] parameter(0)
  parameter.822 = f32[] parameter(1)
  ROOT add.823 = f32[] add(parameter.821, parameter.822)
}

primitive_computation_add.893 {
  parameter.894 = f32[] parameter(0)
  parameter.895 = f32[] parameter(1)
  ROOT add.896 = f32[] add(parameter.894, parameter.895)
}

primitive_computation_add.907 {
  parameter.908 = f32[] parameter(0)
  parameter.909 = f32[] parameter(1)
  ROOT add.910 = f32[] add(parameter.908, parameter.909)
}

primitive_computation_add.980 {
  parameter.981 = f32[] parameter(0)
  parameter.982 = f32[] parameter(1)
  ROOT add.983 = f32[] add(parameter.981, parameter.982)
}

primitive_computation_add.994 {
  parameter.995 = f32[] parameter(0)
  parameter.996 = f32[] parameter(1)
  ROOT add.997 = f32[] add(parameter.995, parameter.996)
}

primitive_computation_add.1056 {
  parameter.1057 = f32[] parameter(0)
  parameter.1058 = f32[] parameter(1)
  ROOT add.1059 = f32[] add(parameter.1057, parameter.1058)
}

primitive_computation_add.1070 {
  parameter.1071 = f32[] parameter(0)
  parameter.1072 = f32[] parameter(1)
  ROOT add.1073 = f32[] add(parameter.1071, parameter.1072)
}

primitive_computation_add.1144 {
  parameter.1145 = f32[] parameter(0)
  parameter.1146 = f32[] parameter(1)
  ROOT add.1147 = f32[] add(parameter.1145, parameter.1146)
}

primitive_computation_add.1158 {
  parameter.1159 = f32[] parameter(0)
  parameter.1160 = f32[] parameter(1)
  ROOT add.1161 = f32[] add(parameter.1159, parameter.1160)
}

primitive_computation_add.1231 {
  parameter.1232 = f32[] parameter(0)
  parameter.1233 = f32[] parameter(1)
  ROOT add.1234 = f32[] add(parameter.1232, parameter.1233)
}

primitive_computation_add.1245 {
  parameter.1246 = f32[] parameter(0)
  parameter.1247 = f32[] parameter(1)
  ROOT add.1248 = f32[] add(parameter.1246, parameter.1247)
}

primitive_computation_add.1318 {
  parameter.1319 = f32[] parameter(0)
  parameter.1320 = f32[] parameter(1)
  ROOT add.1321 = f32[] add(parameter.1319, parameter.1320)
}

primitive_computation_add.1332 {
  parameter.1333 = f32[] parameter(0)
  parameter.1334 = f32[] parameter(1)
  ROOT add.1335 = f32[] add(parameter.1333, parameter.1334)
}

primitive_computation_add.1406 {
  parameter.1407 = f32[] parameter(0)
  parameter.1408 = f32[] parameter(1)
  ROOT add.1409 = f32[] add(parameter.1407, parameter.1408)
}

primitive_computation_add.1420 {
  parameter.1421 = f32[] parameter(0)
  parameter.1422 = f32[] parameter(1)
  ROOT add.1423 = f32[] add(parameter.1421, parameter.1422)
}

primitive_computation_add.1493 {
  parameter.1494 = f32[] parameter(0)
  parameter.1495 = f32[] parameter(1)
  ROOT add.1496 = f32[] add(parameter.1494, parameter.1495)
}

primitive_computation_add.1507 {
  parameter.1508 = f32[] parameter(0)
  parameter.1509 = f32[] parameter(1)
  ROOT add.1510 = f32[] add(parameter.1508, parameter.1509)
}

primitive_computation_add.1580 {
  parameter.1581 = f32[] parameter(0)
  parameter.1582 = f32[] parameter(1)
  ROOT add.1583 = f32[] add(parameter.1581, parameter.1582)
}

primitive_computation_add.1594 {
  parameter.1595 = f32[] parameter(0)
  parameter.1596 = f32[] parameter(1)
  ROOT add.1597 = f32[] add(parameter.1595, parameter.1596)
}

primitive_computation_add.1668 {
  parameter.1669 = f32[] parameter(0)
  parameter.1670 = f32[] parameter(1)
  ROOT add.1671 = f32[] add(parameter.1669, parameter.1670)
}

primitive_computation_add.1682 {
  parameter.1683 = f32[] parameter(0)
  parameter.1684 = f32[] parameter(1)
  ROOT add.1685 = f32[] add(parameter.1683, parameter.1684)
}

primitive_computation_add.1755 {
  parameter.1756 = f32[] parameter(0)
  parameter.1757 = f32[] parameter(1)
  ROOT add.1758 = f32[] add(parameter.1756, parameter.1757)
}

primitive_computation_add.1769 {
  parameter.1770 = f32[] parameter(0)
  parameter.1771 = f32[] parameter(1)
  ROOT add.1772 = f32[] add(parameter.1770, parameter.1771)
}

primitive_computation_add.1842 {
  parameter.1843 = f32[] parameter(0)
  parameter.1844 = f32[] parameter(1)
  ROOT add.1845 = f32[] add(parameter.1843, parameter.1844)
}

primitive_computation_add.1856 {
  parameter.1857 = f32[] parameter(0)
  parameter.1858 = f32[] parameter(1)
  ROOT add.1859 = f32[] add(parameter.1857, parameter.1858)
}

primitive_computation_add.1918 {
  parameter.1919 = f32[] parameter(0)
  parameter.1920 = f32[] parameter(1)
  ROOT add.1921 = f32[] add(parameter.1919, parameter.1920)
}

primitive_computation_add.1932 {
  parameter.1933 = f32[] parameter(0)
  parameter.1934 = f32[] parameter(1)
  ROOT add.1935 = f32[] add(parameter.1933, parameter.1934)
}

primitive_computation_add.2006 {
  parameter.2007 = f32[] parameter(0)
  parameter.2008 = f32[] parameter(1)
  ROOT add.2009 = f32[] add(parameter.2007, parameter.2008)
}

primitive_computation_add.2020 {
  parameter.2021 = f32[] parameter(0)
  parameter.2022 = f32[] parameter(1)
  ROOT add.2023 = f32[] add(parameter.2021, parameter.2022)
}

primitive_computation_add.2093 {
  parameter.2094 = f32[] parameter(0)
  parameter.2095 = f32[] parameter(1)
  ROOT add.2096 = f32[] add(parameter.2094, parameter.2095)
}

primitive_computation_add.2107 {
  parameter.2108 = f32[] parameter(0)
  parameter.2109 = f32[] parameter(1)
  ROOT add.2110 = f32[] add(parameter.2108, parameter.2109)
}

primitive_computation_add.2180 {
  parameter.2181 = f32[] parameter(0)
  parameter.2182 = f32[] parameter(1)
  ROOT add.2183 = f32[] add(parameter.2181, parameter.2182)
}

primitive_computation_add.2194 {
  parameter.2195 = f32[] parameter(0)
  parameter.2196 = f32[] parameter(1)
  ROOT add.2197 = f32[] add(parameter.2195, parameter.2196)
}

primitive_computation_add.2268 {
  parameter.2269 = f32[] parameter(0)
  parameter.2270 = f32[] parameter(1)
  ROOT add.2271 = f32[] add(parameter.2269, parameter.2270)
}

primitive_computation_add.2282 {
  parameter.2283 = f32[] parameter(0)
  parameter.2284 = f32[] parameter(1)
  ROOT add.2285 = f32[] add(parameter.2283, parameter.2284)
}

primitive_computation_add.2355 {
  parameter.2356 = f32[] parameter(0)
  parameter.2357 = f32[] parameter(1)
  ROOT add.2358 = f32[] add(parameter.2356, parameter.2357)
}

primitive_computation_add.2369 {
  parameter.2370 = f32[] parameter(0)
  parameter.2371 = f32[] parameter(1)
  ROOT add.2372 = f32[] add(parameter.2370, parameter.2371)
}

primitive_computation_add.2442 {
  parameter.2443 = f32[] parameter(0)
  parameter.2444 = f32[] parameter(1)
  ROOT add.2445 = f32[] add(parameter.2443, parameter.2444)
}

primitive_computation_add.2456 {
  parameter.2457 = f32[] parameter(0)
  parameter.2458 = f32[] parameter(1)
  ROOT add.2459 = f32[] add(parameter.2457, parameter.2458)
}

primitive_computation_add.2530 {
  parameter.2531 = f32[] parameter(0)
  parameter.2532 = f32[] parameter(1)
  ROOT add.2533 = f32[] add(parameter.2531, parameter.2532)
}

primitive_computation_add.2544 {
  parameter.2545 = f32[] parameter(0)
  parameter.2546 = f32[] parameter(1)
  ROOT add.2547 = f32[] add(parameter.2545, parameter.2546)
}

primitive_computation_add.2617 {
  parameter.2618 = f32[] parameter(0)
  parameter.2619 = f32[] parameter(1)
  ROOT add.2620 = f32[] add(parameter.2618, parameter.2619)
}

primitive_computation_add.2631 {
  parameter.2632 = f32[] parameter(0)
  parameter.2633 = f32[] parameter(1)
  ROOT add.2634 = f32[] add(parameter.2632, parameter.2633)
}

primitive_computation_add.2704 {
  parameter.2705 = f32[] parameter(0)
  parameter.2706 = f32[] parameter(1)
  ROOT add.2707 = f32[] add(parameter.2705, parameter.2706)
}

primitive_computation_add.2718 {
  parameter.2719 = f32[] parameter(0)
  parameter.2720 = f32[] parameter(1)
  ROOT add.2721 = f32[] add(parameter.2719, parameter.2720)
}

primitive_computation_add.2792 {
  parameter.2793 = f32[] parameter(0)
  parameter.2794 = f32[] parameter(1)
  ROOT add.2795 = f32[] add(parameter.2793, parameter.2794)
}

primitive_computation_add.2806 {
  parameter.2807 = f32[] parameter(0)
  parameter.2808 = f32[] parameter(1)
  ROOT add.2809 = f32[] add(parameter.2807, parameter.2808)
}

primitive_computation_add.2879 {
  parameter.2880 = f32[] parameter(0)
  parameter.2881 = f32[] parameter(1)
  ROOT add.2882 = f32[] add(parameter.2880, parameter.2881)
}

primitive_computation_add.2893 {
  parameter.2894 = f32[] parameter(0)
  parameter.2895 = f32[] parameter(1)
  ROOT add.2896 = f32[] add(parameter.2894, parameter.2895)
}

primitive_computation_add.2966 {
  parameter.2967 = f32[] parameter(0)
  parameter.2968 = f32[] parameter(1)
  ROOT add.2969 = f32[] add(parameter.2967, parameter.2968)
}

primitive_computation_add.2980 {
  parameter.2981 = f32[] parameter(0)
  parameter.2982 = f32[] parameter(1)
  ROOT add.2983 = f32[] add(parameter.2981, parameter.2982)
}

primitive_computation_add.3042 {
  parameter.3043 = f32[] parameter(0)
  parameter.3044 = f32[] parameter(1)
  ROOT add.3045 = f32[] add(parameter.3043, parameter.3044)
}

primitive_computation_add.3056 {
  parameter.3057 = f32[] parameter(0)
  parameter.3058 = f32[] parameter(1)
  ROOT add.3059 = f32[] add(parameter.3057, parameter.3058)
}

primitive_computation_add.3130 {
  parameter.3131 = f32[] parameter(0)
  parameter.3132 = f32[] parameter(1)
  ROOT add.3133 = f32[] add(parameter.3131, parameter.3132)
}

primitive_computation_add.3144 {
  parameter.3145 = f32[] parameter(0)
  parameter.3146 = f32[] parameter(1)
  ROOT add.3147 = f32[] add(parameter.3145, parameter.3146)
}

primitive_computation_add.3217 {
  parameter.3218 = f32[] parameter(0)
  parameter.3219 = f32[] parameter(1)
  ROOT add.3220 = f32[] add(parameter.3218, parameter.3219)
}

primitive_computation_add.3231 {
  parameter.3232 = f32[] parameter(0)
  parameter.3233 = f32[] parameter(1)
  ROOT add.3234 = f32[] add(parameter.3232, parameter.3233)
}

primitive_computation_add.3304 {
  parameter.3305 = f32[] parameter(0)
  parameter.3306 = f32[] parameter(1)
  ROOT add.3307 = f32[] add(parameter.3305, parameter.3306)
}

primitive_computation_add.3318 {
  parameter.3319 = f32[] parameter(0)
  parameter.3320 = f32[] parameter(1)
  ROOT add.3321 = f32[] add(parameter.3319, parameter.3320)
}

primitive_computation_add.3392 {
  parameter.3393 = f32[] parameter(0)
  parameter.3394 = f32[] parameter(1)
  ROOT add.3395 = f32[] add(parameter.3393, parameter.3394)
}

primitive_computation_add.3406 {
  parameter.3407 = f32[] parameter(0)
  parameter.3408 = f32[] parameter(1)
  ROOT add.3409 = f32[] add(parameter.3407, parameter.3408)
}

primitive_computation_add.3479 {
  parameter.3480 = f32[] parameter(0)
  parameter.3481 = f32[] parameter(1)
  ROOT add.3482 = f32[] add(parameter.3480, parameter.3481)
}

primitive_computation_add.3493 {
  parameter.3494 = f32[] parameter(0)
  parameter.3495 = f32[] parameter(1)
  ROOT add.3496 = f32[] add(parameter.3494, parameter.3495)
}

primitive_computation_add.3566 {
  parameter.3567 = f32[] parameter(0)
  parameter.3568 = f32[] parameter(1)
  ROOT add.3569 = f32[] add(parameter.3567, parameter.3568)
}

primitive_computation_add.3580 {
  parameter.3581 = f32[] parameter(0)
  parameter.3582 = f32[] parameter(1)
  ROOT add.3583 = f32[] add(parameter.3581, parameter.3582)
}

primitive_computation_add.3654 {
  parameter.3655 = f32[] parameter(0)
  parameter.3656 = f32[] parameter(1)
  ROOT add.3657 = f32[] add(parameter.3655, parameter.3656)
}

primitive_computation_add.3668 {
  parameter.3669 = f32[] parameter(0)
  parameter.3670 = f32[] parameter(1)
  ROOT add.3671 = f32[] add(parameter.3669, parameter.3670)
}

primitive_computation_add.3741 {
  parameter.3742 = f32[] parameter(0)
  parameter.3743 = f32[] parameter(1)
  ROOT add.3744 = f32[] add(parameter.3742, parameter.3743)
}

primitive_computation_add.3755 {
  parameter.3756 = f32[] parameter(0)
  parameter.3757 = f32[] parameter(1)
  ROOT add.3758 = f32[] add(parameter.3756, parameter.3757)
}

primitive_computation_add.3828 {
  parameter.3829 = f32[] parameter(0)
  parameter.3830 = f32[] parameter(1)
  ROOT add.3831 = f32[] add(parameter.3829, parameter.3830)
}

primitive_computation_add.3842 {
  parameter.3843 = f32[] parameter(0)
  parameter.3844 = f32[] parameter(1)
  ROOT add.3845 = f32[] add(parameter.3843, parameter.3844)
}

primitive_computation_add.3916 {
  parameter.3917 = f32[] parameter(0)
  parameter.3918 = f32[] parameter(1)
  ROOT add.3919 = f32[] add(parameter.3917, parameter.3918)
}

primitive_computation_add.3930 {
  parameter.3931 = f32[] parameter(0)
  parameter.3932 = f32[] parameter(1)
  ROOT add.3933 = f32[] add(parameter.3931, parameter.3932)
}

primitive_computation_add.4003 {
  parameter.4004 = f32[] parameter(0)
  parameter.4005 = f32[] parameter(1)
  ROOT add.4006 = f32[] add(parameter.4004, parameter.4005)
}

primitive_computation_add.4017 {
  parameter.4018 = f32[] parameter(0)
  parameter.4019 = f32[] parameter(1)
  ROOT add.4020 = f32[] add(parameter.4018, parameter.4019)
}

primitive_computation_add.4090 {
  parameter.4091 = f32[] parameter(0)
  parameter.4092 = f32[] parameter(1)
  ROOT add.4093 = f32[] add(parameter.4091, parameter.4092)
}

primitive_computation_add.4104 {
  parameter.4105 = f32[] parameter(0)
  parameter.4106 = f32[] parameter(1)
  ROOT add.4107 = f32[] add(parameter.4105, parameter.4106)
}

primitive_computation_add.4178 {
  parameter.4179 = f32[] parameter(0)
  parameter.4180 = f32[] parameter(1)
  ROOT add.4181 = f32[] add(parameter.4179, parameter.4180)
}

primitive_computation_add.4192 {
  parameter.4193 = f32[] parameter(0)
  parameter.4194 = f32[] parameter(1)
  ROOT add.4195 = f32[] add(parameter.4193, parameter.4194)
}

primitive_computation_add.4265 {
  parameter.4266 = f32[] parameter(0)
  parameter.4267 = f32[] parameter(1)
  ROOT add.4268 = f32[] add(parameter.4266, parameter.4267)
}

primitive_computation_add.4279 {
  parameter.4280 = f32[] parameter(0)
  parameter.4281 = f32[] parameter(1)
  ROOT add.4282 = f32[] add(parameter.4280, parameter.4281)
}

primitive_computation_add.4352 {
  parameter.4353 = f32[] parameter(0)
  parameter.4354 = f32[] parameter(1)
  ROOT add.4355 = f32[] add(parameter.4353, parameter.4354)
}

primitive_computation_add.4366 {
  parameter.4367 = f32[] parameter(0)
  parameter.4368 = f32[] parameter(1)
  ROOT add.4369 = f32[] add(parameter.4367, parameter.4368)
}

primitive_computation_add.4440 {
  parameter.4441 = f32[] parameter(0)
  parameter.4442 = f32[] parameter(1)
  ROOT add.4443 = f32[] add(parameter.4441, parameter.4442)
}

primitive_computation_add.4454 {
  parameter.4455 = f32[] parameter(0)
  parameter.4456 = f32[] parameter(1)
  ROOT add.4457 = f32[] add(parameter.4455, parameter.4456)
}

primitive_computation_add.4527 {
  parameter.4528 = f32[] parameter(0)
  parameter.4529 = f32[] parameter(1)
  ROOT add.4530 = f32[] add(parameter.4528, parameter.4529)
}

primitive_computation_add.4541 {
  parameter.4542 = f32[] parameter(0)
  parameter.4543 = f32[] parameter(1)
  ROOT add.4544 = f32[] add(parameter.4542, parameter.4543)
}

primitive_computation_add.4614 {
  parameter.4615 = f32[] parameter(0)
  parameter.4616 = f32[] parameter(1)
  ROOT add.4617 = f32[] add(parameter.4615, parameter.4616)
}

primitive_computation_add.4628 {
  parameter.4629 = f32[] parameter(0)
  parameter.4630 = f32[] parameter(1)
  ROOT add.4631 = f32[] add(parameter.4629, parameter.4630)
}

primitive_computation_add.4690 {
  parameter.4691 = f32[] parameter(0)
  parameter.4692 = f32[] parameter(1)
  ROOT add.4693 = f32[] add(parameter.4691, parameter.4692)
}

primitive_computation_add.4704 {
  parameter.4705 = f32[] parameter(0)
  parameter.4706 = f32[] parameter(1)
  ROOT add.4707 = f32[] add(parameter.4705, parameter.4706)
}

primitive_computation_add.4778 {
  parameter.4779 = f32[] parameter(0)
  parameter.4780 = f32[] parameter(1)
  ROOT add.4781 = f32[] add(parameter.4779, parameter.4780)
}

primitive_computation_add.4792 {
  parameter.4793 = f32[] parameter(0)
  parameter.4794 = f32[] parameter(1)
  ROOT add.4795 = f32[] add(parameter.4793, parameter.4794)
}

primitive_computation_add.4865 {
  parameter.4866 = f32[] parameter(0)
  parameter.4867 = f32[] parameter(1)
  ROOT add.4868 = f32[] add(parameter.4866, parameter.4867)
}

primitive_computation_add.4879 {
  parameter.4880 = f32[] parameter(0)
  parameter.4881 = f32[] parameter(1)
  ROOT add.4882 = f32[] add(parameter.4880, parameter.4881)
}

primitive_computation_add.4952 {
  parameter.4953 = f32[] parameter(0)
  parameter.4954 = f32[] parameter(1)
  ROOT add.4955 = f32[] add(parameter.4953, parameter.4954)
}

primitive_computation_add.4966 {
  parameter.4967 = f32[] parameter(0)
  parameter.4968 = f32[] parameter(1)
  ROOT add.4969 = f32[] add(parameter.4967, parameter.4968)
}

primitive_computation_add.5040 {
  parameter.5041 = f32[] parameter(0)
  parameter.5042 = f32[] parameter(1)
  ROOT add.5043 = f32[] add(parameter.5041, parameter.5042)
}

primitive_computation_add.5054 {
  parameter.5055 = f32[] parameter(0)
  parameter.5056 = f32[] parameter(1)
  ROOT add.5057 = f32[] add(parameter.5055, parameter.5056)
}

primitive_computation_add.5127 {
  parameter.5128 = f32[] parameter(0)
  parameter.5129 = f32[] parameter(1)
  ROOT add.5130 = f32[] add(parameter.5128, parameter.5129)
}

primitive_computation_add.5141 {
  parameter.5142 = f32[] parameter(0)
  parameter.5143 = f32[] parameter(1)
  ROOT add.5144 = f32[] add(parameter.5142, parameter.5143)
}

primitive_computation_add.5214 {
  parameter.5215 = f32[] parameter(0)
  parameter.5216 = f32[] parameter(1)
  ROOT add.5217 = f32[] add(parameter.5215, parameter.5216)
}

primitive_computation_add.5228 {
  parameter.5229 = f32[] parameter(0)
  parameter.5230 = f32[] parameter(1)
  ROOT add.5231 = f32[] add(parameter.5229, parameter.5230)
}

primitive_computation_add.5295 {
  parameter.5296 = f32[] parameter(0)
  parameter.5297 = f32[] parameter(1)
  ROOT add.5298 = f32[] add(parameter.5296, parameter.5297)
}

primitive_computation_max__1.5322 {
  parameter.5323 = f32[] parameter(0)
  parameter.5324 = f32[] parameter(1)
  ROOT maximum.5325 = f32[] maximum(parameter.5323, parameter.5324)
}

primitive_computation_add.5333 {
  parameter.5334 = f32[] parameter(0)
  parameter.5335 = f32[] parameter(1)
  ROOT add.5336 = f32[] add(parameter.5334, parameter.5335)
}

primitive_computation_add.5344 {
  parameter.5345 = f32[] parameter(0)
  parameter.5346 = f32[] parameter(1)
  ROOT add.5347 = f32[] add(parameter.5345, parameter.5346)
}

primitive_computation_add.5369 {
  parameter.5370 = f32[] parameter(0)
  parameter.5371 = f32[] parameter(1)
  ROOT add.5372 = f32[] add(parameter.5370, parameter.5371)
}

primitive_computation_add.5382 {
  parameter.5383 = f32[] parameter(0)
  parameter.5384 = f32[] parameter(1)
  ROOT add.5385 = f32[] add(parameter.5383, parameter.5384)
}

primitive_computation_add.5392 {
  parameter.5393 = f32[] parameter(0)
  parameter.5394 = f32[] parameter(1)
  ROOT add.5395 = f32[] add(parameter.5393, parameter.5394)
}

primitive_computation_add.5402 {
  parameter.5403 = f32[] parameter(0)
  parameter.5404 = f32[] parameter(1)
  ROOT add.5405 = f32[] add(parameter.5403, parameter.5404)
}

primitive_computation_add.5412 {
  parameter.5413 = f32[] parameter(0)
  parameter.5414 = f32[] parameter(1)
  ROOT add.5415 = f32[] add(parameter.5413, parameter.5414)
}

primitive_computation_add.5422 {
  parameter.5423 = f32[] parameter(0)
  parameter.5424 = f32[] parameter(1)
  ROOT add.5425 = f32[] add(parameter.5423, parameter.5424)
}

primitive_computation_add.5432 {
  parameter.5433 = f32[] parameter(0)
  parameter.5434 = f32[] parameter(1)
  ROOT add.5435 = f32[] add(parameter.5433, parameter.5434)
}

primitive_computation_add.5442 {
  parameter.5443 = f32[] parameter(0)
  parameter.5444 = f32[] parameter(1)
  ROOT add.5445 = f32[] add(parameter.5443, parameter.5444)
}

primitive_computation_add.5452 {
  parameter.5453 = f32[] parameter(0)
  parameter.5454 = f32[] parameter(1)
  ROOT add.5455 = f32[] add(parameter.5453, parameter.5454)
}

primitive_computation_add.5462 {
  parameter.5463 = f32[] parameter(0)
  parameter.5464 = f32[] parameter(1)
  ROOT add.5465 = f32[] add(parameter.5463, parameter.5464)
}

primitive_computation_add.5472 {
  parameter.5473 = f32[] parameter(0)
  parameter.5474 = f32[] parameter(1)
  ROOT add.5475 = f32[] add(parameter.5473, parameter.5474)
}

primitive_computation_add.5482 {
  parameter.5483 = f32[] parameter(0)
  parameter.5484 = f32[] parameter(1)
  ROOT add.5485 = f32[] add(parameter.5483, parameter.5484)
}

primitive_computation_add.5492 {
  parameter.5493 = f32[] parameter(0)
  parameter.5494 = f32[] parameter(1)
  ROOT add.5495 = f32[] add(parameter.5493, parameter.5494)
}

primitive_computation_add.5502 {
  parameter.5503 = f32[] parameter(0)
  parameter.5504 = f32[] parameter(1)
  ROOT add.5505 = f32[] add(parameter.5503, parameter.5504)
}

primitive_computation_add.5512 {
  parameter.5513 = f32[] parameter(0)
  parameter.5514 = f32[] parameter(1)
  ROOT add.5515 = f32[] add(parameter.5513, parameter.5514)
}

primitive_computation_add.5522 {
  parameter.5523 = f32[] parameter(0)
  parameter.5524 = f32[] parameter(1)
  ROOT add.5525 = f32[] add(parameter.5523, parameter.5524)
}

primitive_computation_add.5532 {
  parameter.5533 = f32[] parameter(0)
  parameter.5534 = f32[] parameter(1)
  ROOT add.5535 = f32[] add(parameter.5533, parameter.5534)
}

primitive_computation_add.5542 {
  parameter.5543 = f32[] parameter(0)
  parameter.5544 = f32[] parameter(1)
  ROOT add.5545 = f32[] add(parameter.5543, parameter.5544)
}

primitive_computation_add.5552 {
  parameter.5553 = f32[] parameter(0)
  parameter.5554 = f32[] parameter(1)
  ROOT add.5555 = f32[] add(parameter.5553, parameter.5554)
}

primitive_computation_add.5562 {
  parameter.5563 = f32[] parameter(0)
  parameter.5564 = f32[] parameter(1)
  ROOT add.5565 = f32[] add(parameter.5563, parameter.5564)
}

primitive_computation_add.5572 {
  parameter.5573 = f32[] parameter(0)
  parameter.5574 = f32[] parameter(1)
  ROOT add.5575 = f32[] add(parameter.5573, parameter.5574)
}

primitive_computation_add.5582 {
  parameter.5583 = f32[] parameter(0)
  parameter.5584 = f32[] parameter(1)
  ROOT add.5585 = f32[] add(parameter.5583, parameter.5584)
}

primitive_computation_add.5592 {
  parameter.5593 = f32[] parameter(0)
  parameter.5594 = f32[] parameter(1)
  ROOT add.5595 = f32[] add(parameter.5593, parameter.5594)
}

primitive_computation_add.5602 {
  parameter.5603 = f32[] parameter(0)
  parameter.5604 = f32[] parameter(1)
  ROOT add.5605 = f32[] add(parameter.5603, parameter.5604)
}

primitive_computation_add.5612 {
  parameter.5613 = f32[] parameter(0)
  parameter.5614 = f32[] parameter(1)
  ROOT add.5615 = f32[] add(parameter.5613, parameter.5614)
}

primitive_computation_add.5622 {
  parameter.5623 = f32[] parameter(0)
  parameter.5624 = f32[] parameter(1)
  ROOT add.5625 = f32[] add(parameter.5623, parameter.5624)
}

primitive_computation_add.5632 {
  parameter.5633 = f32[] parameter(0)
  parameter.5634 = f32[] parameter(1)
  ROOT add.5635 = f32[] add(parameter.5633, parameter.5634)
}

primitive_computation_add.5642 {
  parameter.5643 = f32[] parameter(0)
  parameter.5644 = f32[] parameter(1)
  ROOT add.5645 = f32[] add(parameter.5643, parameter.5644)
}

primitive_computation_add.5652 {
  parameter.5653 = f32[] parameter(0)
  parameter.5654 = f32[] parameter(1)
  ROOT add.5655 = f32[] add(parameter.5653, parameter.5654)
}

primitive_computation_add.5662 {
  parameter.5663 = f32[] parameter(0)
  parameter.5664 = f32[] parameter(1)
  ROOT add.5665 = f32[] add(parameter.5663, parameter.5664)
}

primitive_computation_add.5672 {
  parameter.5673 = f32[] parameter(0)
  parameter.5674 = f32[] parameter(1)
  ROOT add.5675 = f32[] add(parameter.5673, parameter.5674)
}

primitive_computation_add.5682 {
  parameter.5683 = f32[] parameter(0)
  parameter.5684 = f32[] parameter(1)
  ROOT add.5685 = f32[] add(parameter.5683, parameter.5684)
}

primitive_computation_add.5692 {
  parameter.5693 = f32[] parameter(0)
  parameter.5694 = f32[] parameter(1)
  ROOT add.5695 = f32[] add(parameter.5693, parameter.5694)
}

primitive_computation_add.5702 {
  parameter.5703 = f32[] parameter(0)
  parameter.5704 = f32[] parameter(1)
  ROOT add.5705 = f32[] add(parameter.5703, parameter.5704)
}

primitive_computation_add.5712 {
  parameter.5713 = f32[] parameter(0)
  parameter.5714 = f32[] parameter(1)
  ROOT add.5715 = f32[] add(parameter.5713, parameter.5714)
}

primitive_computation_add.5722 {
  parameter.5723 = f32[] parameter(0)
  parameter.5724 = f32[] parameter(1)
  ROOT add.5725 = f32[] add(parameter.5723, parameter.5724)
}

primitive_computation_add.5732 {
  parameter.5733 = f32[] parameter(0)
  parameter.5734 = f32[] parameter(1)
  ROOT add.5735 = f32[] add(parameter.5733, parameter.5734)
}

primitive_computation_add.5742 {
  parameter.5743 = f32[] parameter(0)
  parameter.5744 = f32[] parameter(1)
  ROOT add.5745 = f32[] add(parameter.5743, parameter.5744)
}

primitive_computation_add.5752 {
  parameter.5753 = f32[] parameter(0)
  parameter.5754 = f32[] parameter(1)
  ROOT add.5755 = f32[] add(parameter.5753, parameter.5754)
}

primitive_computation_add.5762 {
  parameter.5763 = f32[] parameter(0)
  parameter.5764 = f32[] parameter(1)
  ROOT add.5765 = f32[] add(parameter.5763, parameter.5764)
}

primitive_computation_add.5772 {
  parameter.5773 = f32[] parameter(0)
  parameter.5774 = f32[] parameter(1)
  ROOT add.5775 = f32[] add(parameter.5773, parameter.5774)
}

primitive_computation_add.5782 {
  parameter.5783 = f32[] parameter(0)
  parameter.5784 = f32[] parameter(1)
  ROOT add.5785 = f32[] add(parameter.5783, parameter.5784)
}

primitive_computation_add.5792 {
  parameter.5793 = f32[] parameter(0)
  parameter.5794 = f32[] parameter(1)
  ROOT add.5795 = f32[] add(parameter.5793, parameter.5794)
}

primitive_computation_add.5802 {
  parameter.5803 = f32[] parameter(0)
  parameter.5804 = f32[] parameter(1)
  ROOT add.5805 = f32[] add(parameter.5803, parameter.5804)
}

primitive_computation_add.5812 {
  parameter.5813 = f32[] parameter(0)
  parameter.5814 = f32[] parameter(1)
  ROOT add.5815 = f32[] add(parameter.5813, parameter.5814)
}

primitive_computation_add.5822 {
  parameter.5823 = f32[] parameter(0)
  parameter.5824 = f32[] parameter(1)
  ROOT add.5825 = f32[] add(parameter.5823, parameter.5824)
}

primitive_computation_add.5832 {
  parameter.5833 = f32[] parameter(0)
  parameter.5834 = f32[] parameter(1)
  ROOT add.5835 = f32[] add(parameter.5833, parameter.5834)
}

primitive_computation_add.5842 {
  parameter.5843 = f32[] parameter(0)
  parameter.5844 = f32[] parameter(1)
  ROOT add.5845 = f32[] add(parameter.5843, parameter.5844)
}

primitive_computation_add.5852 {
  parameter.5853 = f32[] parameter(0)
  parameter.5854 = f32[] parameter(1)
  ROOT add.5855 = f32[] add(parameter.5853, parameter.5854)
}

primitive_computation_add.5862 {
  parameter.5863 = f32[] parameter(0)
  parameter.5864 = f32[] parameter(1)
  ROOT add.5865 = f32[] add(parameter.5863, parameter.5864)
}

primitive_computation_add.5872 {
  parameter.5873 = f32[] parameter(0)
  parameter.5874 = f32[] parameter(1)
  ROOT add.5875 = f32[] add(parameter.5873, parameter.5874)
}

primitive_computation_add.5882 {
  parameter.5883 = f32[] parameter(0)
  parameter.5884 = f32[] parameter(1)
  ROOT add.5885 = f32[] add(parameter.5883, parameter.5884)
}

primitive_computation_add.5892 {
  parameter.5893 = f32[] parameter(0)
  parameter.5894 = f32[] parameter(1)
  ROOT add.5895 = f32[] add(parameter.5893, parameter.5894)
}

primitive_computation_add.5902 {
  parameter.5903 = f32[] parameter(0)
  parameter.5904 = f32[] parameter(1)
  ROOT add.5905 = f32[] add(parameter.5903, parameter.5904)
}

primitive_computation_add.5912 {
  parameter.5913 = f32[] parameter(0)
  parameter.5914 = f32[] parameter(1)
  ROOT add.5915 = f32[] add(parameter.5913, parameter.5914)
}

primitive_computation_add.6093 {
  parameter.6094 = f32[] parameter(0)
  parameter.6095 = f32[] parameter(1)
  ROOT add.6096 = f32[] add(parameter.6094, parameter.6095)
}

primitive_computation_add.6103 {
  parameter.6104 = f32[] parameter(0)
  parameter.6105 = f32[] parameter(1)
  ROOT add.6106 = f32[] add(parameter.6104, parameter.6105)
}

primitive_computation_add__1.6114 {
  parameter.6115 = bf16[] parameter(0)
  parameter.6116 = bf16[] parameter(1)
  ROOT add.6117 = bf16[] add(parameter.6115, parameter.6116)
}

primitive_computation_add__1.6122 {
  parameter.6123 = bf16[] parameter(0)
  parameter.6124 = bf16[] parameter(1)
  ROOT add.6125 = bf16[] add(parameter.6123, parameter.6124)
}

primitive_computation_add.6146 {
  parameter.6147 = f32[] parameter(0)
  parameter.6148 = f32[] parameter(1)
  ROOT add.6149 = f32[] add(parameter.6147, parameter.6148)
}

primitive_computation_add.6156 {
  parameter.6157 = f32[] parameter(0)
  parameter.6158 = f32[] parameter(1)
  ROOT add.6159 = f32[] add(parameter.6157, parameter.6158)
}

primitive_computation_add.6167 {
  parameter.6168 = f32[] parameter(0)
  parameter.6169 = f32[] parameter(1)
  ROOT add.6170 = f32[] add(parameter.6168, parameter.6169)
}

primitive_computation_add.6185 {
  parameter.6186 = f32[] parameter(0)
  parameter.6187 = f32[] parameter(1)
  ROOT add.6188 = f32[] add(parameter.6186, parameter.6187)
}

primitive_computation_add.6212 {
  parameter.6213 = f32[] parameter(0)
  parameter.6214 = f32[] parameter(1)
  ROOT add.6215 = f32[] add(parameter.6213, parameter.6214)
}

primitive_computation_add.6222 {
  parameter.6223 = f32[] parameter(0)
  parameter.6224 = f32[] parameter(1)
  ROOT add.6225 = f32[] add(parameter.6223, parameter.6224)
}

primitive_computation_add.6233 {
  parameter.6234 = f32[] parameter(0)
  parameter.6235 = f32[] parameter(1)
  ROOT add.6236 = f32[] add(parameter.6234, parameter.6235)
}

primitive_computation_add.6251 {
  parameter.6252 = f32[] parameter(0)
  parameter.6253 = f32[] parameter(1)
  ROOT add.6254 = f32[] add(parameter.6252, parameter.6253)
}

primitive_computation_add.6278 {
  parameter.6279 = f32[] parameter(0)
  parameter.6280 = f32[] parameter(1)
  ROOT add.6281 = f32[] add(parameter.6279, parameter.6280)
}

primitive_computation_add.6288 {
  parameter.6289 = f32[] parameter(0)
  parameter.6290 = f32[] parameter(1)
  ROOT add.6291 = f32[] add(parameter.6289, parameter.6290)
}

primitive_computation_add.6299 {
  parameter.6300 = f32[] parameter(0)
  parameter.6301 = f32[] parameter(1)
  ROOT add.6302 = f32[] add(parameter.6300, parameter.6301)
}

primitive_computation_add.6317 {
  parameter.6318 = f32[] parameter(0)
  parameter.6319 = f32[] parameter(1)
  ROOT add.6320 = f32[] add(parameter.6318, parameter.6319)
}

primitive_computation_add.6345 {
  parameter.6346 = f32[] parameter(0)
  parameter.6347 = f32[] parameter(1)
  ROOT add.6348 = f32[] add(parameter.6346, parameter.6347)
}

primitive_computation_add.6355 {
  parameter.6356 = f32[] parameter(0)
  parameter.6357 = f32[] parameter(1)
  ROOT add.6358 = f32[] add(parameter.6356, parameter.6357)
}

primitive_computation_add.6366 {
  parameter.6367 = f32[] parameter(0)
  parameter.6368 = f32[] parameter(1)
  ROOT add.6369 = f32[] add(parameter.6367, parameter.6368)
}

primitive_computation_add.6384 {
  parameter.6385 = f32[] parameter(0)
  parameter.6386 = f32[] parameter(1)
  ROOT add.6387 = f32[] add(parameter.6385, parameter.6386)
}

primitive_computation_add.6411 {
  parameter.6412 = f32[] parameter(0)
  parameter.6413 = f32[] parameter(1)
  ROOT add.6414 = f32[] add(parameter.6412, parameter.6413)
}

primitive_computation_add.6421 {
  parameter.6422 = f32[] parameter(0)
  parameter.6423 = f32[] parameter(1)
  ROOT add.6424 = f32[] add(parameter.6422, parameter.6423)
}

primitive_computation_add.6432 {
  parameter.6433 = f32[] parameter(0)
  parameter.6434 = f32[] parameter(1)
  ROOT add.6435 = f32[] add(parameter.6433, parameter.6434)
}

primitive_computation_add.6450 {
  parameter.6451 = f32[] parameter(0)
  parameter.6452 = f32[] parameter(1)
  ROOT add.6453 = f32[] add(parameter.6451, parameter.6452)
}

primitive_computation_add.6477 {
  parameter.6478 = f32[] parameter(0)
  parameter.6479 = f32[] parameter(1)
  ROOT add.6480 = f32[] add(parameter.6478, parameter.6479)
}

primitive_computation_add.6487 {
  parameter.6488 = f32[] parameter(0)
  parameter.6489 = f32[] parameter(1)
  ROOT add.6490 = f32[] add(parameter.6488, parameter.6489)
}

primitive_computation_add.6498 {
  parameter.6499 = f32[] parameter(0)
  parameter.6500 = f32[] parameter(1)
  ROOT add.6501 = f32[] add(parameter.6499, parameter.6500)
}

primitive_computation_add.6516 {
  parameter.6517 = f32[] parameter(0)
  parameter.6518 = f32[] parameter(1)
  ROOT add.6519 = f32[] add(parameter.6517, parameter.6518)
}

primitive_computation_add.6544 {
  parameter.6545 = f32[] parameter(0)
  parameter.6546 = f32[] parameter(1)
  ROOT add.6547 = f32[] add(parameter.6545, parameter.6546)
}

primitive_computation_add.6554 {
  parameter.6555 = f32[] parameter(0)
  parameter.6556 = f32[] parameter(1)
  ROOT add.6557 = f32[] add(parameter.6555, parameter.6556)
}

primitive_computation_add.6565 {
  parameter.6566 = f32[] parameter(0)
  parameter.6567 = f32[] parameter(1)
  ROOT add.6568 = f32[] add(parameter.6566, parameter.6567)
}

primitive_computation_add.6583 {
  parameter.6584 = f32[] parameter(0)
  parameter.6585 = f32[] parameter(1)
  ROOT add.6586 = f32[] add(parameter.6584, parameter.6585)
}

primitive_computation_add.6610 {
  parameter.6611 = f32[] parameter(0)
  parameter.6612 = f32[] parameter(1)
  ROOT add.6613 = f32[] add(parameter.6611, parameter.6612)
}

primitive_computation_add.6620 {
  parameter.6621 = f32[] parameter(0)
  parameter.6622 = f32[] parameter(1)
  ROOT add.6623 = f32[] add(parameter.6621, parameter.6622)
}

primitive_computation_add.6631 {
  parameter.6632 = f32[] parameter(0)
  parameter.6633 = f32[] parameter(1)
  ROOT add.6634 = f32[] add(parameter.6632, parameter.6633)
}

primitive_computation_add.6649 {
  parameter.6650 = f32[] parameter(0)
  parameter.6651 = f32[] parameter(1)
  ROOT add.6652 = f32[] add(parameter.6650, parameter.6651)
}

primitive_computation_add.6676 {
  parameter.6677 = f32[] parameter(0)
  parameter.6678 = f32[] parameter(1)
  ROOT add.6679 = f32[] add(parameter.6677, parameter.6678)
}

primitive_computation_add.6686 {
  parameter.6687 = f32[] parameter(0)
  parameter.6688 = f32[] parameter(1)
  ROOT add.6689 = f32[] add(parameter.6687, parameter.6688)
}

primitive_computation_add.6697 {
  parameter.6698 = f32[] parameter(0)
  parameter.6699 = f32[] parameter(1)
  ROOT add.6700 = f32[] add(parameter.6698, parameter.6699)
}

primitive_computation_add.6715 {
  parameter.6716 = f32[] parameter(0)
  parameter.6717 = f32[] parameter(1)
  ROOT add.6718 = f32[] add(parameter.6716, parameter.6717)
}

primitive_computation_add.6739 {
  parameter.6740 = f32[] parameter(0)
  parameter.6741 = f32[] parameter(1)
  ROOT add.6742 = f32[] add(parameter.6740, parameter.6741)
}

primitive_computation_add.6749 {
  parameter.6750 = f32[] parameter(0)
  parameter.6751 = f32[] parameter(1)
  ROOT add.6752 = f32[] add(parameter.6750, parameter.6751)
}

primitive_computation_add.6760 {
  parameter.6761 = f32[] parameter(0)
  parameter.6762 = f32[] parameter(1)
  ROOT add.6763 = f32[] add(parameter.6761, parameter.6762)
}

primitive_computation_add.6778 {
  parameter.6779 = f32[] parameter(0)
  parameter.6780 = f32[] parameter(1)
  ROOT add.6781 = f32[] add(parameter.6779, parameter.6780)
}

primitive_computation_add.6806 {
  parameter.6807 = f32[] parameter(0)
  parameter.6808 = f32[] parameter(1)
  ROOT add.6809 = f32[] add(parameter.6807, parameter.6808)
}

primitive_computation_add.6816 {
  parameter.6817 = f32[] parameter(0)
  parameter.6818 = f32[] parameter(1)
  ROOT add.6819 = f32[] add(parameter.6817, parameter.6818)
}

primitive_computation_add.6827 {
  parameter.6828 = f32[] parameter(0)
  parameter.6829 = f32[] parameter(1)
  ROOT add.6830 = f32[] add(parameter.6828, parameter.6829)
}

primitive_computation_add.6845 {
  parameter.6846 = f32[] parameter(0)
  parameter.6847 = f32[] parameter(1)
  ROOT add.6848 = f32[] add(parameter.6846, parameter.6847)
}

primitive_computation_add.6872 {
  parameter.6873 = f32[] parameter(0)
  parameter.6874 = f32[] parameter(1)
  ROOT add.6875 = f32[] add(parameter.6873, parameter.6874)
}

primitive_computation_add.6882 {
  parameter.6883 = f32[] parameter(0)
  parameter.6884 = f32[] parameter(1)
  ROOT add.6885 = f32[] add(parameter.6883, parameter.6884)
}

primitive_computation_add.6893 {
  parameter.6894 = f32[] parameter(0)
  parameter.6895 = f32[] parameter(1)
  ROOT add.6896 = f32[] add(parameter.6894, parameter.6895)
}

primitive_computation_add.6911 {
  parameter.6912 = f32[] parameter(0)
  parameter.6913 = f32[] parameter(1)
  ROOT add.6914 = f32[] add(parameter.6912, parameter.6913)
}

primitive_computation_add.6938 {
  parameter.6939 = f32[] parameter(0)
  parameter.6940 = f32[] parameter(1)
  ROOT add.6941 = f32[] add(parameter.6939, parameter.6940)
}

primitive_computation_add.6948 {
  parameter.6949 = f32[] parameter(0)
  parameter.6950 = f32[] parameter(1)
  ROOT add.6951 = f32[] add(parameter.6949, parameter.6950)
}

primitive_computation_add.6959 {
  parameter.6960 = f32[] parameter(0)
  parameter.6961 = f32[] parameter(1)
  ROOT add.6962 = f32[] add(parameter.6960, parameter.6961)
}

primitive_computation_add.6977 {
  parameter.6978 = f32[] parameter(0)
  parameter.6979 = f32[] parameter(1)
  ROOT add.6980 = f32[] add(parameter.6978, parameter.6979)
}

primitive_computation_add.7005 {
  parameter.7006 = f32[] parameter(0)
  parameter.7007 = f32[] parameter(1)
  ROOT add.7008 = f32[] add(parameter.7006, parameter.7007)
}

primitive_computation_add.7015 {
  parameter.7016 = f32[] parameter(0)
  parameter.7017 = f32[] parameter(1)
  ROOT add.7018 = f32[] add(parameter.7016, parameter.7017)
}

primitive_computation_add.7026 {
  parameter.7027 = f32[] parameter(0)
  parameter.7028 = f32[] parameter(1)
  ROOT add.7029 = f32[] add(parameter.7027, parameter.7028)
}

primitive_computation_add.7044 {
  parameter.7045 = f32[] parameter(0)
  parameter.7046 = f32[] parameter(1)
  ROOT add.7047 = f32[] add(parameter.7045, parameter.7046)
}

primitive_computation_add.7071 {
  parameter.7072 = f32[] parameter(0)
  parameter.7073 = f32[] parameter(1)
  ROOT add.7074 = f32[] add(parameter.7072, parameter.7073)
}

primitive_computation_add.7081 {
  parameter.7082 = f32[] parameter(0)
  parameter.7083 = f32[] parameter(1)
  ROOT add.7084 = f32[] add(parameter.7082, parameter.7083)
}

primitive_computation_add.7092 {
  parameter.7093 = f32[] parameter(0)
  parameter.7094 = f32[] parameter(1)
  ROOT add.7095 = f32[] add(parameter.7093, parameter.7094)
}

primitive_computation_add.7110 {
  parameter.7111 = f32[] parameter(0)
  parameter.7112 = f32[] parameter(1)
  ROOT add.7113 = f32[] add(parameter.7111, parameter.7112)
}

primitive_computation_add.7137 {
  parameter.7138 = f32[] parameter(0)
  parameter.7139 = f32[] parameter(1)
  ROOT add.7140 = f32[] add(parameter.7138, parameter.7139)
}

primitive_computation_add.7147 {
  parameter.7148 = f32[] parameter(0)
  parameter.7149 = f32[] parameter(1)
  ROOT add.7150 = f32[] add(parameter.7148, parameter.7149)
}

primitive_computation_add.7158 {
  parameter.7159 = f32[] parameter(0)
  parameter.7160 = f32[] parameter(1)
  ROOT add.7161 = f32[] add(parameter.7159, parameter.7160)
}

primitive_computation_add.7176 {
  parameter.7177 = f32[] parameter(0)
  parameter.7178 = f32[] parameter(1)
  ROOT add.7179 = f32[] add(parameter.7177, parameter.7178)
}

primitive_computation_add.7204 {
  parameter.7205 = f32[] parameter(0)
  parameter.7206 = f32[] parameter(1)
  ROOT add.7207 = f32[] add(parameter.7205, parameter.7206)
}

primitive_computation_add.7214 {
  parameter.7215 = f32[] parameter(0)
  parameter.7216 = f32[] parameter(1)
  ROOT add.7217 = f32[] add(parameter.7215, parameter.7216)
}

primitive_computation_add.7225 {
  parameter.7226 = f32[] parameter(0)
  parameter.7227 = f32[] parameter(1)
  ROOT add.7228 = f32[] add(parameter.7226, parameter.7227)
}

primitive_computation_add.7243 {
  parameter.7244 = f32[] parameter(0)
  parameter.7245 = f32[] parameter(1)
  ROOT add.7246 = f32[] add(parameter.7244, parameter.7245)
}

primitive_computation_add.7270 {
  parameter.7271 = f32[] parameter(0)
  parameter.7272 = f32[] parameter(1)
  ROOT add.7273 = f32[] add(parameter.7271, parameter.7272)
}

primitive_computation_add.7280 {
  parameter.7281 = f32[] parameter(0)
  parameter.7282 = f32[] parameter(1)
  ROOT add.7283 = f32[] add(parameter.7281, parameter.7282)
}

primitive_computation_add.7291 {
  parameter.7292 = f32[] parameter(0)
  parameter.7293 = f32[] parameter(1)
  ROOT add.7294 = f32[] add(parameter.7292, parameter.7293)
}

primitive_computation_add.7309 {
  parameter.7310 = f32[] parameter(0)
  parameter.7311 = f32[] parameter(1)
  ROOT add.7312 = f32[] add(parameter.7310, parameter.7311)
}

primitive_computation_add.7336 {
  parameter.7337 = f32[] parameter(0)
  parameter.7338 = f32[] parameter(1)
  ROOT add.7339 = f32[] add(parameter.7337, parameter.7338)
}

primitive_computation_add.7346 {
  parameter.7347 = f32[] parameter(0)
  parameter.7348 = f32[] parameter(1)
  ROOT add.7349 = f32[] add(parameter.7347, parameter.7348)
}

primitive_computation_add.7357 {
  parameter.7358 = f32[] parameter(0)
  parameter.7359 = f32[] parameter(1)
  ROOT add.7360 = f32[] add(parameter.7358, parameter.7359)
}

primitive_computation_add.7375 {
  parameter.7376 = f32[] parameter(0)
  parameter.7377 = f32[] parameter(1)
  ROOT add.7378 = f32[] add(parameter.7376, parameter.7377)
}

primitive_computation_add.7403 {
  parameter.7404 = f32[] parameter(0)
  parameter.7405 = f32[] parameter(1)
  ROOT add.7406 = f32[] add(parameter.7404, parameter.7405)
}

primitive_computation_add.7413 {
  parameter.7414 = f32[] parameter(0)
  parameter.7415 = f32[] parameter(1)
  ROOT add.7416 = f32[] add(parameter.7414, parameter.7415)
}

primitive_computation_add.7424 {
  parameter.7425 = f32[] parameter(0)
  parameter.7426 = f32[] parameter(1)
  ROOT add.7427 = f32[] add(parameter.7425, parameter.7426)
}

primitive_computation_add.7442 {
  parameter.7443 = f32[] parameter(0)
  parameter.7444 = f32[] parameter(1)
  ROOT add.7445 = f32[] add(parameter.7443, parameter.7444)
}

primitive_computation_add.7469 {
  parameter.7470 = f32[] parameter(0)
  parameter.7471 = f32[] parameter(1)
  ROOT add.7472 = f32[] add(parameter.7470, parameter.7471)
}

primitive_computation_add.7479 {
  parameter.7480 = f32[] parameter(0)
  parameter.7481 = f32[] parameter(1)
  ROOT add.7482 = f32[] add(parameter.7480, parameter.7481)
}

primitive_computation_add.7490 {
  parameter.7491 = f32[] parameter(0)
  parameter.7492 = f32[] parameter(1)
  ROOT add.7493 = f32[] add(parameter.7491, parameter.7492)
}

primitive_computation_add.7508 {
  parameter.7509 = f32[] parameter(0)
  parameter.7510 = f32[] parameter(1)
  ROOT add.7511 = f32[] add(parameter.7509, parameter.7510)
}

primitive_computation_add.7535 {
  parameter.7536 = f32[] parameter(0)
  parameter.7537 = f32[] parameter(1)
  ROOT add.7538 = f32[] add(parameter.7536, parameter.7537)
}

primitive_computation_add.7545 {
  parameter.7546 = f32[] parameter(0)
  parameter.7547 = f32[] parameter(1)
  ROOT add.7548 = f32[] add(parameter.7546, parameter.7547)
}

primitive_computation_add.7556 {
  parameter.7557 = f32[] parameter(0)
  parameter.7558 = f32[] parameter(1)
  ROOT add.7559 = f32[] add(parameter.7557, parameter.7558)
}

primitive_computation_add.7574 {
  parameter.7575 = f32[] parameter(0)
  parameter.7576 = f32[] parameter(1)
  ROOT add.7577 = f32[] add(parameter.7575, parameter.7576)
}

primitive_computation_add.7602 {
  parameter.7603 = f32[] parameter(0)
  parameter.7604 = f32[] parameter(1)
  ROOT add.7605 = f32[] add(parameter.7603, parameter.7604)
}

primitive_computation_add.7612 {
  parameter.7613 = f32[] parameter(0)
  parameter.7614 = f32[] parameter(1)
  ROOT add.7615 = f32[] add(parameter.7613, parameter.7614)
}

primitive_computation_add.7623 {
  parameter.7624 = f32[] parameter(0)
  parameter.7625 = f32[] parameter(1)
  ROOT add.7626 = f32[] add(parameter.7624, parameter.7625)
}

primitive_computation_add.7641 {
  parameter.7642 = f32[] parameter(0)
  parameter.7643 = f32[] parameter(1)
  ROOT add.7644 = f32[] add(parameter.7642, parameter.7643)
}

primitive_computation_add.7668 {
  parameter.7669 = f32[] parameter(0)
  parameter.7670 = f32[] parameter(1)
  ROOT add.7671 = f32[] add(parameter.7669, parameter.7670)
}

primitive_computation_add.7678 {
  parameter.7679 = f32[] parameter(0)
  parameter.7680 = f32[] parameter(1)
  ROOT add.7681 = f32[] add(parameter.7679, parameter.7680)
}

primitive_computation_add.7689 {
  parameter.7690 = f32[] parameter(0)
  parameter.7691 = f32[] parameter(1)
  ROOT add.7692 = f32[] add(parameter.7690, parameter.7691)
}

primitive_computation_add.7707 {
  parameter.7708 = f32[] parameter(0)
  parameter.7709 = f32[] parameter(1)
  ROOT add.7710 = f32[] add(parameter.7708, parameter.7709)
}

primitive_computation_add.7734 {
  parameter.7735 = f32[] parameter(0)
  parameter.7736 = f32[] parameter(1)
  ROOT add.7737 = f32[] add(parameter.7735, parameter.7736)
}

primitive_computation_add.7744 {
  parameter.7745 = f32[] parameter(0)
  parameter.7746 = f32[] parameter(1)
  ROOT add.7747 = f32[] add(parameter.7745, parameter.7746)
}

primitive_computation_add.7755 {
  parameter.7756 = f32[] parameter(0)
  parameter.7757 = f32[] parameter(1)
  ROOT add.7758 = f32[] add(parameter.7756, parameter.7757)
}

primitive_computation_add.7773 {
  parameter.7774 = f32[] parameter(0)
  parameter.7775 = f32[] parameter(1)
  ROOT add.7776 = f32[] add(parameter.7774, parameter.7775)
}

primitive_computation_add.7801 {
  parameter.7802 = f32[] parameter(0)
  parameter.7803 = f32[] parameter(1)
  ROOT add.7804 = f32[] add(parameter.7802, parameter.7803)
}

primitive_computation_add.7811 {
  parameter.7812 = f32[] parameter(0)
  parameter.7813 = f32[] parameter(1)
  ROOT add.7814 = f32[] add(parameter.7812, parameter.7813)
}

primitive_computation_add.7822 {
  parameter.7823 = f32[] parameter(0)
  parameter.7824 = f32[] parameter(1)
  ROOT add.7825 = f32[] add(parameter.7823, parameter.7824)
}

primitive_computation_add.7840 {
  parameter.7841 = f32[] parameter(0)
  parameter.7842 = f32[] parameter(1)
  ROOT add.7843 = f32[] add(parameter.7841, parameter.7842)
}

primitive_computation_add.7867 {
  parameter.7868 = f32[] parameter(0)
  parameter.7869 = f32[] parameter(1)
  ROOT add.7870 = f32[] add(parameter.7868, parameter.7869)
}

primitive_computation_add.7877 {
  parameter.7878 = f32[] parameter(0)
  parameter.7879 = f32[] parameter(1)
  ROOT add.7880 = f32[] add(parameter.7878, parameter.7879)
}

primitive_computation_add.7888 {
  parameter.7889 = f32[] parameter(0)
  parameter.7890 = f32[] parameter(1)
  ROOT add.7891 = f32[] add(parameter.7889, parameter.7890)
}

primitive_computation_add.7906 {
  parameter.7907 = f32[] parameter(0)
  parameter.7908 = f32[] parameter(1)
  ROOT add.7909 = f32[] add(parameter.7907, parameter.7908)
}

primitive_computation_add.7933 {
  parameter.7934 = f32[] parameter(0)
  parameter.7935 = f32[] parameter(1)
  ROOT add.7936 = f32[] add(parameter.7934, parameter.7935)
}

primitive_computation_add.7943 {
  parameter.7944 = f32[] parameter(0)
  parameter.7945 = f32[] parameter(1)
  ROOT add.7946 = f32[] add(parameter.7944, parameter.7945)
}

primitive_computation_add.7954 {
  parameter.7955 = f32[] parameter(0)
  parameter.7956 = f32[] parameter(1)
  ROOT add.7957 = f32[] add(parameter.7955, parameter.7956)
}

primitive_computation_add.7972 {
  parameter.7973 = f32[] parameter(0)
  parameter.7974 = f32[] parameter(1)
  ROOT add.7975 = f32[] add(parameter.7973, parameter.7974)
}

primitive_computation_add.7996 {
  parameter.7997 = f32[] parameter(0)
  parameter.7998 = f32[] parameter(1)
  ROOT add.7999 = f32[] add(parameter.7997, parameter.7998)
}

primitive_computation_add.8006 {
  parameter.8007 = f32[] parameter(0)
  parameter.8008 = f32[] parameter(1)
  ROOT add.8009 = f32[] add(parameter.8007, parameter.8008)
}

primitive_computation_add.8017 {
  parameter.8018 = f32[] parameter(0)
  parameter.8019 = f32[] parameter(1)
  ROOT add.8020 = f32[] add(parameter.8018, parameter.8019)
}

primitive_computation_add.8035 {
  parameter.8036 = f32[] parameter(0)
  parameter.8037 = f32[] parameter(1)
  ROOT add.8038 = f32[] add(parameter.8036, parameter.8037)
}

primitive_computation_add.8063 {
  parameter.8064 = f32[] parameter(0)
  parameter.8065 = f32[] parameter(1)
  ROOT add.8066 = f32[] add(parameter.8064, parameter.8065)
}

primitive_computation_add.8073 {
  parameter.8074 = f32[] parameter(0)
  parameter.8075 = f32[] parameter(1)
  ROOT add.8076 = f32[] add(parameter.8074, parameter.8075)
}

primitive_computation_add.8084 {
  parameter.8085 = f32[] parameter(0)
  parameter.8086 = f32[] parameter(1)
  ROOT add.8087 = f32[] add(parameter.8085, parameter.8086)
}

primitive_computation_add.8102 {
  parameter.8103 = f32[] parameter(0)
  parameter.8104 = f32[] parameter(1)
  ROOT add.8105 = f32[] add(parameter.8103, parameter.8104)
}

primitive_computation_add.8129 {
  parameter.8130 = f32[] parameter(0)
  parameter.8131 = f32[] parameter(1)
  ROOT add.8132 = f32[] add(parameter.8130, parameter.8131)
}

primitive_computation_add.8139 {
  parameter.8140 = f32[] parameter(0)
  parameter.8141 = f32[] parameter(1)
  ROOT add.8142 = f32[] add(parameter.8140, parameter.8141)
}

primitive_computation_add.8150 {
  parameter.8151 = f32[] parameter(0)
  parameter.8152 = f32[] parameter(1)
  ROOT add.8153 = f32[] add(parameter.8151, parameter.8152)
}

primitive_computation_add.8168 {
  parameter.8169 = f32[] parameter(0)
  parameter.8170 = f32[] parameter(1)
  ROOT add.8171 = f32[] add(parameter.8169, parameter.8170)
}

primitive_computation_add.8195 {
  parameter.8196 = f32[] parameter(0)
  parameter.8197 = f32[] parameter(1)
  ROOT add.8198 = f32[] add(parameter.8196, parameter.8197)
}

primitive_computation_add.8205 {
  parameter.8206 = f32[] parameter(0)
  parameter.8207 = f32[] parameter(1)
  ROOT add.8208 = f32[] add(parameter.8206, parameter.8207)
}

primitive_computation_add.8216 {
  parameter.8217 = f32[] parameter(0)
  parameter.8218 = f32[] parameter(1)
  ROOT add.8219 = f32[] add(parameter.8217, parameter.8218)
}

primitive_computation_add.8234 {
  parameter.8235 = f32[] parameter(0)
  parameter.8236 = f32[] parameter(1)
  ROOT add.8237 = f32[] add(parameter.8235, parameter.8236)
}

primitive_computation_add.8262 {
  parameter.8263 = f32[] parameter(0)
  parameter.8264 = f32[] parameter(1)
  ROOT add.8265 = f32[] add(parameter.8263, parameter.8264)
}

primitive_computation_add.8272 {
  parameter.8273 = f32[] parameter(0)
  parameter.8274 = f32[] parameter(1)
  ROOT add.8275 = f32[] add(parameter.8273, parameter.8274)
}

primitive_computation_add.8283 {
  parameter.8284 = f32[] parameter(0)
  parameter.8285 = f32[] parameter(1)
  ROOT add.8286 = f32[] add(parameter.8284, parameter.8285)
}

primitive_computation_add.8301 {
  parameter.8302 = f32[] parameter(0)
  parameter.8303 = f32[] parameter(1)
  ROOT add.8304 = f32[] add(parameter.8302, parameter.8303)
}

primitive_computation_add.8328 {
  parameter.8329 = f32[] parameter(0)
  parameter.8330 = f32[] parameter(1)
  ROOT add.8331 = f32[] add(parameter.8329, parameter.8330)
}

primitive_computation_add.8338 {
  parameter.8339 = f32[] parameter(0)
  parameter.8340 = f32[] parameter(1)
  ROOT add.8341 = f32[] add(parameter.8339, parameter.8340)
}

primitive_computation_add.8349 {
  parameter.8350 = f32[] parameter(0)
  parameter.8351 = f32[] parameter(1)
  ROOT add.8352 = f32[] add(parameter.8350, parameter.8351)
}

primitive_computation_add.8367 {
  parameter.8368 = f32[] parameter(0)
  parameter.8369 = f32[] parameter(1)
  ROOT add.8370 = f32[] add(parameter.8368, parameter.8369)
}

primitive_computation_add.8394 {
  parameter.8395 = f32[] parameter(0)
  parameter.8396 = f32[] parameter(1)
  ROOT add.8397 = f32[] add(parameter.8395, parameter.8396)
}

primitive_computation_add.8404 {
  parameter.8405 = f32[] parameter(0)
  parameter.8406 = f32[] parameter(1)
  ROOT add.8407 = f32[] add(parameter.8405, parameter.8406)
}

primitive_computation_add.8415 {
  parameter.8416 = f32[] parameter(0)
  parameter.8417 = f32[] parameter(1)
  ROOT add.8418 = f32[] add(parameter.8416, parameter.8417)
}

primitive_computation_add.8433 {
  parameter.8434 = f32[] parameter(0)
  parameter.8435 = f32[] parameter(1)
  ROOT add.8436 = f32[] add(parameter.8434, parameter.8435)
}

primitive_computation_add.8461 {
  parameter.8462 = f32[] parameter(0)
  parameter.8463 = f32[] parameter(1)
  ROOT add.8464 = f32[] add(parameter.8462, parameter.8463)
}

primitive_computation_add.8471 {
  parameter.8472 = f32[] parameter(0)
  parameter.8473 = f32[] parameter(1)
  ROOT add.8474 = f32[] add(parameter.8472, parameter.8473)
}

primitive_computation_add.8482 {
  parameter.8483 = f32[] parameter(0)
  parameter.8484 = f32[] parameter(1)
  ROOT add.8485 = f32[] add(parameter.8483, parameter.8484)
}

primitive_computation_add.8500 {
  parameter.8501 = f32[] parameter(0)
  parameter.8502 = f32[] parameter(1)
  ROOT add.8503 = f32[] add(parameter.8501, parameter.8502)
}

primitive_computation_add.8527 {
  parameter.8528 = f32[] parameter(0)
  parameter.8529 = f32[] parameter(1)
  ROOT add.8530 = f32[] add(parameter.8528, parameter.8529)
}

primitive_computation_add.8537 {
  parameter.8538 = f32[] parameter(0)
  parameter.8539 = f32[] parameter(1)
  ROOT add.8540 = f32[] add(parameter.8538, parameter.8539)
}

primitive_computation_add.8548 {
  parameter.8549 = f32[] parameter(0)
  parameter.8550 = f32[] parameter(1)
  ROOT add.8551 = f32[] add(parameter.8549, parameter.8550)
}

primitive_computation_add.8566 {
  parameter.8567 = f32[] parameter(0)
  parameter.8568 = f32[] parameter(1)
  ROOT add.8569 = f32[] add(parameter.8567, parameter.8568)
}

primitive_computation_add.8593 {
  parameter.8594 = f32[] parameter(0)
  parameter.8595 = f32[] parameter(1)
  ROOT add.8596 = f32[] add(parameter.8594, parameter.8595)
}

primitive_computation_add.8603 {
  parameter.8604 = f32[] parameter(0)
  parameter.8605 = f32[] parameter(1)
  ROOT add.8606 = f32[] add(parameter.8604, parameter.8605)
}

primitive_computation_add.8614 {
  parameter.8615 = f32[] parameter(0)
  parameter.8616 = f32[] parameter(1)
  ROOT add.8617 = f32[] add(parameter.8615, parameter.8616)
}

primitive_computation_add.8632 {
  parameter.8633 = f32[] parameter(0)
  parameter.8634 = f32[] parameter(1)
  ROOT add.8635 = f32[] add(parameter.8633, parameter.8634)
}

primitive_computation_add.8660 {
  parameter.8661 = f32[] parameter(0)
  parameter.8662 = f32[] parameter(1)
  ROOT add.8663 = f32[] add(parameter.8661, parameter.8662)
}

primitive_computation_add.8670 {
  parameter.8671 = f32[] parameter(0)
  parameter.8672 = f32[] parameter(1)
  ROOT add.8673 = f32[] add(parameter.8671, parameter.8672)
}

primitive_computation_add.8681 {
  parameter.8682 = f32[] parameter(0)
  parameter.8683 = f32[] parameter(1)
  ROOT add.8684 = f32[] add(parameter.8682, parameter.8683)
}

primitive_computation_add.8699 {
  parameter.8700 = f32[] parameter(0)
  parameter.8701 = f32[] parameter(1)
  ROOT add.8702 = f32[] add(parameter.8700, parameter.8701)
}

primitive_computation_add.8726 {
  parameter.8727 = f32[] parameter(0)
  parameter.8728 = f32[] parameter(1)
  ROOT add.8729 = f32[] add(parameter.8727, parameter.8728)
}

primitive_computation_add.8736 {
  parameter.8737 = f32[] parameter(0)
  parameter.8738 = f32[] parameter(1)
  ROOT add.8739 = f32[] add(parameter.8737, parameter.8738)
}

primitive_computation_add.8747 {
  parameter.8748 = f32[] parameter(0)
  parameter.8749 = f32[] parameter(1)
  ROOT add.8750 = f32[] add(parameter.8748, parameter.8749)
}

primitive_computation_add.8765 {
  parameter.8766 = f32[] parameter(0)
  parameter.8767 = f32[] parameter(1)
  ROOT add.8768 = f32[] add(parameter.8766, parameter.8767)
}

primitive_computation_add.8792 {
  parameter.8793 = f32[] parameter(0)
  parameter.8794 = f32[] parameter(1)
  ROOT add.8795 = f32[] add(parameter.8793, parameter.8794)
}

primitive_computation_add.8802 {
  parameter.8803 = f32[] parameter(0)
  parameter.8804 = f32[] parameter(1)
  ROOT add.8805 = f32[] add(parameter.8803, parameter.8804)
}

primitive_computation_add.8813 {
  parameter.8814 = f32[] parameter(0)
  parameter.8815 = f32[] parameter(1)
  ROOT add.8816 = f32[] add(parameter.8814, parameter.8815)
}

primitive_computation_add.8831 {
  parameter.8832 = f32[] parameter(0)
  parameter.8833 = f32[] parameter(1)
  ROOT add.8834 = f32[] add(parameter.8832, parameter.8833)
}

primitive_computation_add.8855 {
  parameter.8856 = f32[] parameter(0)
  parameter.8857 = f32[] parameter(1)
  ROOT add.8858 = f32[] add(parameter.8856, parameter.8857)
}

primitive_computation_add.8865 {
  parameter.8866 = f32[] parameter(0)
  parameter.8867 = f32[] parameter(1)
  ROOT add.8868 = f32[] add(parameter.8866, parameter.8867)
}

primitive_computation_add.8876 {
  parameter.8877 = f32[] parameter(0)
  parameter.8878 = f32[] parameter(1)
  ROOT add.8879 = f32[] add(parameter.8877, parameter.8878)
}

primitive_computation_add.8894 {
  parameter.8895 = f32[] parameter(0)
  parameter.8896 = f32[] parameter(1)
  ROOT add.8897 = f32[] add(parameter.8895, parameter.8896)
}

primitive_computation_add.8922 {
  parameter.8923 = f32[] parameter(0)
  parameter.8924 = f32[] parameter(1)
  ROOT add.8925 = f32[] add(parameter.8923, parameter.8924)
}

primitive_computation_add.8932 {
  parameter.8933 = f32[] parameter(0)
  parameter.8934 = f32[] parameter(1)
  ROOT add.8935 = f32[] add(parameter.8933, parameter.8934)
}

primitive_computation_add.8943 {
  parameter.8944 = f32[] parameter(0)
  parameter.8945 = f32[] parameter(1)
  ROOT add.8946 = f32[] add(parameter.8944, parameter.8945)
}

primitive_computation_add.8961 {
  parameter.8962 = f32[] parameter(0)
  parameter.8963 = f32[] parameter(1)
  ROOT add.8964 = f32[] add(parameter.8962, parameter.8963)
}

primitive_computation_add.8988 {
  parameter.8989 = f32[] parameter(0)
  parameter.8990 = f32[] parameter(1)
  ROOT add.8991 = f32[] add(parameter.8989, parameter.8990)
}

primitive_computation_add.8998 {
  parameter.8999 = f32[] parameter(0)
  parameter.9000 = f32[] parameter(1)
  ROOT add.9001 = f32[] add(parameter.8999, parameter.9000)
}

primitive_computation_add.9009 {
  parameter.9010 = f32[] parameter(0)
  parameter.9011 = f32[] parameter(1)
  ROOT add.9012 = f32[] add(parameter.9010, parameter.9011)
}

primitive_computation_add.9027 {
  parameter.9028 = f32[] parameter(0)
  parameter.9029 = f32[] parameter(1)
  ROOT add.9030 = f32[] add(parameter.9028, parameter.9029)
}

primitive_computation_add.9054 {
  parameter.9055 = f32[] parameter(0)
  parameter.9056 = f32[] parameter(1)
  ROOT add.9057 = f32[] add(parameter.9055, parameter.9056)
}

primitive_computation_add.9064 {
  parameter.9065 = f32[] parameter(0)
  parameter.9066 = f32[] parameter(1)
  ROOT add.9067 = f32[] add(parameter.9065, parameter.9066)
}

primitive_computation_add.9075 {
  parameter.9076 = f32[] parameter(0)
  parameter.9077 = f32[] parameter(1)
  ROOT add.9078 = f32[] add(parameter.9076, parameter.9077)
}

primitive_computation_add.9093 {
  parameter.9094 = f32[] parameter(0)
  parameter.9095 = f32[] parameter(1)
  ROOT add.9096 = f32[] add(parameter.9094, parameter.9095)
}

primitive_computation_add.9121 {
  parameter.9122 = f32[] parameter(0)
  parameter.9123 = f32[] parameter(1)
  ROOT add.9124 = f32[] add(parameter.9122, parameter.9123)
}

primitive_computation_add.9131 {
  parameter.9132 = f32[] parameter(0)
  parameter.9133 = f32[] parameter(1)
  ROOT add.9134 = f32[] add(parameter.9132, parameter.9133)
}

primitive_computation_add.9142 {
  parameter.9143 = f32[] parameter(0)
  parameter.9144 = f32[] parameter(1)
  ROOT add.9145 = f32[] add(parameter.9143, parameter.9144)
}

primitive_computation_add.9160 {
  parameter.9161 = f32[] parameter(0)
  parameter.9162 = f32[] parameter(1)
  ROOT add.9163 = f32[] add(parameter.9161, parameter.9162)
}

primitive_computation_add.9187 {
  parameter.9188 = f32[] parameter(0)
  parameter.9189 = f32[] parameter(1)
  ROOT add.9190 = f32[] add(parameter.9188, parameter.9189)
}

primitive_computation_add.9197 {
  parameter.9198 = f32[] parameter(0)
  parameter.9199 = f32[] parameter(1)
  ROOT add.9200 = f32[] add(parameter.9198, parameter.9199)
}

primitive_computation_add.9208 {
  parameter.9209 = f32[] parameter(0)
  parameter.9210 = f32[] parameter(1)
  ROOT add.9211 = f32[] add(parameter.9209, parameter.9210)
}

primitive_computation_add.9226 {
  parameter.9227 = f32[] parameter(0)
  parameter.9228 = f32[] parameter(1)
  ROOT add.9229 = f32[] add(parameter.9227, parameter.9228)
}

primitive_computation_add.9253 {
  parameter.9254 = f32[] parameter(0)
  parameter.9255 = f32[] parameter(1)
  ROOT add.9256 = f32[] add(parameter.9254, parameter.9255)
}

primitive_computation_add.9263 {
  parameter.9264 = f32[] parameter(0)
  parameter.9265 = f32[] parameter(1)
  ROOT add.9266 = f32[] add(parameter.9264, parameter.9265)
}

primitive_computation_add.9274 {
  parameter.9275 = f32[] parameter(0)
  parameter.9276 = f32[] parameter(1)
  ROOT add.9277 = f32[] add(parameter.9275, parameter.9276)
}

primitive_computation_add.9292 {
  parameter.9293 = f32[] parameter(0)
  parameter.9294 = f32[] parameter(1)
  ROOT add.9295 = f32[] add(parameter.9293, parameter.9294)
}

primitive_computation_add.9320 {
  parameter.9321 = f32[] parameter(0)
  parameter.9322 = f32[] parameter(1)
  ROOT add.9323 = f32[] add(parameter.9321, parameter.9322)
}

primitive_computation_add.9330 {
  parameter.9331 = f32[] parameter(0)
  parameter.9332 = f32[] parameter(1)
  ROOT add.9333 = f32[] add(parameter.9331, parameter.9332)
}

primitive_computation_add.9341 {
  parameter.9342 = f32[] parameter(0)
  parameter.9343 = f32[] parameter(1)
  ROOT add.9344 = f32[] add(parameter.9342, parameter.9343)
}

primitive_computation_add.9359 {
  parameter.9360 = f32[] parameter(0)
  parameter.9361 = f32[] parameter(1)
  ROOT add.9362 = f32[] add(parameter.9360, parameter.9361)
}

primitive_computation_add.9386 {
  parameter.9387 = f32[] parameter(0)
  parameter.9388 = f32[] parameter(1)
  ROOT add.9389 = f32[] add(parameter.9387, parameter.9388)
}

primitive_computation_add.9396 {
  parameter.9397 = f32[] parameter(0)
  parameter.9398 = f32[] parameter(1)
  ROOT add.9399 = f32[] add(parameter.9397, parameter.9398)
}

primitive_computation_add.9407 {
  parameter.9408 = f32[] parameter(0)
  parameter.9409 = f32[] parameter(1)
  ROOT add.9410 = f32[] add(parameter.9408, parameter.9409)
}

primitive_computation_add.9425 {
  parameter.9426 = f32[] parameter(0)
  parameter.9427 = f32[] parameter(1)
  ROOT add.9428 = f32[] add(parameter.9426, parameter.9427)
}

primitive_computation_add.9452 {
  parameter.9453 = f32[] parameter(0)
  parameter.9454 = f32[] parameter(1)
  ROOT add.9455 = f32[] add(parameter.9453, parameter.9454)
}

primitive_computation_add.9462 {
  parameter.9463 = f32[] parameter(0)
  parameter.9464 = f32[] parameter(1)
  ROOT add.9465 = f32[] add(parameter.9463, parameter.9464)
}

primitive_computation_add.9473 {
  parameter.9474 = f32[] parameter(0)
  parameter.9475 = f32[] parameter(1)
  ROOT add.9476 = f32[] add(parameter.9474, parameter.9475)
}

primitive_computation_add.9491 {
  parameter.9492 = f32[] parameter(0)
  parameter.9493 = f32[] parameter(1)
  ROOT add.9494 = f32[] add(parameter.9492, parameter.9493)
}

primitive_computation_add.9515 {
  parameter.9516 = f32[] parameter(0)
  parameter.9517 = f32[] parameter(1)
  ROOT add.9518 = f32[] add(parameter.9516, parameter.9517)
}

primitive_computation_add.9525 {
  parameter.9526 = f32[] parameter(0)
  parameter.9527 = f32[] parameter(1)
  ROOT add.9528 = f32[] add(parameter.9526, parameter.9527)
}

primitive_computation_add.9536 {
  parameter.9537 = f32[] parameter(0)
  parameter.9538 = f32[] parameter(1)
  ROOT add.9539 = f32[] add(parameter.9537, parameter.9538)
}

primitive_computation_add.9554 {
  parameter.9555 = f32[] parameter(0)
  parameter.9556 = f32[] parameter(1)
  ROOT add.9557 = f32[] add(parameter.9555, parameter.9556)
}

primitive_computation_ge.9578 {
  parameter.9579 = bf16[] parameter(0)
  parameter.9580 = bf16[] parameter(1)
  ROOT compare.9581 = pred[] compare(parameter.9579, parameter.9580), direction=GE
}

primitive_computation_add__1.9582 {
  parameter.9583 = bf16[] parameter(0)
  parameter.9584 = bf16[] parameter(1)
  ROOT add.9585 = bf16[] add(parameter.9583, parameter.9584)
}

primitive_computation_add.9592 {
  parameter.9593 = f32[] parameter(0)
  parameter.9594 = f32[] parameter(1)
  ROOT add.9595 = f32[] add(parameter.9593, parameter.9594)
}

primitive_computation_add.9602 {
  parameter.9603 = f32[] parameter(0)
  parameter.9604 = f32[] parameter(1)
  ROOT add.9605 = f32[] add(parameter.9603, parameter.9604)
}

primitive_computation_add.9613 {
  parameter.9614 = f32[] parameter(0)
  parameter.9615 = f32[] parameter(1)
  ROOT add.9616 = f32[] add(parameter.9614, parameter.9615)
}

primitive_computation_add.9631 {
  parameter.9632 = f32[] parameter(0)
  parameter.9633 = f32[] parameter(1)
  ROOT add.9634 = f32[] add(parameter.9632, parameter.9633)
}

ENTRY xla_computation_unknown.9650 {
  parameter.219 = s32[] parameter(218)
  parameter.220 = s32[] parameter(219)
  parameter.221 = f32[64]{0} parameter(220)
  parameter.222 = f32[64]{0} parameter(221)
  parameter.223 = f32[64]{0} parameter(222)
  parameter.224 = f32[64]{0} parameter(223)
  parameter.225 = f32[256]{0} parameter(224)
  parameter.226 = f32[256]{0} parameter(225)
  parameter.227 = f32[1,1,64,64]{3,2,1,0} parameter(226)
  parameter.228 = f32[3,3,64,64]{3,2,1,0} parameter(227)
  parameter.229 = f32[1,1,64,256]{3,2,1,0} parameter(228)
  parameter.230 = f32[1,1,64,256]{3,2,1,0} parameter(229)
  parameter.231 = f32[256]{0} parameter(230)
  parameter.232 = f32[256]{0} parameter(231)
  parameter.233 = f32[64]{0} parameter(232)
  parameter.234 = f32[64]{0} parameter(233)
  parameter.235 = f32[64]{0} parameter(234)
  parameter.236 = f32[64]{0} parameter(235)
  parameter.237 = f32[256]{0} parameter(236)
  parameter.238 = f32[256]{0} parameter(237)
  parameter.239 = f32[1,1,256,64]{3,2,1,0} parameter(238)
  parameter.240 = f32[3,3,64,64]{3,2,1,0} parameter(239)
  parameter.241 = f32[1,1,64,256]{3,2,1,0} parameter(240)
  parameter.242 = f32[256]{0} parameter(241)
  parameter.243 = f32[256]{0} parameter(242)
  parameter.244 = f32[256]{0} parameter(243)
  parameter.245 = f32[256]{0} parameter(244)
  parameter.246 = f32[1024]{0} parameter(245)
  parameter.247 = f32[1024]{0} parameter(246)
  parameter.248 = f32[1,1,1024,256]{3,2,1,0} parameter(247)
  parameter.249 = f32[3,3,256,256]{3,2,1,0} parameter(248)
  parameter.250 = f32[1,1,256,1024]{3,2,1,0} parameter(249)
  parameter.251 = f32[256]{0} parameter(250)
  parameter.252 = f32[256]{0} parameter(251)
  parameter.253 = f32[256]{0} parameter(252)
  parameter.254 = f32[256]{0} parameter(253)
  parameter.255 = f32[1024]{0} parameter(254)
  parameter.256 = f32[1024]{0} parameter(255)
  parameter.257 = f32[1,1,1024,256]{3,2,1,0} parameter(256)
  parameter.258 = f32[3,3,256,256]{3,2,1,0} parameter(257)
  parameter.259 = f32[1,1,256,1024]{3,2,1,0} parameter(258)
  parameter.260 = f32[256]{0} parameter(259)
  parameter.261 = f32[256]{0} parameter(260)
  parameter.262 = f32[256]{0} parameter(261)
  parameter.263 = f32[256]{0} parameter(262)
  parameter.264 = f32[1024]{0} parameter(263)
  parameter.265 = f32[1024]{0} parameter(264)
  parameter.266 = f32[1,1,1024,256]{3,2,1,0} parameter(265)
  parameter.267 = f32[3,3,256,256]{3,2,1,0} parameter(266)
  parameter.268 = f32[1,1,256,1024]{3,2,1,0} parameter(267)
  parameter.269 = f32[512]{0} parameter(268)
  parameter.270 = f32[512]{0} parameter(269)
  parameter.271 = f32[512]{0} parameter(270)
  parameter.272 = f32[512]{0} parameter(271)
  parameter.273 = f32[2048]{0} parameter(272)
  parameter.274 = f32[2048]{0} parameter(273)
  parameter.275 = f32[1,1,1024,512]{3,2,1,0} parameter(274)
  parameter.276 = f32[3,3,512,512]{3,2,1,0} parameter(275)
  parameter.277 = f32[1,1,512,2048]{3,2,1,0} parameter(276)
  parameter.278 = f32[1,1,1024,2048]{3,2,1,0} parameter(277)
  parameter.279 = f32[2048]{0} parameter(278)
  parameter.280 = f32[2048]{0} parameter(279)
  parameter.281 = f32[512]{0} parameter(280)
  parameter.282 = f32[512]{0} parameter(281)
  parameter.283 = f32[512]{0} parameter(282)
  parameter.284 = f32[512]{0} parameter(283)
  parameter.285 = f32[2048]{0} parameter(284)
  parameter.286 = f32[2048]{0} parameter(285)
  parameter.287 = f32[1,1,2048,512]{3,2,1,0} parameter(286)
  parameter.288 = f32[3,3,512,512]{3,2,1,0} parameter(287)
  parameter.289 = f32[1,1,512,2048]{3,2,1,0} parameter(288)
  parameter.290 = f32[512]{0} parameter(289)
  parameter.291 = f32[512]{0} parameter(290)
  parameter.292 = f32[512]{0} parameter(291)
  parameter.293 = f32[512]{0} parameter(292)
  parameter.294 = f32[2048]{0} parameter(293)
  parameter.295 = f32[2048]{0} parameter(294)
  parameter.296 = f32[1,1,2048,512]{3,2,1,0} parameter(295)
  parameter.297 = f32[3,3,512,512]{3,2,1,0} parameter(296)
  parameter.298 = f32[1,1,512,2048]{3,2,1,0} parameter(297)
  parameter.299 = f32[64]{0} parameter(298)
  parameter.300 = f32[64]{0} parameter(299)
  parameter.301 = f32[64]{0} parameter(300)
  parameter.302 = f32[64]{0} parameter(301)
  parameter.303 = f32[256]{0} parameter(302)
  parameter.304 = f32[256]{0} parameter(303)
  parameter.305 = f32[1,1,256,64]{3,2,1,0} parameter(304)
  parameter.306 = f32[3,3,64,64]{3,2,1,0} parameter(305)
  parameter.307 = f32[1,1,64,256]{3,2,1,0} parameter(306)
  parameter.308 = f32[128]{0} parameter(307)
  parameter.309 = f32[128]{0} parameter(308)
  parameter.310 = f32[128]{0} parameter(309)
  parameter.311 = f32[128]{0} parameter(310)
  parameter.312 = f32[512]{0} parameter(311)
  parameter.313 = f32[512]{0} parameter(312)
  parameter.314 = f32[1,1,256,128]{3,2,1,0} parameter(313)
  parameter.315 = f32[3,3,128,128]{3,2,1,0} parameter(314)
  parameter.316 = f32[1,1,128,512]{3,2,1,0} parameter(315)
  parameter.317 = f32[1,1,256,512]{3,2,1,0} parameter(316)
  parameter.318 = f32[512]{0} parameter(317)
  parameter.319 = f32[512]{0} parameter(318)
  parameter.320 = f32[128]{0} parameter(319)
  parameter.321 = f32[128]{0} parameter(320)
  parameter.322 = f32[128]{0} parameter(321)
  parameter.323 = f32[128]{0} parameter(322)
  parameter.324 = f32[512]{0} parameter(323)
  parameter.325 = f32[512]{0} parameter(324)
  parameter.326 = f32[1,1,512,128]{3,2,1,0} parameter(325)
  parameter.327 = f32[3,3,128,128]{3,2,1,0} parameter(326)
  parameter.328 = f32[1,1,128,512]{3,2,1,0} parameter(327)
  parameter.329 = f32[128]{0} parameter(328)
  parameter.330 = f32[128]{0} parameter(329)
  parameter.331 = f32[128]{0} parameter(330)
  parameter.332 = f32[128]{0} parameter(331)
  parameter.333 = f32[512]{0} parameter(332)
  parameter.334 = f32[512]{0} parameter(333)
  parameter.335 = f32[1,1,512,128]{3,2,1,0} parameter(334)
  parameter.336 = f32[3,3,128,128]{3,2,1,0} parameter(335)
  parameter.337 = f32[1,1,128,512]{3,2,1,0} parameter(336)
  parameter.338 = f32[128]{0} parameter(337)
  parameter.339 = f32[128]{0} parameter(338)
  parameter.340 = f32[128]{0} parameter(339)
  parameter.341 = f32[128]{0} parameter(340)
  parameter.342 = f32[512]{0} parameter(341)
  parameter.343 = f32[512]{0} parameter(342)
  parameter.344 = f32[1,1,512,128]{3,2,1,0} parameter(343)
  parameter.345 = f32[3,3,128,128]{3,2,1,0} parameter(344)
  parameter.346 = f32[1,1,128,512]{3,2,1,0} parameter(345)
  parameter.347 = f32[256]{0} parameter(346)
  parameter.348 = f32[256]{0} parameter(347)
  parameter.349 = f32[256]{0} parameter(348)
  parameter.350 = f32[256]{0} parameter(349)
  parameter.351 = f32[1024]{0} parameter(350)
  parameter.352 = f32[1024]{0} parameter(351)
  parameter.353 = f32[1,1,512,256]{3,2,1,0} parameter(352)
  parameter.354 = f32[3,3,256,256]{3,2,1,0} parameter(353)
  parameter.355 = f32[1,1,256,1024]{3,2,1,0} parameter(354)
  parameter.356 = f32[1,1,512,1024]{3,2,1,0} parameter(355)
  parameter.357 = f32[1024]{0} parameter(356)
  parameter.358 = f32[1024]{0} parameter(357)
  parameter.359 = f32[256]{0} parameter(358)
  parameter.360 = f32[256]{0} parameter(359)
  parameter.361 = f32[256]{0} parameter(360)
  parameter.362 = f32[256]{0} parameter(361)
  parameter.363 = f32[1024]{0} parameter(362)
  parameter.364 = f32[1024]{0} parameter(363)
  parameter.365 = f32[1,1,1024,256]{3,2,1,0} parameter(364)
  parameter.366 = f32[3,3,256,256]{3,2,1,0} parameter(365)
  parameter.367 = f32[1,1,256,1024]{3,2,1,0} parameter(366)
  parameter.368 = f32[256]{0} parameter(367)
  parameter.369 = f32[256]{0} parameter(368)
  parameter.370 = f32[256]{0} parameter(369)
  parameter.371 = f32[256]{0} parameter(370)
  parameter.372 = f32[1024]{0} parameter(371)
  parameter.373 = f32[1024]{0} parameter(372)
  parameter.374 = f32[1,1,1024,256]{3,2,1,0} parameter(373)
  parameter.375 = f32[3,3,256,256]{3,2,1,0} parameter(374)
  parameter.376 = f32[1,1,256,1024]{3,2,1,0} parameter(375)
  parameter.377 = f32[1000]{0} parameter(376)
  parameter.378 = f32[2048,1000]{1,0} parameter(377)
  parameter.379 = f32[64]{0} parameter(378)
  parameter.380 = f32[64]{0} parameter(379)
  parameter.381 = f32[7,7,3,64]{3,2,1,0} parameter(380)
  parameter.382 = f32[64]{0} parameter(381)
  parameter.383 = f32[64]{0} parameter(382)
  parameter.384 = f32[64]{0} parameter(383)
  parameter.385 = f32[64]{0} parameter(384)
  parameter.386 = f32[256]{0} parameter(385)
  parameter.387 = f32[256]{0} parameter(386)
  parameter.388 = f32[1,1,64,64]{3,2,1,0} parameter(387)
  parameter.389 = f32[3,3,64,64]{3,2,1,0} parameter(388)
  parameter.390 = f32[1,1,64,256]{3,2,1,0} parameter(389)
  parameter.391 = f32[1,1,64,256]{3,2,1,0} parameter(390)
  parameter.392 = f32[256]{0} parameter(391)
  parameter.393 = f32[256]{0} parameter(392)
  parameter.394 = f32[64]{0} parameter(393)
  parameter.395 = f32[64]{0} parameter(394)
  parameter.396 = f32[64]{0} parameter(395)
  parameter.397 = f32[64]{0} parameter(396)
  parameter.398 = f32[256]{0} parameter(397)
  parameter.399 = f32[256]{0} parameter(398)
  parameter.400 = f32[1,1,256,64]{3,2,1,0} parameter(399)
  parameter.401 = f32[3,3,64,64]{3,2,1,0} parameter(400)
  parameter.402 = f32[1,1,64,256]{3,2,1,0} parameter(401)
  parameter.403 = f32[256]{0} parameter(402)
  parameter.404 = f32[256]{0} parameter(403)
  parameter.405 = f32[256]{0} parameter(404)
  parameter.406 = f32[256]{0} parameter(405)
  parameter.407 = f32[1024]{0} parameter(406)
  parameter.408 = f32[1024]{0} parameter(407)
  parameter.409 = f32[1,1,1024,256]{3,2,1,0} parameter(408)
  parameter.410 = f32[3,3,256,256]{3,2,1,0} parameter(409)
  parameter.411 = f32[1,1,256,1024]{3,2,1,0} parameter(410)
  parameter.412 = f32[256]{0} parameter(411)
  parameter.413 = f32[256]{0} parameter(412)
  parameter.414 = f32[256]{0} parameter(413)
  parameter.415 = f32[256]{0} parameter(414)
  parameter.416 = f32[1024]{0} parameter(415)
  parameter.417 = f32[1024]{0} parameter(416)
  parameter.418 = f32[1,1,1024,256]{3,2,1,0} parameter(417)
  parameter.419 = f32[3,3,256,256]{3,2,1,0} parameter(418)
  parameter.420 = f32[1,1,256,1024]{3,2,1,0} parameter(419)
  parameter.421 = f32[256]{0} parameter(420)
  parameter.422 = f32[256]{0} parameter(421)
  parameter.423 = f32[256]{0} parameter(422)
  parameter.424 = f32[256]{0} parameter(423)
  parameter.425 = f32[1024]{0} parameter(424)
  parameter.426 = f32[1024]{0} parameter(425)
  parameter.427 = f32[1,1,1024,256]{3,2,1,0} parameter(426)
  parameter.428 = f32[3,3,256,256]{3,2,1,0} parameter(427)
  parameter.429 = f32[1,1,256,1024]{3,2,1,0} parameter(428)
  parameter.430 = f32[512]{0} parameter(429)
  parameter.431 = f32[512]{0} parameter(430)
  parameter.432 = f32[512]{0} parameter(431)
  parameter.433 = f32[512]{0} parameter(432)
  parameter.434 = f32[2048]{0} parameter(433)
  parameter.435 = f32[2048]{0} parameter(434)
  parameter.436 = f32[1,1,1024,512]{3,2,1,0} parameter(435)
  parameter.437 = f32[3,3,512,512]{3,2,1,0} parameter(436)
  parameter.438 = f32[1,1,512,2048]{3,2,1,0} parameter(437)
  parameter.439 = f32[1,1,1024,2048]{3,2,1,0} parameter(438)
  parameter.440 = f32[2048]{0} parameter(439)
  parameter.441 = f32[2048]{0} parameter(440)
  parameter.442 = f32[512]{0} parameter(441)
  parameter.443 = f32[512]{0} parameter(442)
  parameter.444 = f32[512]{0} parameter(443)
  parameter.445 = f32[512]{0} parameter(444)
  parameter.446 = f32[2048]{0} parameter(445)
  parameter.447 = f32[2048]{0} parameter(446)
  parameter.448 = f32[1,1,2048,512]{3,2,1,0} parameter(447)
  parameter.449 = f32[3,3,512,512]{3,2,1,0} parameter(448)
  parameter.450 = f32[1,1,512,2048]{3,2,1,0} parameter(449)
  parameter.451 = f32[512]{0} parameter(450)
  parameter.452 = f32[512]{0} parameter(451)
  parameter.453 = f32[512]{0} parameter(452)
  parameter.454 = f32[512]{0} parameter(453)
  parameter.455 = f32[2048]{0} parameter(454)
  parameter.456 = f32[2048]{0} parameter(455)
  parameter.457 = f32[1,1,2048,512]{3,2,1,0} parameter(456)
  parameter.458 = f32[3,3,512,512]{3,2,1,0} parameter(457)
  parameter.459 = f32[1,1,512,2048]{3,2,1,0} parameter(458)
  parameter.460 = f32[64]{0} parameter(459)
  parameter.461 = f32[64]{0} parameter(460)
  parameter.462 = f32[64]{0} parameter(461)
  parameter.463 = f32[64]{0} parameter(462)
  parameter.464 = f32[256]{0} parameter(463)
  parameter.465 = f32[256]{0} parameter(464)
  parameter.466 = f32[1,1,256,64]{3,2,1,0} parameter(465)
  parameter.467 = f32[3,3,64,64]{3,2,1,0} parameter(466)
  parameter.468 = f32[1,1,64,256]{3,2,1,0} parameter(467)
  parameter.469 = f32[128]{0} parameter(468)
  parameter.470 = f32[128]{0} parameter(469)
  parameter.471 = f32[128]{0} parameter(470)
  parameter.472 = f32[128]{0} parameter(471)
  parameter.473 = f32[512]{0} parameter(472)
  parameter.474 = f32[512]{0} parameter(473)
  parameter.475 = f32[1,1,256,128]{3,2,1,0} parameter(474)
  parameter.476 = f32[3,3,128,128]{3,2,1,0} parameter(475)
  parameter.477 = f32[1,1,128,512]{3,2,1,0} parameter(476)
  parameter.478 = f32[1,1,256,512]{3,2,1,0} parameter(477)
  parameter.479 = f32[512]{0} parameter(478)
  parameter.480 = f32[512]{0} parameter(479)
  parameter.481 = f32[128]{0} parameter(480)
  parameter.482 = f32[128]{0} parameter(481)
  parameter.483 = f32[128]{0} parameter(482)
  parameter.484 = f32[128]{0} parameter(483)
  parameter.485 = f32[512]{0} parameter(484)
  parameter.486 = f32[512]{0} parameter(485)
  parameter.487 = f32[1,1,512,128]{3,2,1,0} parameter(486)
  parameter.488 = f32[3,3,128,128]{3,2,1,0} parameter(487)
  parameter.489 = f32[1,1,128,512]{3,2,1,0} parameter(488)
  parameter.490 = f32[128]{0} parameter(489)
  parameter.491 = f32[128]{0} parameter(490)
  parameter.492 = f32[128]{0} parameter(491)
  parameter.493 = f32[128]{0} parameter(492)
  parameter.494 = f32[512]{0} parameter(493)
  parameter.495 = f32[512]{0} parameter(494)
  parameter.496 = f32[1,1,512,128]{3,2,1,0} parameter(495)
  parameter.497 = f32[3,3,128,128]{3,2,1,0} parameter(496)
  parameter.498 = f32[1,1,128,512]{3,2,1,0} parameter(497)
  parameter.499 = f32[128]{0} parameter(498)
  parameter.500 = f32[128]{0} parameter(499)
  parameter.501 = f32[128]{0} parameter(500)
  parameter.502 = f32[128]{0} parameter(501)
  parameter.503 = f32[512]{0} parameter(502)
  parameter.504 = f32[512]{0} parameter(503)
  parameter.505 = f32[1,1,512,128]{3,2,1,0} parameter(504)
  parameter.506 = f32[3,3,128,128]{3,2,1,0} parameter(505)
  parameter.507 = f32[1,1,128,512]{3,2,1,0} parameter(506)
  parameter.508 = f32[256]{0} parameter(507)
  parameter.509 = f32[256]{0} parameter(508)
  parameter.510 = f32[256]{0} parameter(509)
  parameter.511 = f32[256]{0} parameter(510)
  parameter.512 = f32[1024]{0} parameter(511)
  parameter.513 = f32[1024]{0} parameter(512)
  parameter.514 = f32[1,1,512,256]{3,2,1,0} parameter(513)
  parameter.515 = f32[3,3,256,256]{3,2,1,0} parameter(514)
  parameter.516 = f32[1,1,256,1024]{3,2,1,0} parameter(515)
  parameter.517 = f32[1,1,512,1024]{3,2,1,0} parameter(516)
  parameter.518 = f32[1024]{0} parameter(517)
  parameter.519 = f32[1024]{0} parameter(518)
  parameter.520 = f32[256]{0} parameter(519)
  parameter.521 = f32[256]{0} parameter(520)
  parameter.522 = f32[256]{0} parameter(521)
  parameter.523 = f32[256]{0} parameter(522)
  parameter.524 = f32[1024]{0} parameter(523)
  parameter.525 = f32[1024]{0} parameter(524)
  parameter.526 = f32[1,1,1024,256]{3,2,1,0} parameter(525)
  parameter.527 = f32[3,3,256,256]{3,2,1,0} parameter(526)
  parameter.528 = f32[1,1,256,1024]{3,2,1,0} parameter(527)
  parameter.529 = f32[256]{0} parameter(528)
  parameter.530 = f32[256]{0} parameter(529)
  parameter.531 = f32[256]{0} parameter(530)
  parameter.532 = f32[256]{0} parameter(531)
  parameter.533 = f32[1024]{0} parameter(532)
  parameter.534 = f32[1024]{0} parameter(533)
  parameter.535 = f32[1,1,1024,256]{3,2,1,0} parameter(534)
  parameter.536 = f32[3,3,256,256]{3,2,1,0} parameter(535)
  parameter.537 = f32[1,1,256,1024]{3,2,1,0} parameter(536)
  parameter.538 = f32[1000]{0} parameter(537)
  parameter.539 = f32[2048,1000]{1,0} parameter(538)
  parameter.540 = f32[64]{0} parameter(539)
  parameter.541 = f32[64]{0} parameter(540)
  parameter.542 = f32[7,7,3,64]{3,2,1,0} parameter(541)
  parameter.649 = f32[1,56,56,64]{3,2,1,0} parameter(648)
  parameter.650 = f32[1,56,56,64]{3,2,1,0} parameter(649)
  parameter.651 = f32[1,56,56,64]{3,2,1,0} parameter(650)
  parameter.652 = f32[1,56,56,64]{3,2,1,0} parameter(651)
  parameter.653 = f32[1,56,56,256]{3,2,1,0} parameter(652)
  parameter.654 = f32[1,56,56,64]{3,2,1,0} parameter(653)
  parameter.655 = f32[1,56,56,64]{3,2,1,0} parameter(654)
  parameter.656 = f32[1,14,14,1024]{3,2,1,0} parameter(655)
  parameter.657 = f32[1,14,14,256]{3,2,1,0} parameter(656)
  parameter.658 = f32[1,14,14,256]{3,2,1,0} parameter(657)
  parameter.659 = f32[1,14,14,1024]{3,2,1,0} parameter(658)
  parameter.660 = f32[1,14,14,256]{3,2,1,0} parameter(659)
  parameter.661 = f32[1,14,14,256]{3,2,1,0} parameter(660)
  parameter.662 = f32[1,14,14,1024]{3,2,1,0} parameter(661)
  parameter.663 = f32[1,14,14,256]{3,2,1,0} parameter(662)
  parameter.664 = f32[1,14,14,256]{3,2,1,0} parameter(663)
  parameter.665 = f32[1,14,14,1024]{3,2,1,0} parameter(664)
  parameter.666 = f32[1,14,14,512]{3,2,1,0} parameter(665)
  parameter.667 = f32[1,7,7,512]{3,2,1,0} parameter(666)
  parameter.668 = f32[1,14,14,1024]{3,2,1,0} parameter(667)
  parameter.669 = f32[1,7,7,2048]{3,2,1,0} parameter(668)
  parameter.670 = f32[1,7,7,512]{3,2,1,0} parameter(669)
  parameter.671 = f32[1,7,7,512]{3,2,1,0} parameter(670)
  parameter.672 = f32[1,7,7,2048]{3,2,1,0} parameter(671)
  parameter.673 = f32[1,7,7,512]{3,2,1,0} parameter(672)
  parameter.674 = f32[1,7,7,512]{3,2,1,0} parameter(673)
  parameter.675 = f32[1,56,56,256]{3,2,1,0} parameter(674)
  parameter.676 = f32[1,56,56,64]{3,2,1,0} parameter(675)
  parameter.677 = f32[1,56,56,64]{3,2,1,0} parameter(676)
  parameter.678 = f32[1,56,56,256]{3,2,1,0} parameter(677)
  parameter.679 = f32[1,56,56,128]{3,2,1,0} parameter(678)
  parameter.680 = f32[1,28,28,128]{3,2,1,0} parameter(679)
  parameter.681 = f32[1,56,56,256]{3,2,1,0} parameter(680)
  parameter.682 = f32[1,28,28,512]{3,2,1,0} parameter(681)
  parameter.683 = f32[1,28,28,128]{3,2,1,0} parameter(682)
  parameter.684 = f32[1,28,28,128]{3,2,1,0} parameter(683)
  parameter.685 = f32[1,28,28,512]{3,2,1,0} parameter(684)
  parameter.686 = f32[1,28,28,128]{3,2,1,0} parameter(685)
  parameter.687 = f32[1,28,28,128]{3,2,1,0} parameter(686)
  parameter.688 = f32[1,28,28,512]{3,2,1,0} parameter(687)
  parameter.689 = f32[1,28,28,128]{3,2,1,0} parameter(688)
  parameter.690 = f32[1,28,28,128]{3,2,1,0} parameter(689)
  parameter.691 = f32[1,28,28,512]{3,2,1,0} parameter(690)
  parameter.692 = f32[1,28,28,256]{3,2,1,0} parameter(691)
  parameter.693 = f32[1,14,14,256]{3,2,1,0} parameter(692)
  parameter.694 = f32[1,28,28,512]{3,2,1,0} parameter(693)
  parameter.695 = f32[1,14,14,1024]{3,2,1,0} parameter(694)
  parameter.696 = f32[1,14,14,256]{3,2,1,0} parameter(695)
  parameter.697 = f32[1,14,14,256]{3,2,1,0} parameter(696)
  parameter.698 = f32[1,14,14,1024]{3,2,1,0} parameter(697)
  parameter.699 = f32[1,14,14,256]{3,2,1,0} parameter(698)
  parameter.700 = f32[1,14,14,256]{3,2,1,0} parameter(699)
  parameter.701 = f32[1,224,224,3]{3,2,1,0} parameter(700)
  parameter.702 = f32[1,2048]{1,0} parameter(701)
  parameter.703 = f32[1,1000]{1,0} parameter(702)
  constant.704 = pred[] constant(false)
  constant.780 = pred[] constant(false)
  constant.789 = bf16[] constant(0)
  broadcast.790 = bf16[128,112,112,64]{3,2,1,0} broadcast(constant.789), dimensions={}
  constant.873 = pred[] constant(false)
  constant.882 = bf16[] constant(0)
  broadcast.883 = bf16[128,56,56,64]{3,2,1,0} broadcast(constant.882), dimensions={}
  constant.960 = pred[] constant(false)
  constant.969 = bf16[] constant(0)
  broadcast.970 = bf16[128,56,56,64]{3,2,1,0} broadcast(constant.969), dimensions={}
  constant.1124 = pred[] constant(false)
  constant.1133 = bf16[] constant(0)
  broadcast.1134 = bf16[128,56,56,256]{3,2,1,0} broadcast(constant.1133), dimensions={}
  constant.1211 = pred[] constant(false)
  constant.1220 = bf16[] constant(0)
  broadcast.1221 = bf16[128,56,56,64]{3,2,1,0} broadcast(constant.1220), dimensions={}
  constant.1298 = pred[] constant(false)
  constant.1307 = bf16[] constant(0)
  broadcast.1308 = bf16[128,56,56,64]{3,2,1,0} broadcast(constant.1307), dimensions={}
  constant.1386 = pred[] constant(false)
  constant.1395 = bf16[] constant(0)
  broadcast.1396 = bf16[128,56,56,256]{3,2,1,0} broadcast(constant.1395), dimensions={}
  constant.1473 = pred[] constant(false)
  constant.1482 = bf16[] constant(0)
  broadcast.1483 = bf16[128,56,56,64]{3,2,1,0} broadcast(constant.1482), dimensions={}
  constant.1560 = pred[] constant(false)
  constant.1569 = bf16[] constant(0)
  broadcast.1570 = bf16[128,56,56,64]{3,2,1,0} broadcast(constant.1569), dimensions={}
  constant.1648 = pred[] constant(false)
  constant.1657 = bf16[] constant(0)
  broadcast.1658 = bf16[128,56,56,256]{3,2,1,0} broadcast(constant.1657), dimensions={}
  constant.1735 = pred[] constant(false)
  constant.1744 = bf16[] constant(0)
  broadcast.1745 = bf16[128,56,56,128]{3,2,1,0} broadcast(constant.1744), dimensions={}
  constant.1822 = pred[] constant(false)
  constant.1831 = bf16[] constant(0)
  broadcast.1832 = bf16[128,28,28,128]{3,2,1,0} broadcast(constant.1831), dimensions={}
  constant.1986 = pred[] constant(false)
  constant.1995 = bf16[] constant(0)
  broadcast.1996 = bf16[128,28,28,512]{3,2,1,0} broadcast(constant.1995), dimensions={}
  constant.2073 = pred[] constant(false)
  constant.2082 = bf16[] constant(0)
  broadcast.2083 = bf16[128,28,28,128]{3,2,1,0} broadcast(constant.2082), dimensions={}
  constant.2160 = pred[] constant(false)
  constant.2169 = bf16[] constant(0)
  broadcast.2170 = bf16[128,28,28,128]{3,2,1,0} broadcast(constant.2169), dimensions={}
  constant.2248 = pred[] constant(false)
  constant.2257 = bf16[] constant(0)
  broadcast.2258 = bf16[128,28,28,512]{3,2,1,0} broadcast(constant.2257), dimensions={}
  constant.2335 = pred[] constant(false)
  constant.2344 = bf16[] constant(0)
  broadcast.2345 = bf16[128,28,28,128]{3,2,1,0} broadcast(constant.2344), dimensions={}
  constant.2422 = pred[] constant(false)
  constant.2431 = bf16[] constant(0)
  broadcast.2432 = bf16[128,28,28,128]{3,2,1,0} broadcast(constant.2431), dimensions={}
  constant.2510 = pred[] constant(false)
  constant.2519 = bf16[] constant(0)
  broadcast.2520 = bf16[128,28,28,512]{3,2,1,0} broadcast(constant.2519), dimensions={}
  constant.2597 = pred[] constant(false)
  constant.2606 = bf16[] constant(0)
  broadcast.2607 = bf16[128,28,28,128]{3,2,1,0} broadcast(constant.2606), dimensions={}
  constant.2684 = pred[] constant(false)
  constant.2693 = bf16[] constant(0)
  broadcast.2694 = bf16[128,28,28,128]{3,2,1,0} broadcast(constant.2693), dimensions={}
  constant.2772 = pred[] constant(false)
  constant.2781 = bf16[] constant(0)
  broadcast.2782 = bf16[128,28,28,512]{3,2,1,0} broadcast(constant.2781), dimensions={}
  constant.2859 = pred[] constant(false)
  constant.2868 = bf16[] constant(0)
  broadcast.2869 = bf16[128,28,28,256]{3,2,1,0} broadcast(constant.2868), dimensions={}
  constant.2946 = pred[] constant(false)
  constant.2955 = bf16[] constant(0)
  broadcast.2956 = bf16[128,14,14,256]{3,2,1,0} broadcast(constant.2955), dimensions={}
  constant.3110 = pred[] constant(false)
  constant.3119 = bf16[] constant(0)
  broadcast.3120 = bf16[128,14,14,1024]{3,2,1,0} broadcast(constant.3119), dimensions={}
  constant.3197 = pred[] constant(false)
  constant.3206 = bf16[] constant(0)
  broadcast.3207 = bf16[128,14,14,256]{3,2,1,0} broadcast(constant.3206), dimensions={}
  constant.3284 = pred[] constant(false)
  constant.3293 = bf16[] constant(0)
  broadcast.3294 = bf16[128,14,14,256]{3,2,1,0} broadcast(constant.3293), dimensions={}
  constant.3372 = pred[] constant(false)
  constant.3381 = bf16[] constant(0)
  broadcast.3382 = bf16[128,14,14,1024]{3,2,1,0} broadcast(constant.3381), dimensions={}
  constant.3459 = pred[] constant(false)
  constant.3468 = bf16[] constant(0)
  broadcast.3469 = bf16[128,14,14,256]{3,2,1,0} broadcast(constant.3468), dimensions={}
  constant.3546 = pred[] constant(false)
  constant.3555 = bf16[] constant(0)
  broadcast.3556 = bf16[128,14,14,256]{3,2,1,0} broadcast(constant.3555), dimensions={}
  constant.3634 = pred[] constant(false)
  constant.3643 = bf16[] constant(0)
  broadcast.3644 = bf16[128,14,14,1024]{3,2,1,0} broadcast(constant.3643), dimensions={}
  constant.3721 = pred[] constant(false)
  constant.3730 = bf16[] constant(0)
  broadcast.3731 = bf16[128,14,14,256]{3,2,1,0} broadcast(constant.3730), dimensions={}
  constant.3808 = pred[] constant(false)
  constant.3817 = bf16[] constant(0)
  broadcast.3818 = bf16[128,14,14,256]{3,2,1,0} broadcast(constant.3817), dimensions={}
  constant.3896 = pred[] constant(false)
  constant.3905 = bf16[] constant(0)
  broadcast.3906 = bf16[128,14,14,1024]{3,2,1,0} broadcast(constant.3905), dimensions={}
  constant.3983 = pred[] constant(false)
  constant.3992 = bf16[] constant(0)
  broadcast.3993 = bf16[128,14,14,256]{3,2,1,0} broadcast(constant.3992), dimensions={}
  constant.4070 = pred[] constant(false)
  constant.4079 = bf16[] constant(0)
  broadcast.4080 = bf16[128,14,14,256]{3,2,1,0} broadcast(constant.4079), dimensions={}
  constant.4158 = pred[] constant(false)
  constant.4167 = bf16[] constant(0)
  broadcast.4168 = bf16[128,14,14,1024]{3,2,1,0} broadcast(constant.4167), dimensions={}
  constant.4245 = pred[] constant(false)
  constant.4254 = bf16[] constant(0)
  broadcast.4255 = bf16[128,14,14,256]{3,2,1,0} broadcast(constant.4254), dimensions={}
  constant.4332 = pred[] constant(false)
  constant.4341 = bf16[] constant(0)
  broadcast.4342 = bf16[128,14,14,256]{3,2,1,0} broadcast(constant.4341), dimensions={}
  constant.4420 = pred[] constant(false)
  constant.4429 = bf16[] constant(0)
  broadcast.4430 = bf16[128,14,14,1024]{3,2,1,0} broadcast(constant.4429), dimensions={}
  constant.4507 = pred[] constant(false)
  constant.4516 = bf16[] constant(0)
  broadcast.4517 = bf16[128,14,14,512]{3,2,1,0} broadcast(constant.4516), dimensions={}
  constant.4594 = pred[] constant(false)
  constant.4603 = bf16[] constant(0)
  broadcast.4604 = bf16[128,7,7,512]{3,2,1,0} broadcast(constant.4603), dimensions={}
  constant.4758 = pred[] constant(false)
  constant.4767 = bf16[] constant(0)
  broadcast.4768 = bf16[128,7,7,2048]{3,2,1,0} broadcast(constant.4767), dimensions={}
  constant.4845 = pred[] constant(false)
  constant.4854 = bf16[] constant(0)
  broadcast.4855 = bf16[128,7,7,512]{3,2,1,0} broadcast(constant.4854), dimensions={}
  constant.4932 = pred[] constant(false)
  constant.4941 = bf16[] constant(0)
  broadcast.4942 = bf16[128,7,7,512]{3,2,1,0} broadcast(constant.4941), dimensions={}
  constant.5020 = pred[] constant(false)
  constant.5029 = bf16[] constant(0)
  broadcast.5030 = bf16[128,7,7,2048]{3,2,1,0} broadcast(constant.5029), dimensions={}
  constant.5107 = pred[] constant(false)
  constant.5116 = bf16[] constant(0)
  broadcast.5117 = bf16[128,7,7,512]{3,2,1,0} broadcast(constant.5116), dimensions={}
  constant.5194 = pred[] constant(false)
  constant.5203 = bf16[] constant(0)
  broadcast.5204 = bf16[128,7,7,512]{3,2,1,0} broadcast(constant.5203), dimensions={}
  constant.5282 = pred[] constant(false)
  constant.5291 = bf16[] constant(0)
  broadcast.5292 = bf16[128,7,7,2048]{3,2,1,0} broadcast(constant.5291), dimensions={}
  parameter.217 = f32[128,224,224,3]{3,2,1,0} parameter(216)
  parameter.214 = f32[1,224,224,3]{3,2,1,0} parameter(213)
  reshape.705 = f32[224,224,3]{2,1,0} reshape(parameter.214)
  broadcast.706 = f32[128,224,224,3]{3,2,1,0} broadcast(reshape.705), dimensions={1,2,3}
  add.707 = f32[128,224,224,3]{3,2,1,0} add(parameter.217, broadcast.706)
  convert.708 = bf16[128,224,224,3]{3,2,1,0} convert(add.707)
  parameter.161 = f32[7,7,3,64]{3,2,1,0} parameter(160)
  convert.709 = bf16[7,7,3,64]{3,2,1,0} convert(parameter.161)
  convolution.710 = bf16[128,112,112,64]{3,2,1,0} convolution(convert.708, convert.709), window={size=7x7 stride=2x2 pad=3_3x3_3}, dim_labels=b01f_01io->b01f
  convert.711 = f32[128,112,112,64]{3,2,1,0} convert(convolution.710)
  constant.712 = f32[] constant(0)
  reduce.717 = f32[64]{0} reduce(convert.711, constant.712), dimensions={0,1,2}, to_apply=primitive_computation_add.713
  constant.718 = s32[] constant(1605632)
  convert.719 = f32[] convert(constant.718)
  broadcast.720 = f32[64]{0} broadcast(convert.719), dimensions={}
  divide.721 = f32[64]{0} divide(reduce.717, broadcast.720)
  reshape.755 = f32[1,1,1,64]{3,2,1,0} reshape(divide.721)
  reshape.756 = f32[64]{0} reshape(reshape.755)
  broadcast.757 = f32[128,112,112,64]{3,2,1,0} broadcast(reshape.756), dimensions={3}
  subtract.758 = f32[128,112,112,64]{3,2,1,0} subtract(convert.711, broadcast.757)
  multiply.722 = f32[128,112,112,64]{3,2,1,0} multiply(convert.711, convert.711)
  constant.726 = f32[] constant(0)
  reduce.731 = f32[64]{0} reduce(multiply.722, constant.726), dimensions={0,1,2}, to_apply=primitive_computation_add.727
  constant.732 = s32[] constant(1605632)
  convert.733 = f32[] convert(constant.732)
  broadcast.734 = f32[64]{0} broadcast(convert.733), dimensions={}
  divide.735 = f32[64]{0} divide(reduce.731, broadcast.734)
  multiply.736 = f32[64]{0} multiply(divide.721, divide.721)
  subtract.740 = f32[64]{0} subtract(divide.735, multiply.736)
  constant.759 = f32[] constant(1e-05)
  broadcast.760 = f32[64]{0} broadcast(constant.759), dimensions={}
  add.761 = f32[64]{0} add(subtract.740, broadcast.760)
  rsqrt.762 = f32[64]{0} rsqrt(add.761)
  broadcast.770 = f32[1,1,1,64]{3,2,1,0} broadcast(rsqrt.762), dimensions={3}
  parameter.160 = f32[64]{0} parameter(159)
  reshape.769 = f32[1,1,1,64]{3,2,1,0} reshape(parameter.160)
  multiply.771 = f32[1,1,1,64]{3,2,1,0} multiply(broadcast.770, reshape.769)
  reshape.772 = f32[64]{0} reshape(multiply.771)
  broadcast.773 = f32[128,112,112,64]{3,2,1,0} broadcast(reshape.772), dimensions={3}
  multiply.774 = f32[128,112,112,64]{3,2,1,0} multiply(subtract.758, broadcast.773)
  parameter.159 = f32[64]{0} parameter(158)
  reshape.775 = f32[1,1,1,64]{3,2,1,0} reshape(parameter.159)
  reshape.776 = f32[64]{0} reshape(reshape.775)
  broadcast.777 = f32[128,112,112,64]{3,2,1,0} broadcast(reshape.776), dimensions={3}
  add.778 = f32[128,112,112,64]{3,2,1,0} add(multiply.774, broadcast.777)
  convert.779 = bf16[128,112,112,64]{3,2,1,0} convert(add.778)
  constant.781 = bf16[] constant(0)
  broadcast.782 = bf16[128,112,112,64]{3,2,1,0} broadcast(constant.781), dimensions={}
  maximum.783 = bf16[128,112,112,64]{3,2,1,0} maximum(convert.779, broadcast.782)
  tuple.784 = (bf16[128,112,112,64]{3,2,1,0}) tuple(maximum.783)
  get-tuple-element.785 = bf16[128,112,112,64]{3,2,1,0} get-tuple-element(tuple.784), index=0
  constant.791 = bf16[] constant(-inf)
  reduce-window.796 = bf16[128,56,56,64]{3,2,1,0} reduce-window(get-tuple-element.785, constant.791), window={size=1x3x3x1 stride=1x2x2x1 pad=0_0x0_1x0_1x0_0}, to_apply=primitive_computation_max.792
  convert.1047 = f32[128,56,56,64]{3,2,1,0} convert(reduce-window.796)
  parameter.165 = f32[1,56,56,64]{3,2,1,0} parameter(164)
  reshape.1048 = f32[56,56,64]{2,1,0} reshape(parameter.165)
  broadcast.1049 = f32[128,56,56,64]{3,2,1,0} broadcast(reshape.1048), dimensions={1,2,3}
  add.1050 = f32[128,56,56,64]{3,2,1,0} add(convert.1047, broadcast.1049)
  convert.1051 = bf16[128,56,56,64]{3,2,1,0} convert(add.1050)
  parameter.10 = f32[1,1,64,256]{3,2,1,0} parameter(9)
  convert.1052 = bf16[1,1,64,256]{3,2,1,0} convert(parameter.10)
  convolution.1053 = bf16[128,56,56,256]{3,2,1,0} convolution(convert.1051, convert.1052), window={size=1x1}, dim_labels=b01f_01io->b01f
  convert.1054 = f32[128,56,56,256]{3,2,1,0} convert(convolution.1053)
  constant.1055 = f32[] constant(0)
  reduce.1060 = f32[256]{0} reduce(convert.1054, constant.1055), dimensions={0,1,2}, to_apply=primitive_computation_add.1056
  constant.1061 = s32[] constant(401408)
  convert.1062 = f32[] convert(constant.1061)
  broadcast.1063 = f32[256]{0} broadcast(convert.1062), dimensions={}
  divide.1064 = f32[256]{0} divide(reduce.1060, broadcast.1063)
  reshape.1098 = f32[1,1,1,256]{3,2,1,0} reshape(divide.1064)
  reshape.1099 = f32[256]{0} reshape(reshape.1098)
  broadcast.1100 = f32[128,56,56,256]{3,2,1,0} broadcast(reshape.1099), dimensions={3}
  subtract.1101 = f32[128,56,56,256]{3,2,1,0} subtract(convert.1054, broadcast.1100)
  multiply.1065 = f32[128,56,56,256]{3,2,1,0} multiply(convert.1054, convert.1054)
  constant.1069 = f32[] constant(0)
  reduce.1074 = f32[256]{0} reduce(multiply.1065, constant.1069), dimensions={0,1,2}, to_apply=primitive_computation_add.1070
  constant.1075 = s32[] constant(401408)
  convert.1076 = f32[] convert(constant.1075)
  broadcast.1077 = f32[256]{0} broadcast(convert.1076), dimensions={}
  divide.1078 = f32[256]{0} divide(reduce.1074, broadcast.1077)
  multiply.1079 = f32[256]{0} multiply(divide.1064, divide.1064)
  subtract.1083 = f32[256]{0} subtract(divide.1078, multiply.1079)
  constant.1102 = f32[] constant(1e-05)
  broadcast.1103 = f32[256]{0} broadcast(constant.1102), dimensions={}
  add.1104 = f32[256]{0} add(subtract.1083, broadcast.1103)
  rsqrt.1105 = f32[256]{0} rsqrt(add.1104)
  broadcast.1113 = f32[1,1,1,256]{3,2,1,0} broadcast(rsqrt.1105), dimensions={3}
  parameter.12 = f32[256]{0} parameter(11)
  reshape.1112 = f32[1,1,1,256]{3,2,1,0} reshape(parameter.12)
  multiply.1114 = f32[1,1,1,256]{3,2,1,0} multiply(broadcast.1113, reshape.1112)
  reshape.1115 = f32[256]{0} reshape(multiply.1114)
  broadcast.1116 = f32[128,56,56,256]{3,2,1,0} broadcast(reshape.1115), dimensions={3}
  multiply.1117 = f32[128,56,56,256]{3,2,1,0} multiply(subtract.1101, broadcast.1116)
  parameter.11 = f32[256]{0} parameter(10)
  reshape.1118 = f32[1,1,1,256]{3,2,1,0} reshape(parameter.11)
  reshape.1119 = f32[256]{0} reshape(reshape.1118)
  broadcast.1120 = f32[128,56,56,256]{3,2,1,0} broadcast(reshape.1119), dimensions={3}
  add.1121 = f32[128,56,56,256]{3,2,1,0} add(multiply.1117, broadcast.1120)
  convert.1122 = bf16[128,56,56,256]{3,2,1,0} convert(add.1121)
  convert.797 = f32[128,56,56,64]{3,2,1,0} convert(reduce-window.796)
  parameter.162 = f32[1,56,56,64]{3,2,1,0} parameter(161)
  reshape.798 = f32[56,56,64]{2,1,0} reshape(parameter.162)
  broadcast.799 = f32[128,56,56,64]{3,2,1,0} broadcast(reshape.798), dimensions={1,2,3}
  add.800 = f32[128,56,56,64]{3,2,1,0} add(convert.797, broadcast.799)
  convert.801 = bf16[128,56,56,64]{3,2,1,0} convert(add.800)
  parameter.7 = f32[1,1,64,64]{3,2,1,0} parameter(6)
  convert.802 = bf16[1,1,64,64]{3,2,1,0} convert(parameter.7)
  convolution.803 = bf16[128,56,56,64]{3,2,1,0} convolution(convert.801, convert.802), window={size=1x1}, dim_labels=b01f_01io->b01f
  convert.804 = f32[128,56,56,64]{3,2,1,0} convert(convolution.803)
  constant.805 = f32[] constant(0)
  reduce.810 = f32[64]{0} reduce(convert.804, constant.805), dimensions={0,1,2}, to_apply=primitive_computation_add.806
  constant.811 = s32[] constant(401408)
  convert.812 = f32[] convert(constant.811)
  broadcast.813 = f32[64]{0} broadcast(convert.812), dimensions={}
  divide.814 = f32[64]{0} divide(reduce.810, broadcast.813)
  reshape.848 = f32[1,1,1,64]{3,2,1,0} reshape(divide.814)
  reshape.849 = f32[64]{0} reshape(reshape.848)
  broadcast.850 = f32[128,56,56,64]{3,2,1,0} broadcast(reshape.849), dimensions={3}
  subtract.851 = f32[128,56,56,64]{3,2,1,0} subtract(convert.804, broadcast.850)
  multiply.815 = f32[128,56,56,64]{3,2,1,0} multiply(convert.804, convert.804)
  constant.819 = f32[] constant(0)
  reduce.824 = f32[64]{0} reduce(multiply.815, constant.819), dimensions={0,1,2}, to_apply=primitive_computation_add.820
  constant.825 = s32[] constant(401408)
  convert.826 = f32[] convert(constant.825)
  broadcast.827 = f32[64]{0} broadcast(convert.826), dimensions={}
  divide.828 = f32[64]{0} divide(reduce.824, broadcast.827)
  multiply.829 = f32[64]{0} multiply(divide.814, divide.814)
  subtract.833 = f32[64]{0} subtract(divide.828, multiply.829)
  constant.852 = f32[] constant(1e-05)
  broadcast.853 = f32[64]{0} broadcast(constant.852), dimensions={}
  add.854 = f32[64]{0} add(subtract.833, broadcast.853)
  rsqrt.855 = f32[64]{0} rsqrt(add.854)
  broadcast.863 = f32[1,1,1,64]{3,2,1,0} broadcast(rsqrt.855), dimensions={3}
  parameter.2 = f32[64]{0} parameter(1)
  reshape.862 = f32[1,1,1,64]{3,2,1,0} reshape(parameter.2)
  multiply.864 = f32[1,1,1,64]{3,2,1,0} multiply(broadcast.863, reshape.862)
  reshape.865 = f32[64]{0} reshape(multiply.864)
  broadcast.866 = f32[128,56,56,64]{3,2,1,0} broadcast(reshape.865), dimensions={3}
  multiply.867 = f32[128,56,56,64]{3,2,1,0} multiply(subtract.851, broadcast.866)
  parameter.1 = f32[64]{0} parameter(0)
  reshape.868 = f32[1,1,1,64]{3,2,1,0} reshape(parameter.1)
  reshape.869 = f32[64]{0} reshape(reshape.868)
  broadcast.870 = f32[128,56,56,64]{3,2,1,0} broadcast(reshape.869), dimensions={3}
  add.871 = f32[128,56,56,64]{3,2,1,0} add(multiply.867, broadcast.870)
  convert.872 = bf16[128,56,56,64]{3,2,1,0} convert(add.871)
  constant.874 = bf16[] constant(0)
  broadcast.875 = bf16[128,56,56,64]{3,2,1,0} broadcast(constant.874), dimensions={}
  maximum.876 = bf16[128,56,56,64]{3,2,1,0} maximum(convert.872, broadcast.875)
  tuple.877 = (bf16[128,56,56,64]{3,2,1,0}) tuple(maximum.876)
  get-tuple-element.878 = bf16[128,56,56,64]{3,2,1,0} get-tuple-element(tuple.877), index=0
  convert.884 = f32[128,56,56,64]{3,2,1,0} convert(get-tuple-element.878)
  parameter.163 = f32[1,56,56,64]{3,2,1,0} parameter(162)
  reshape.885 = f32[56,56,64]{2,1,0} reshape(parameter.163)
  broadcast.886 = f32[128,56,56,64]{3,2,1,0} broadcast(reshape.885), dimensions={1,2,3}
  add.887 = f32[128,56,56,64]{3,2,1,0} add(convert.884, broadcast.886)
  convert.888 = bf16[128,56,56,64]{3,2,1,0} convert(add.887)
  parameter.8 = f32[3,3,64,64]{3,2,1,0} parameter(7)
  convert.889 = bf16[3,3,64,64]{3,2,1,0} convert(parameter.8)
  convolution.890 = bf16[128,56,56,64]{3,2,1,0} convolution(convert.888, convert.889), window={size=3x3 pad=1_1x1_1}, dim_labels=b01f_01io->b01f
  convert.891 = f32[128,56,56,64]{3,2,1,0} convert(convolution.890)
  constant.892 = f32[] constant(0)
  reduce.897 = f32[64]{0} reduce(convert.891, constant.892), dimensions={0,1,2}, to_apply=primitive_computation_add.893
  constant.898 = s32[] constant(401408)
  convert.899 = f32[] convert(constant.898)
  broadcast.900 = f32[64]{0} broadcast(convert.899), dimensions={}
  divide.901 = f32[64]{0} divide(reduce.897, broadcast.900)
  reshape.935 = f32[1,1,1,64]{3,2,1,0} reshape(divide.901)
  reshape.936 = f32[64]{0} reshape(reshape.935)
  broadcast.937 = f32[128,56,56,64]{3,2,1,0} broadcast(reshape.936), dimensions={3}
  subtract.938 = f32[128,56,56,64]{3,2,1,0} subtract(convert.891, broadcast.937)
  multiply.902 = f32[128,56,56,64]{3,2,1,0} multiply(convert.891, convert.891)
  constant.906 = f32[] constant(0)
  reduce.911 = f32[64]{0} reduce(multiply.902, constant.906), dimensions={0,1,2}, to_apply=primitive_computation_add.907
  constant.912 = s32[] constant(401408)
  convert.913 = f32[] convert(constant.912)
  broadcast.914 = f32[64]{0} broadcast(convert.913), dimensions={}
  divide.915 = f32[64]{0} divide(reduce.911, broadcast.914)
  multiply.916 = f32[64]{0} multiply(divide.901, divide.901)
  subtract.920 = f32[64]{0} subtract(divide.915, multiply.916)
  constant.939 = f32[] constant(1e-05)
  broadcast.940 = f32[64]{0} broadcast(constant.939), dimensions={}
  add.941 = f32[64]{0} add(subtract.920, broadcast.940)
  rsqrt.942 = f32[64]{0} rsqrt(add.941)
  broadcast.950 = f32[1,1,1,64]{3,2,1,0} broadcast(rsqrt.942), dimensions={3}
  parameter.4 = f32[64]{0} parameter(3)
  reshape.949 = f32[1,1,1,64]{3,2,1,0} reshape(parameter.4)
  multiply.951 = f32[1,1,1,64]{3,2,1,0} multiply(broadcast.950, reshape.949)
  reshape.952 = f32[64]{0} reshape(multiply.951)
  broadcast.953 = f32[128,56,56,64]{3,2,1,0} broadcast(reshape.952), dimensions={3}
  multiply.954 = f32[128,56,56,64]{3,2,1,0} multiply(subtract.938, broadcast.953)
  parameter.3 = f32[64]{0} parameter(2)
  reshape.955 = f32[1,1,1,64]{3,2,1,0} reshape(parameter.3)
  reshape.956 = f32[64]{0} reshape(reshape.955)
  broadcast.957 = f32[128,56,56,64]{3,2,1,0} broadcast(reshape.956), dimensions={3}
  add.958 = f32[128,56,56,64]{3,2,1,0} add(multiply.954, broadcast.957)
  convert.959 = bf16[128,56,56,64]{3,2,1,0} convert(add.958)
  constant.961 = bf16[] constant(0)
  broadcast.962 = bf16[128,56,56,64]{3,2,1,0} broadcast(constant.961), dimensions={}
  maximum.963 = bf16[128,56,56,64]{3,2,1,0} maximum(convert.959, broadcast.962)
  tuple.964 = (bf16[128,56,56,64]{3,2,1,0}) tuple(maximum.963)
  get-tuple-element.965 = bf16[128,56,56,64]{3,2,1,0} get-tuple-element(tuple.964), index=0
  convert.971 = f32[128,56,56,64]{3,2,1,0} convert(get-tuple-element.965)
  parameter.164 = f32[1,56,56,64]{3,2,1,0} parameter(163)
  reshape.972 = f32[56,56,64]{2,1,0} reshape(parameter.164)
  broadcast.973 = f32[128,56,56,64]{3,2,1,0} broadcast(reshape.972), dimensions={1,2,3}
  add.974 = f32[128,56,56,64]{3,2,1,0} add(convert.971, broadcast.973)
  convert.975 = bf16[128,56,56,64]{3,2,1,0} convert(add.974)
  parameter.9 = f32[1,1,64,256]{3,2,1,0} parameter(8)
  convert.976 = bf16[1,1,64,256]{3,2,1,0} convert(parameter.9)
  convolution.977 = bf16[128,56,56,256]{3,2,1,0} convolution(convert.975, convert.976), window={size=1x1}, dim_labels=b01f_01io->b01f
  convert.978 = f32[128,56,56,256]{3,2,1,0} convert(convolution.977)
  constant.979 = f32[] constant(0)
  reduce.984 = f32[256]{0} reduce(convert.978, constant.979), dimensions={0,1,2}, to_apply=primitive_computation_add.980
  constant.985 = s32[] constant(401408)
  convert.986 = f32[] convert(constant.985)
  broadcast.987 = f32[256]{0} broadcast(convert.986), dimensions={}
  divide.988 = f32[256]{0} divide(reduce.984, broadcast.987)
  reshape.1022 = f32[1,1,1,256]{3,2,1,0} reshape(divide.988)
  reshape.1023 = f32[256]{0} reshape(reshape.1022)
  broadcast.1024 = f32[128,56,56,256]{3,2,1,0} broadcast(reshape.1023), dimensions={3}
  subtract.1025 = f32[128,56,56,256]{3,2,1,0} subtract(convert.978, broadcast.1024)
  multiply.989 = f32[128,56,56,256]{3,2,1,0} multiply(convert.978, convert.978)
  constant.993 = f32[] constant(0)
  reduce.998 = f32[256]{0} reduce(multiply.989, constant.993), dimensions={0,1,2}, to_apply=primitive_computation_add.994
  constant.999 = s32[] constant(401408)
  convert.1000 = f32[] convert(constant.999)
  broadcast.1001 = f32[256]{0} broadcast(convert.1000), dimensions={}
  divide.1002 = f32[256]{0} divide(reduce.998, broadcast.1001)
  multiply.1003 = f32[256]{0} multiply(divide.988, divide.988)
  subtract.1007 = f32[256]{0} subtract(divide.1002, multiply.1003)
  constant.1026 = f32[] constant(1e-05)
  broadcast.1027 = f32[256]{0} broadcast(constant.1026), dimensions={}
  add.1028 = f32[256]{0} add(subtract.1007, broadcast.1027)
  rsqrt.1029 = f32[256]{0} rsqrt(add.1028)
  broadcast.1037 = f32[1,1,1,256]{3,2,1,0} broadcast(rsqrt.1029), dimensions={3}
  parameter.6 = f32[256]{0} parameter(5)
  reshape.1036 = f32[1,1,1,256]{3,2,1,0} reshape(parameter.6)
  multiply.1038 = f32[1,1,1,256]{3,2,1,0} multiply(broadcast.1037, reshape.1036)
  reshape.1039 = f32[256]{0} reshape(multiply.1038)
  broadcast.1040 = f32[128,56,56,256]{3,2,1,0} broadcast(reshape.1039), dimensions={3}
  multiply.1041 = f32[128,56,56,256]{3,2,1,0} multiply(subtract.1025, broadcast.1040)
  parameter.5 = f32[256]{0} parameter(4)
  reshape.1042 = f32[1,1,1,256]{3,2,1,0} reshape(parameter.5)
  reshape.1043 = f32[256]{0} reshape(reshape.1042)
  broadcast.1044 = f32[128,56,56,256]{3,2,1,0} broadcast(reshape.1043), dimensions={3}
  add.1045 = f32[128,56,56,256]{3,2,1,0} add(multiply.1041, broadcast.1044)
  convert.1046 = bf16[128,56,56,256]{3,2,1,0} convert(add.1045)
  add.1123 = bf16[128,56,56,256]{3,2,1,0} add(convert.1122, convert.1046)
  constant.1125 = bf16[] constant(0)
  broadcast.1126 = bf16[128,56,56,256]{3,2,1,0} broadcast(constant.1125), dimensions={}
  maximum.1127 = bf16[128,56,56,256]{3,2,1,0} maximum(add.1123, broadcast.1126)
  tuple.1128 = (bf16[128,56,56,256]{3,2,1,0}) tuple(maximum.1127)
  get-tuple-element.1129 = bf16[128,56,56,256]{3,2,1,0} get-tuple-element(tuple.1128), index=0
  convert.1135 = f32[128,56,56,256]{3,2,1,0} convert(get-tuple-element.1129)
  parameter.166 = f32[1,56,56,256]{3,2,1,0} parameter(165)
  reshape.1136 = f32[56,56,256]{2,1,0} reshape(parameter.166)
  broadcast.1137 = f32[128,56,56,256]{3,2,1,0} broadcast(reshape.1136), dimensions={1,2,3}
  add.1138 = f32[128,56,56,256]{3,2,1,0} add(convert.1135, broadcast.1137)
  convert.1139 = bf16[128,56,56,256]{3,2,1,0} convert(add.1138)
  parameter.19 = f32[1,1,256,64]{3,2,1,0} parameter(18)
  convert.1140 = bf16[1,1,256,64]{3,2,1,0} convert(parameter.19)
  convolution.1141 = bf16[128,56,56,64]{3,2,1,0} convolution(convert.1139, convert.1140), window={size=1x1}, dim_labels=b01f_01io->b01f
  convert.1142 = f32[128,56,56,64]{3,2,1,0} convert(convolution.1141)
  constant.1143 = f32[] constant(0)
  reduce.1148 = f32[64]{0} reduce(convert.1142, constant.1143), dimensions={0,1,2}, to_apply=primitive_computation_add.1144
  constant.1149 = s32[] constant(401408)
  convert.1150 = f32[] convert(constant.1149)
  broadcast.1151 = f32[64]{0} broadcast(convert.1150), dimensions={}
  divide.1152 = f32[64]{0} divide(reduce.1148, broadcast.1151)
  reshape.1186 = f32[1,1,1,64]{3,2,1,0} reshape(divide.1152)
  reshape.1187 = f32[64]{0} reshape(reshape.1186)
  broadcast.1188 = f32[128,56,56,64]{3,2,1,0} broadcast(reshape.1187), dimensions={3}
  subtract.1189 = f32[128,56,56,64]{3,2,1,0} subtract(convert.1142, broadcast.1188)
  multiply.1153 = f32[128,56,56,64]{3,2,1,0} multiply(convert.1142, convert.1142)
  constant.1157 = f32[] constant(0)
  reduce.1162 = f32[64]{0} reduce(multiply.1153, constant.1157), dimensions={0,1,2}, to_apply=primitive_computation_add.1158
  constant.1163 = s32[] constant(401408)
  convert.1164 = f32[] convert(constant.1163)
  broadcast.1165 = f32[64]{0} broadcast(convert.1164), dimensions={}
  divide.1166 = f32[64]{0} divide(reduce.1162, broadcast.1165)
  multiply.1167 = f32[64]{0} multiply(divide.1152, divide.1152)
  subtract.1171 = f32[64]{0} subtract(divide.1166, multiply.1167)
  constant.1190 = f32[] constant(1e-05)
  broadcast.1191 = f32[64]{0} broadcast(constant.1190), dimensions={}
  add.1192 = f32[64]{0} add(subtract.1171, broadcast.1191)
  rsqrt.1193 = f32[64]{0} rsqrt(add.1192)
  broadcast.1201 = f32[1,1,1,64]{3,2,1,0} broadcast(rsqrt.1193), dimensions={3}
  parameter.14 = f32[64]{0} parameter(13)
  reshape.1200 = f32[1,1,1,64]{3,2,1,0} reshape(parameter.14)
  multiply.1202 = f32[1,1,1,64]{3,2,1,0} multiply(broadcast.1201, reshape.1200)
  reshape.1203 = f32[64]{0} reshape(multiply.1202)
  broadcast.1204 = f32[128,56,56,64]{3,2,1,0} broadcast(reshape.1203), dimensions={3}
  multiply.1205 = f32[128,56,56,64]{3,2,1,0} multiply(subtract.1189, broadcast.1204)
  parameter.13 = f32[64]{0} parameter(12)
  reshape.1206 = f32[1,1,1,64]{3,2,1,0} reshape(parameter.13)
  reshape.1207 = f32[64]{0} reshape(reshape.1206)
  broadcast.1208 = f32[128,56,56,64]{3,2,1,0} broadcast(reshape.1207), dimensions={3}
  add.1209 = f32[128,56,56,64]{3,2,1,0} add(multiply.1205, broadcast.1208)
  convert.1210 = bf16[128,56,56,64]{3,2,1,0} convert(add.1209)
  constant.1212 = bf16[] constant(0)
  broadcast.1213 = bf16[128,56,56,64]{3,2,1,0} broadcast(constant.1212), dimensions={}
  maximum.1214 = bf16[128,56,56,64]{3,2,1,0} maximum(convert.1210, broadcast.1213)
  tuple.1215 = (bf16[128,56,56,64]{3,2,1,0}) tuple(maximum.1214)
  get-tuple-element.1216 = bf16[128,56,56,64]{3,2,1,0} get-tuple-element(tuple.1215), index=0
  convert.1222 = f32[128,56,56,64]{3,2,1,0} convert(get-tuple-element.1216)
  parameter.167 = f32[1,56,56,64]{3,2,1,0} parameter(166)
  reshape.1223 = f32[56,56,64]{2,1,0} reshape(parameter.167)
  broadcast.1224 = f32[128,56,56,64]{3,2,1,0} broadcast(reshape.1223), dimensions={1,2,3}
  add.1225 = f32[128,56,56,64]{3,2,1,0} add(convert.1222, broadcast.1224)
  convert.1226 = bf16[128,56,56,64]{3,2,1,0} convert(add.1225)
  parameter.20 = f32[3,3,64,64]{3,2,1,0} parameter(19)
  convert.1227 = bf16[3,3,64,64]{3,2,1,0} convert(parameter.20)
  convolution.1228 = bf16[128,56,56,64]{3,2,1,0} convolution(convert.1226, convert.1227), window={size=3x3 pad=1_1x1_1}, dim_labels=b01f_01io->b01f
  convert.1229 = f32[128,56,56,64]{3,2,1,0} convert(convolution.1228)
  constant.1230 = f32[] constant(0)
  reduce.1235 = f32[64]{0} reduce(convert.1229, constant.1230), dimensions={0,1,2}, to_apply=primitive_computation_add.1231
  constant.1236 = s32[] constant(401408)
  convert.1237 = f32[] convert(constant.1236)
  broadcast.1238 = f32[64]{0} broadcast(convert.1237), dimensions={}
  divide.1239 = f32[64]{0} divide(reduce.1235, broadcast.1238)
  reshape.1273 = f32[1,1,1,64]{3,2,1,0} reshape(divide.1239)
  reshape.1274 = f32[64]{0} reshape(reshape.1273)
  broadcast.1275 = f32[128,56,56,64]{3,2,1,0} broadcast(reshape.1274), dimensions={3}
  subtract.1276 = f32[128,56,56,64]{3,2,1,0} subtract(convert.1229, broadcast.1275)
  multiply.1240 = f32[128,56,56,64]{3,2,1,0} multiply(convert.1229, convert.1229)
  constant.1244 = f32[] constant(0)
  reduce.1249 = f32[64]{0} reduce(multiply.1240, constant.1244), dimensions={0,1,2}, to_apply=primitive_computation_add.1245
  constant.1250 = s32[] constant(401408)
  convert.1251 = f32[] convert(constant.1250)
  broadcast.1252 = f32[64]{0} broadcast(convert.1251), dimensions={}
  divide.1253 = f32[64]{0} divide(reduce.1249, broadcast.1252)
  multiply.1254 = f32[64]{0} multiply(divide.1239, divide.1239)
  subtract.1258 = f32[64]{0} subtract(divide.1253, multiply.1254)
  constant.1277 = f32[] constant(1e-05)
  broadcast.1278 = f32[64]{0} broadcast(constant.1277), dimensions={}
  add.1279 = f32[64]{0} add(subtract.1258, broadcast.1278)
  rsqrt.1280 = f32[64]{0} rsqrt(add.1279)
  broadcast.1288 = f32[1,1,1,64]{3,2,1,0} broadcast(rsqrt.1280), dimensions={3}
  parameter.16 = f32[64]{0} parameter(15)
  reshape.1287 = f32[1,1,1,64]{3,2,1,0} reshape(parameter.16)
  multiply.1289 = f32[1,1,1,64]{3,2,1,0} multiply(broadcast.1288, reshape.1287)
  reshape.1290 = f32[64]{0} reshape(multiply.1289)
  broadcast.1291 = f32[128,56,56,64]{3,2,1,0} broadcast(reshape.1290), dimensions={3}
  multiply.1292 = f32[128,56,56,64]{3,2,1,0} multiply(subtract.1276, broadcast.1291)
  parameter.15 = f32[64]{0} parameter(14)
  reshape.1293 = f32[1,1,1,64]{3,2,1,0} reshape(parameter.15)
  reshape.1294 = f32[64]{0} reshape(reshape.1293)
  broadcast.1295 = f32[128,56,56,64]{3,2,1,0} broadcast(reshape.1294), dimensions={3}
  add.1296 = f32[128,56,56,64]{3,2,1,0} add(multiply.1292, broadcast.1295)
  convert.1297 = bf16[128,56,56,64]{3,2,1,0} convert(add.1296)
  constant.1299 = bf16[] constant(0)
  broadcast.1300 = bf16[128,56,56,64]{3,2,1,0} broadcast(constant.1299), dimensions={}
  maximum.1301 = bf16[128,56,56,64]{3,2,1,0} maximum(convert.1297, broadcast.1300)
  tuple.1302 = (bf16[128,56,56,64]{3,2,1,0}) tuple(maximum.1301)
  get-tuple-element.1303 = bf16[128,56,56,64]{3,2,1,0} get-tuple-element(tuple.1302), index=0
  convert.1309 = f32[128,56,56,64]{3,2,1,0} convert(get-tuple-element.1303)
  parameter.168 = f32[1,56,56,64]{3,2,1,0} parameter(167)
  reshape.1310 = f32[56,56,64]{2,1,0} reshape(parameter.168)
  broadcast.1311 = f32[128,56,56,64]{3,2,1,0} broadcast(reshape.1310), dimensions={1,2,3}
  add.1312 = f32[128,56,56,64]{3,2,1,0} add(convert.1309, broadcast.1311)
  convert.1313 = bf16[128,56,56,64]{3,2,1,0} convert(add.1312)
  parameter.21 = f32[1,1,64,256]{3,2,1,0} parameter(20)
  convert.1314 = bf16[1,1,64,256]{3,2,1,0} convert(parameter.21)
  convolution.1315 = bf16[128,56,56,256]{3,2,1,0} convolution(convert.1313, convert.1314), window={size=1x1}, dim_labels=b01f_01io->b01f
  convert.1316 = f32[128,56,56,256]{3,2,1,0} convert(convolution.1315)
  constant.1317 = f32[] constant(0)
  reduce.1322 = f32[256]{0} reduce(convert.1316, constant.1317), dimensions={0,1,2}, to_apply=primitive_computation_add.1318
  constant.1323 = s32[] constant(401408)
  convert.1324 = f32[] convert(constant.1323)
  broadcast.1325 = f32[256]{0} broadcast(convert.1324), dimensions={}
  divide.1326 = f32[256]{0} divide(reduce.1322, broadcast.1325)
  reshape.1360 = f32[1,1,1,256]{3,2,1,0} reshape(divide.1326)
  reshape.1361 = f32[256]{0} reshape(reshape.1360)
  broadcast.1362 = f32[128,56,56,256]{3,2,1,0} broadcast(reshape.1361), dimensions={3}
  subtract.1363 = f32[128,56,56,256]{3,2,1,0} subtract(convert.1316, broadcast.1362)
  multiply.1327 = f32[128,56,56,256]{3,2,1,0} multiply(convert.1316, convert.1316)
  constant.1331 = f32[] constant(0)
  reduce.1336 = f32[256]{0} reduce(multiply.1327, constant.1331), dimensions={0,1,2}, to_apply=primitive_computation_add.1332
  constant.1337 = s32[] constant(401408)
  convert.1338 = f32[] convert(constant.1337)
  broadcast.1339 = f32[256]{0} broadcast(convert.1338), dimensions={}
  divide.1340 = f32[256]{0} divide(reduce.1336, broadcast.1339)
  multiply.1341 = f32[256]{0} multiply(divide.1326, divide.1326)
  subtract.1345 = f32[256]{0} subtract(divide.1340, multiply.1341)
  constant.1364 = f32[] constant(1e-05)
  broadcast.1365 = f32[256]{0} broadcast(constant.1364), dimensions={}
  add.1366 = f32[256]{0} add(subtract.1345, broadcast.1365)
  rsqrt.1367 = f32[256]{0} rsqrt(add.1366)
  broadcast.1375 = f32[1,1,1,256]{3,2,1,0} broadcast(rsqrt.1367), dimensions={3}
  parameter.18 = f32[256]{0} parameter(17)
  reshape.1374 = f32[1,1,1,256]{3,2,1,0} reshape(parameter.18)
  multiply.1376 = f32[1,1,1,256]{3,2,1,0} multiply(broadcast.1375, reshape.1374)
  reshape.1377 = f32[256]{0} reshape(multiply.1376)
  broadcast.1378 = f32[128,56,56,256]{3,2,1,0} broadcast(reshape.1377), dimensions={3}
  multiply.1379 = f32[128,56,56,256]{3,2,1,0} multiply(subtract.1363, broadcast.1378)
  parameter.17 = f32[256]{0} parameter(16)
  reshape.1380 = f32[1,1,1,256]{3,2,1,0} reshape(parameter.17)
  reshape.1381 = f32[256]{0} reshape(reshape.1380)
  broadcast.1382 = f32[128,56,56,256]{3,2,1,0} broadcast(reshape.1381), dimensions={3}
  add.1383 = f32[128,56,56,256]{3,2,1,0} add(multiply.1379, broadcast.1382)
  convert.1384 = bf16[128,56,56,256]{3,2,1,0} convert(add.1383)
  add.1385 = bf16[128,56,56,256]{3,2,1,0} add(get-tuple-element.1129, convert.1384)
  constant.1387 = bf16[] constant(0)
  broadcast.1388 = bf16[128,56,56,256]{3,2,1,0} broadcast(constant.1387), dimensions={}
  maximum.1389 = bf16[128,56,56,256]{3,2,1,0} maximum(add.1385, broadcast.1388)
  tuple.1390 = (bf16[128,56,56,256]{3,2,1,0}) tuple(maximum.1389)
  get-tuple-element.1391 = bf16[128,56,56,256]{3,2,1,0} get-tuple-element(tuple.1390), index=0
  convert.1397 = f32[128,56,56,256]{3,2,1,0} convert(get-tuple-element.1391)
  parameter.188 = f32[1,56,56,256]{3,2,1,0} parameter(187)
  reshape.1398 = f32[56,56,256]{2,1,0} reshape(parameter.188)
  broadcast.1399 = f32[128,56,56,256]{3,2,1,0} broadcast(reshape.1398), dimensions={1,2,3}
  add.1400 = f32[128,56,56,256]{3,2,1,0} add(convert.1397, broadcast.1399)
  convert.1401 = bf16[128,56,56,256]{3,2,1,0} convert(add.1400)
  parameter.85 = f32[1,1,256,64]{3,2,1,0} parameter(84)
  convert.1402 = bf16[1,1,256,64]{3,2,1,0} convert(parameter.85)
  convolution.1403 = bf16[128,56,56,64]{3,2,1,0} convolution(convert.1401, convert.1402), window={size=1x1}, dim_labels=b01f_01io->b01f
  convert.1404 = f32[128,56,56,64]{3,2,1,0} convert(convolution.1403)
  constant.1405 = f32[] constant(0)
  reduce.1410 = f32[64]{0} reduce(convert.1404, constant.1405), dimensions={0,1,2}, to_apply=primitive_computation_add.1406
  constant.1411 = s32[] constant(401408)
  convert.1412 = f32[] convert(constant.1411)
  broadcast.1413 = f32[64]{0} broadcast(convert.1412), dimensions={}
  divide.1414 = f32[64]{0} divide(reduce.1410, broadcast.1413)
  reshape.1448 = f32[1,1,1,64]{3,2,1,0} reshape(divide.1414)
  reshape.1449 = f32[64]{0} reshape(reshape.1448)
  broadcast.1450 = f32[128,56,56,64]{3,2,1,0} broadcast(reshape.1449), dimensions={3}
  subtract.1451 = f32[128,56,56,64]{3,2,1,0} subtract(convert.1404, broadcast.1450)
  multiply.1415 = f32[128,56,56,64]{3,2,1,0} multiply(convert.1404, convert.1404)
  constant.1419 = f32[] constant(0)
  reduce.1424 = f32[64]{0} reduce(multiply.1415, constant.1419), dimensions={0,1,2}, to_apply=primitive_computation_add.1420
  constant.1425 = s32[] constant(401408)
  convert.1426 = f32[] convert(constant.1425)
  broadcast.1427 = f32[64]{0} broadcast(convert.1426), dimensions={}
  divide.1428 = f32[64]{0} divide(reduce.1424, broadcast.1427)
  multiply.1429 = f32[64]{0} multiply(divide.1414, divide.1414)
  subtract.1433 = f32[64]{0} subtract(divide.1428, multiply.1429)
  constant.1452 = f32[] constant(1e-05)
  broadcast.1453 = f32[64]{0} broadcast(constant.1452), dimensions={}
  add.1454 = f32[64]{0} add(subtract.1433, broadcast.1453)
  rsqrt.1455 = f32[64]{0} rsqrt(add.1454)
  broadcast.1463 = f32[1,1,1,64]{3,2,1,0} broadcast(rsqrt.1455), dimensions={3}
  parameter.80 = f32[64]{0} parameter(79)
  reshape.1462 = f32[1,1,1,64]{3,2,1,0} reshape(parameter.80)
  multiply.1464 = f32[1,1,1,64]{3,2,1,0} multiply(broadcast.1463, reshape.1462)
  reshape.1465 = f32[64]{0} reshape(multiply.1464)
  broadcast.1466 = f32[128,56,56,64]{3,2,1,0} broadcast(reshape.1465), dimensions={3}
  multiply.1467 = f32[128,56,56,64]{3,2,1,0} multiply(subtract.1451, broadcast.1466)
  parameter.79 = f32[64]{0} parameter(78)
  reshape.1468 = f32[1,1,1,64]{3,2,1,0} reshape(parameter.79)
  reshape.1469 = f32[64]{0} reshape(reshape.1468)
  broadcast.1470 = f32[128,56,56,64]{3,2,1,0} broadcast(reshape.1469), dimensions={3}
  add.1471 = f32[128,56,56,64]{3,2,1,0} add(multiply.1467, broadcast.1470)
  convert.1472 = bf16[128,56,56,64]{3,2,1,0} convert(add.1471)
  constant.1474 = bf16[] constant(0)
  broadcast.1475 = bf16[128,56,56,64]{3,2,1,0} broadcast(constant.1474), dimensions={}
  maximum.1476 = bf16[128,56,56,64]{3,2,1,0} maximum(convert.1472, broadcast.1475)
  tuple.1477 = (bf16[128,56,56,64]{3,2,1,0}) tuple(maximum.1476)
  get-tuple-element.1478 = bf16[128,56,56,64]{3,2,1,0} get-tuple-element(tuple.1477), index=0
  convert.1484 = f32[128,56,56,64]{3,2,1,0} convert(get-tuple-element.1478)
  parameter.189 = f32[1,56,56,64]{3,2,1,0} parameter(188)
  reshape.1485 = f32[56,56,64]{2,1,0} reshape(parameter.189)
  broadcast.1486 = f32[128,56,56,64]{3,2,1,0} broadcast(reshape.1485), dimensions={1,2,3}
  add.1487 = f32[128,56,56,64]{3,2,1,0} add(convert.1484, broadcast.1486)
  convert.1488 = bf16[128,56,56,64]{3,2,1,0} convert(add.1487)
  parameter.86 = f32[3,3,64,64]{3,2,1,0} parameter(85)
  convert.1489 = bf16[3,3,64,64]{3,2,1,0} convert(parameter.86)
  convolution.1490 = bf16[128,56,56,64]{3,2,1,0} convolution(convert.1488, convert.1489), window={size=3x3 pad=1_1x1_1}, dim_labels=b01f_01io->b01f
  convert.1491 = f32[128,56,56,64]{3,2,1,0} convert(convolution.1490)
  constant.1492 = f32[] constant(0)
  reduce.1497 = f32[64]{0} reduce(convert.1491, constant.1492), dimensions={0,1,2}, to_apply=primitive_computation_add.1493
  constant.1498 = s32[] constant(401408)
  convert.1499 = f32[] convert(constant.1498)
  broadcast.1500 = f32[64]{0} broadcast(convert.1499), dimensions={}
  divide.1501 = f32[64]{0} divide(reduce.1497, broadcast.1500)
  reshape.1535 = f32[1,1,1,64]{3,2,1,0} reshape(divide.1501)
  reshape.1536 = f32[64]{0} reshape(reshape.1535)
  broadcast.1537 = f32[128,56,56,64]{3,2,1,0} broadcast(reshape.1536), dimensions={3}
  subtract.1538 = f32[128,56,56,64]{3,2,1,0} subtract(convert.1491, broadcast.1537)
  multiply.1502 = f32[128,56,56,64]{3,2,1,0} multiply(convert.1491, convert.1491)
  constant.1506 = f32[] constant(0)
  reduce.1511 = f32[64]{0} reduce(multiply.1502, constant.1506), dimensions={0,1,2}, to_apply=primitive_computation_add.1507
  constant.1512 = s32[] constant(401408)
  convert.1513 = f32[] convert(constant.1512)
  broadcast.1514 = f32[64]{0} broadcast(convert.1513), dimensions={}
  divide.1515 = f32[64]{0} divide(reduce.1511, broadcast.1514)
  multiply.1516 = f32[64]{0} multiply(divide.1501, divide.1501)
  subtract.1520 = f32[64]{0} subtract(divide.1515, multiply.1516)
  constant.1539 = f32[] constant(1e-05)
  broadcast.1540 = f32[64]{0} broadcast(constant.1539), dimensions={}
  add.1541 = f32[64]{0} add(subtract.1520, broadcast.1540)
  rsqrt.1542 = f32[64]{0} rsqrt(add.1541)
  broadcast.1550 = f32[1,1,1,64]{3,2,1,0} broadcast(rsqrt.1542), dimensions={3}
  parameter.82 = f32[64]{0} parameter(81)
  reshape.1549 = f32[1,1,1,64]{3,2,1,0} reshape(parameter.82)
  multiply.1551 = f32[1,1,1,64]{3,2,1,0} multiply(broadcast.1550, reshape.1549)
  reshape.1552 = f32[64]{0} reshape(multiply.1551)
  broadcast.1553 = f32[128,56,56,64]{3,2,1,0} broadcast(reshape.1552), dimensions={3}
  multiply.1554 = f32[128,56,56,64]{3,2,1,0} multiply(subtract.1538, broadcast.1553)
  parameter.81 = f32[64]{0} parameter(80)
  reshape.1555 = f32[1,1,1,64]{3,2,1,0} reshape(parameter.81)
  reshape.1556 = f32[64]{0} reshape(reshape.1555)
  broadcast.1557 = f32[128,56,56,64]{3,2,1,0} broadcast(reshape.1556), dimensions={3}
  add.1558 = f32[128,56,56,64]{3,2,1,0} add(multiply.1554, broadcast.1557)
  convert.1559 = bf16[128,56,56,64]{3,2,1,0} convert(add.1558)
  constant.1561 = bf16[] constant(0)
  broadcast.1562 = bf16[128,56,56,64]{3,2,1,0} broadcast(constant.1561), dimensions={}
  maximum.1563 = bf16[128,56,56,64]{3,2,1,0} maximum(convert.1559, broadcast.1562)
  tuple.1564 = (bf16[128,56,56,64]{3,2,1,0}) tuple(maximum.1563)
  get-tuple-element.1565 = bf16[128,56,56,64]{3,2,1,0} get-tuple-element(tuple.1564), index=0
  convert.1571 = f32[128,56,56,64]{3,2,1,0} convert(get-tuple-element.1565)
  parameter.190 = f32[1,56,56,64]{3,2,1,0} parameter(189)
  reshape.1572 = f32[56,56,64]{2,1,0} reshape(parameter.190)
  broadcast.1573 = f32[128,56,56,64]{3,2,1,0} broadcast(reshape.1572), dimensions={1,2,3}
  add.1574 = f32[128,56,56,64]{3,2,1,0} add(convert.1571, broadcast.1573)
  convert.1575 = bf16[128,56,56,64]{3,2,1,0} convert(add.1574)
  parameter.87 = f32[1,1,64,256]{3,2,1,0} parameter(86)
  convert.1576 = bf16[1,1,64,256]{3,2,1,0} convert(parameter.87)
  convolution.1577 = bf16[128,56,56,256]{3,2,1,0} convolution(convert.1575, convert.1576), window={size=1x1}, dim_labels=b01f_01io->b01f
  convert.1578 = f32[128,56,56,256]{3,2,1,0} convert(convolution.1577)
  constant.1579 = f32[] constant(0)
  reduce.1584 = f32[256]{0} reduce(convert.1578, constant.1579), dimensions={0,1,2}, to_apply=primitive_computation_add.1580
  constant.1585 = s32[] constant(401408)
  convert.1586 = f32[] convert(constant.1585)
  broadcast.1587 = f32[256]{0} broadcast(convert.1586), dimensions={}
  divide.1588 = f32[256]{0} divide(reduce.1584, broadcast.1587)
  reshape.1622 = f32[1,1,1,256]{3,2,1,0} reshape(divide.1588)
  reshape.1623 = f32[256]{0} reshape(reshape.1622)
  broadcast.1624 = f32[128,56,56,256]{3,2,1,0} broadcast(reshape.1623), dimensions={3}
  subtract.1625 = f32[128,56,56,256]{3,2,1,0} subtract(convert.1578, broadcast.1624)
  multiply.1589 = f32[128,56,56,256]{3,2,1,0} multiply(convert.1578, convert.1578)
  constant.1593 = f32[] constant(0)
  reduce.1598 = f32[256]{0} reduce(multiply.1589, constant.1593), dimensions={0,1,2}, to_apply=primitive_computation_add.1594
  constant.1599 = s32[] constant(401408)
  convert.1600 = f32[] convert(constant.1599)
  broadcast.1601 = f32[256]{0} broadcast(convert.1600), dimensions={}
  divide.1602 = f32[256]{0} divide(reduce.1598, broadcast.1601)
  multiply.1603 = f32[256]{0} multiply(divide.1588, divide.1588)
  subtract.1607 = f32[256]{0} subtract(divide.1602, multiply.1603)
  constant.1626 = f32[] constant(1e-05)
  broadcast.1627 = f32[256]{0} broadcast(constant.1626), dimensions={}
  add.1628 = f32[256]{0} add(subtract.1607, broadcast.1627)
  rsqrt.1629 = f32[256]{0} rsqrt(add.1628)
  broadcast.1637 = f32[1,1,1,256]{3,2,1,0} broadcast(rsqrt.1629), dimensions={3}
  parameter.84 = f32[256]{0} parameter(83)
  reshape.1636 = f32[1,1,1,256]{3,2,1,0} reshape(parameter.84)
  multiply.1638 = f32[1,1,1,256]{3,2,1,0} multiply(broadcast.1637, reshape.1636)
  reshape.1639 = f32[256]{0} reshape(multiply.1638)
  broadcast.1640 = f32[128,56,56,256]{3,2,1,0} broadcast(reshape.1639), dimensions={3}
  multiply.1641 = f32[128,56,56,256]{3,2,1,0} multiply(subtract.1625, broadcast.1640)
  parameter.83 = f32[256]{0} parameter(82)
  reshape.1642 = f32[1,1,1,256]{3,2,1,0} reshape(parameter.83)
  reshape.1643 = f32[256]{0} reshape(reshape.1642)
  broadcast.1644 = f32[128,56,56,256]{3,2,1,0} broadcast(reshape.1643), dimensions={3}
  add.1645 = f32[128,56,56,256]{3,2,1,0} add(multiply.1641, broadcast.1644)
  convert.1646 = bf16[128,56,56,256]{3,2,1,0} convert(add.1645)
  add.1647 = bf16[128,56,56,256]{3,2,1,0} add(get-tuple-element.1391, convert.1646)
  constant.1649 = bf16[] constant(0)
  broadcast.1650 = bf16[128,56,56,256]{3,2,1,0} broadcast(constant.1649), dimensions={}
  maximum.1651 = bf16[128,56,56,256]{3,2,1,0} maximum(add.1647, broadcast.1650)
  tuple.1652 = (bf16[128,56,56,256]{3,2,1,0}) tuple(maximum.1651)
  get-tuple-element.1653 = bf16[128,56,56,256]{3,2,1,0} get-tuple-element(tuple.1652), index=0
  convert.1909 = f32[128,56,56,256]{3,2,1,0} convert(get-tuple-element.1653)
  parameter.194 = f32[1,56,56,256]{3,2,1,0} parameter(193)
  reshape.1910 = f32[56,56,256]{2,1,0} reshape(parameter.194)
  broadcast.1911 = f32[128,56,56,256]{3,2,1,0} broadcast(reshape.1910), dimensions={1,2,3}
  add.1912 = f32[128,56,56,256]{3,2,1,0} add(convert.1909, broadcast.1911)
  convert.1913 = bf16[128,56,56,256]{3,2,1,0} convert(add.1912)
  parameter.97 = f32[1,1,256,512]{3,2,1,0} parameter(96)
  convert.1914 = bf16[1,1,256,512]{3,2,1,0} convert(parameter.97)
  convolution.1915 = bf16[128,28,28,512]{3,2,1,0} convolution(convert.1913, convert.1914), window={size=1x1 stride=2x2}, dim_labels=b01f_01io->b01f
  convert.1916 = f32[128,28,28,512]{3,2,1,0} convert(convolution.1915)
  constant.1917 = f32[] constant(0)
  reduce.1922 = f32[512]{0} reduce(convert.1916, constant.1917), dimensions={0,1,2}, to_apply=primitive_computation_add.1918
  constant.1923 = s32[] constant(100352)
  convert.1924 = f32[] convert(constant.1923)
  broadcast.1925 = f32[512]{0} broadcast(convert.1924), dimensions={}
  divide.1926 = f32[512]{0} divide(reduce.1922, broadcast.1925)
  reshape.1960 = f32[1,1,1,512]{3,2,1,0} reshape(divide.1926)
  reshape.1961 = f32[512]{0} reshape(reshape.1960)
  broadcast.1962 = f32[128,28,28,512]{3,2,1,0} broadcast(reshape.1961), dimensions={3}
  subtract.1963 = f32[128,28,28,512]{3,2,1,0} subtract(convert.1916, broadcast.1962)
  multiply.1927 = f32[128,28,28,512]{3,2,1,0} multiply(convert.1916, convert.1916)
  constant.1931 = f32[] constant(0)
  reduce.1936 = f32[512]{0} reduce(multiply.1927, constant.1931), dimensions={0,1,2}, to_apply=primitive_computation_add.1932
  constant.1937 = s32[] constant(100352)
  convert.1938 = f32[] convert(constant.1937)
  broadcast.1939 = f32[512]{0} broadcast(convert.1938), dimensions={}
  divide.1940 = f32[512]{0} divide(reduce.1936, broadcast.1939)
  multiply.1941 = f32[512]{0} multiply(divide.1926, divide.1926)
  subtract.1945 = f32[512]{0} subtract(divide.1940, multiply.1941)
  constant.1964 = f32[] constant(1e-05)
  broadcast.1965 = f32[512]{0} broadcast(constant.1964), dimensions={}
  add.1966 = f32[512]{0} add(subtract.1945, broadcast.1965)
  rsqrt.1967 = f32[512]{0} rsqrt(add.1966)
  broadcast.1975 = f32[1,1,1,512]{3,2,1,0} broadcast(rsqrt.1967), dimensions={3}
  parameter.99 = f32[512]{0} parameter(98)
  reshape.1974 = f32[1,1,1,512]{3,2,1,0} reshape(parameter.99)
  multiply.1976 = f32[1,1,1,512]{3,2,1,0} multiply(broadcast.1975, reshape.1974)
  reshape.1977 = f32[512]{0} reshape(multiply.1976)
  broadcast.1978 = f32[128,28,28,512]{3,2,1,0} broadcast(reshape.1977), dimensions={3}
  multiply.1979 = f32[128,28,28,512]{3,2,1,0} multiply(subtract.1963, broadcast.1978)
  parameter.98 = f32[512]{0} parameter(97)
  reshape.1980 = f32[1,1,1,512]{3,2,1,0} reshape(parameter.98)
  reshape.1981 = f32[512]{0} reshape(reshape.1980)
  broadcast.1982 = f32[128,28,28,512]{3,2,1,0} broadcast(reshape.1981), dimensions={3}
  add.1983 = f32[128,28,28,512]{3,2,1,0} add(multiply.1979, broadcast.1982)
  convert.1984 = bf16[128,28,28,512]{3,2,1,0} convert(add.1983)
  convert.1659 = f32[128,56,56,256]{3,2,1,0} convert(get-tuple-element.1653)
  parameter.191 = f32[1,56,56,256]{3,2,1,0} parameter(190)
  reshape.1660 = f32[56,56,256]{2,1,0} reshape(parameter.191)
  broadcast.1661 = f32[128,56,56,256]{3,2,1,0} broadcast(reshape.1660), dimensions={1,2,3}
  add.1662 = f32[128,56,56,256]{3,2,1,0} add(convert.1659, broadcast.1661)
  convert.1663 = bf16[128,56,56,256]{3,2,1,0} convert(add.1662)
  parameter.94 = f32[1,1,256,128]{3,2,1,0} parameter(93)
  convert.1664 = bf16[1,1,256,128]{3,2,1,0} convert(parameter.94)
  convolution.1665 = bf16[128,56,56,128]{3,2,1,0} convolution(convert.1663, convert.1664), window={size=1x1}, dim_labels=b01f_01io->b01f
  convert.1666 = f32[128,56,56,128]{3,2,1,0} convert(convolution.1665)
  constant.1667 = f32[] constant(0)
  reduce.1672 = f32[128]{0} reduce(convert.1666, constant.1667), dimensions={0,1,2}, to_apply=primitive_computation_add.1668
  constant.1673 = s32[] constant(401408)
  convert.1674 = f32[] convert(constant.1673)
  broadcast.1675 = f32[128]{0} broadcast(convert.1674), dimensions={}
  divide.1676 = f32[128]{0} divide(reduce.1672, broadcast.1675)
  reshape.1710 = f32[1,1,1,128]{3,2,1,0} reshape(divide.1676)
  reshape.1711 = f32[128]{0} reshape(reshape.1710)
  broadcast.1712 = f32[128,56,56,128]{3,2,1,0} broadcast(reshape.1711), dimensions={3}
  subtract.1713 = f32[128,56,56,128]{3,2,1,0} subtract(convert.1666, broadcast.1712)
  multiply.1677 = f32[128,56,56,128]{3,2,1,0} multiply(convert.1666, convert.1666)
  constant.1681 = f32[] constant(0)
  reduce.1686 = f32[128]{0} reduce(multiply.1677, constant.1681), dimensions={0,1,2}, to_apply=primitive_computation_add.1682
  constant.1687 = s32[] constant(401408)
  convert.1688 = f32[] convert(constant.1687)
  broadcast.1689 = f32[128]{0} broadcast(convert.1688), dimensions={}
  divide.1690 = f32[128]{0} divide(reduce.1686, broadcast.1689)
  multiply.1691 = f32[128]{0} multiply(divide.1676, divide.1676)
  subtract.1695 = f32[128]{0} subtract(divide.1690, multiply.1691)
  constant.1714 = f32[] constant(1e-05)
  broadcast.1715 = f32[128]{0} broadcast(constant.1714), dimensions={}
  add.1716 = f32[128]{0} add(subtract.1695, broadcast.1715)
  rsqrt.1717 = f32[128]{0} rsqrt(add.1716)
  broadcast.1725 = f32[1,1,1,128]{3,2,1,0} broadcast(rsqrt.1717), dimensions={3}
  parameter.89 = f32[128]{0} parameter(88)
  reshape.1724 = f32[1,1,1,128]{3,2,1,0} reshape(parameter.89)
  multiply.1726 = f32[1,1,1,128]{3,2,1,0} multiply(broadcast.1725, reshape.1724)
  reshape.1727 = f32[128]{0} reshape(multiply.1726)
  broadcast.1728 = f32[128,56,56,128]{3,2,1,0} broadcast(reshape.1727), dimensions={3}
  multiply.1729 = f32[128,56,56,128]{3,2,1,0} multiply(subtract.1713, broadcast.1728)
  parameter.88 = f32[128]{0} parameter(87)
  reshape.1730 = f32[1,1,1,128]{3,2,1,0} reshape(parameter.88)
  reshape.1731 = f32[128]{0} reshape(reshape.1730)
  broadcast.1732 = f32[128,56,56,128]{3,2,1,0} broadcast(reshape.1731), dimensions={3}
  add.1733 = f32[128,56,56,128]{3,2,1,0} add(multiply.1729, broadcast.1732)
  convert.1734 = bf16[128,56,56,128]{3,2,1,0} convert(add.1733)
  constant.1736 = bf16[] constant(0)
  broadcast.1737 = bf16[128,56,56,128]{3,2,1,0} broadcast(constant.1736), dimensions={}
  maximum.1738 = bf16[128,56,56,128]{3,2,1,0} maximum(convert.1734, broadcast.1737)
  tuple.1739 = (bf16[128,56,56,128]{3,2,1,0}) tuple(maximum.1738)
  get-tuple-element.1740 = bf16[128,56,56,128]{3,2,1,0} get-tuple-element(tuple.1739), index=0
  convert.1746 = f32[128,56,56,128]{3,2,1,0} convert(get-tuple-element.1740)
  parameter.192 = f32[1,56,56,128]{3,2,1,0} parameter(191)
  reshape.1747 = f32[56,56,128]{2,1,0} reshape(parameter.192)
  broadcast.1748 = f32[128,56,56,128]{3,2,1,0} broadcast(reshape.1747), dimensions={1,2,3}
  add.1749 = f32[128,56,56,128]{3,2,1,0} add(convert.1746, broadcast.1748)
  convert.1750 = bf16[128,56,56,128]{3,2,1,0} convert(add.1749)
  parameter.95 = f32[3,3,128,128]{3,2,1,0} parameter(94)
  convert.1751 = bf16[3,3,128,128]{3,2,1,0} convert(parameter.95)
  convolution.1752 = bf16[128,28,28,128]{3,2,1,0} convolution(convert.1750, convert.1751), window={size=3x3 stride=2x2 pad=0_1x0_1}, dim_labels=b01f_01io->b01f
  convert.1753 = f32[128,28,28,128]{3,2,1,0} convert(convolution.1752)
  constant.1754 = f32[] constant(0)
  reduce.1759 = f32[128]{0} reduce(convert.1753, constant.1754), dimensions={0,1,2}, to_apply=primitive_computation_add.1755
  constant.1760 = s32[] constant(100352)
  convert.1761 = f32[] convert(constant.1760)
  broadcast.1762 = f32[128]{0} broadcast(convert.1761), dimensions={}
  divide.1763 = f32[128]{0} divide(reduce.1759, broadcast.1762)
  reshape.1797 = f32[1,1,1,128]{3,2,1,0} reshape(divide.1763)
  reshape.1798 = f32[128]{0} reshape(reshape.1797)
  broadcast.1799 = f32[128,28,28,128]{3,2,1,0} broadcast(reshape.1798), dimensions={3}
  subtract.1800 = f32[128,28,28,128]{3,2,1,0} subtract(convert.1753, broadcast.1799)
  multiply.1764 = f32[128,28,28,128]{3,2,1,0} multiply(convert.1753, convert.1753)
  constant.1768 = f32[] constant(0)
  reduce.1773 = f32[128]{0} reduce(multiply.1764, constant.1768), dimensions={0,1,2}, to_apply=primitive_computation_add.1769
  constant.1774 = s32[] constant(100352)
  convert.1775 = f32[] convert(constant.1774)
  broadcast.1776 = f32[128]{0} broadcast(convert.1775), dimensions={}
  divide.1777 = f32[128]{0} divide(reduce.1773, broadcast.1776)
  multiply.1778 = f32[128]{0} multiply(divide.1763, divide.1763)
  subtract.1782 = f32[128]{0} subtract(divide.1777, multiply.1778)
  constant.1801 = f32[] constant(1e-05)
  broadcast.1802 = f32[128]{0} broadcast(constant.1801), dimensions={}
  add.1803 = f32[128]{0} add(subtract.1782, broadcast.1802)
  rsqrt.1804 = f32[128]{0} rsqrt(add.1803)
  broadcast.1812 = f32[1,1,1,128]{3,2,1,0} broadcast(rsqrt.1804), dimensions={3}
  parameter.91 = f32[128]{0} parameter(90)
  reshape.1811 = f32[1,1,1,128]{3,2,1,0} reshape(parameter.91)
  multiply.1813 = f32[1,1,1,128]{3,2,1,0} multiply(broadcast.1812, reshape.1811)
  reshape.1814 = f32[128]{0} reshape(multiply.1813)
  broadcast.1815 = f32[128,28,28,128]{3,2,1,0} broadcast(reshape.1814), dimensions={3}
  multiply.1816 = f32[128,28,28,128]{3,2,1,0} multiply(subtract.1800, broadcast.1815)
  parameter.90 = f32[128]{0} parameter(89)
  reshape.1817 = f32[1,1,1,128]{3,2,1,0} reshape(parameter.90)
  reshape.1818 = f32[128]{0} reshape(reshape.1817)
  broadcast.1819 = f32[128,28,28,128]{3,2,1,0} broadcast(reshape.1818), dimensions={3}
  add.1820 = f32[128,28,28,128]{3,2,1,0} add(multiply.1816, broadcast.1819)
  convert.1821 = bf16[128,28,28,128]{3,2,1,0} convert(add.1820)
  constant.1823 = bf16[] constant(0)
  broadcast.1824 = bf16[128,28,28,128]{3,2,1,0} broadcast(constant.1823), dimensions={}
  maximum.1825 = bf16[128,28,28,128]{3,2,1,0} maximum(convert.1821, broadcast.1824)
  tuple.1826 = (bf16[128,28,28,128]{3,2,1,0}) tuple(maximum.1825)
  get-tuple-element.1827 = bf16[128,28,28,128]{3,2,1,0} get-tuple-element(tuple.1826), index=0
  convert.1833 = f32[128,28,28,128]{3,2,1,0} convert(get-tuple-element.1827)
  parameter.193 = f32[1,28,28,128]{3,2,1,0} parameter(192)
  reshape.1834 = f32[28,28,128]{2,1,0} reshape(parameter.193)
  broadcast.1835 = f32[128,28,28,128]{3,2,1,0} broadcast(reshape.1834), dimensions={1,2,3}
  add.1836 = f32[128,28,28,128]{3,2,1,0} add(convert.1833, broadcast.1835)
  convert.1837 = bf16[128,28,28,128]{3,2,1,0} convert(add.1836)
  parameter.96 = f32[1,1,128,512]{3,2,1,0} parameter(95)
  convert.1838 = bf16[1,1,128,512]{3,2,1,0} convert(parameter.96)
  convolution.1839 = bf16[128,28,28,512]{3,2,1,0} convolution(convert.1837, convert.1838), window={size=1x1}, dim_labels=b01f_01io->b01f
  convert.1840 = f32[128,28,28,512]{3,2,1,0} convert(convolution.1839)
  constant.1841 = f32[] constant(0)
  reduce.1846 = f32[512]{0} reduce(convert.1840, constant.1841), dimensions={0,1,2}, to_apply=primitive_computation_add.1842
  constant.1847 = s32[] constant(100352)
  convert.1848 = f32[] convert(constant.1847)
  broadcast.1849 = f32[512]{0} broadcast(convert.1848), dimensions={}
  divide.1850 = f32[512]{0} divide(reduce.1846, broadcast.1849)
  reshape.1884 = f32[1,1,1,512]{3,2,1,0} reshape(divide.1850)
  reshape.1885 = f32[512]{0} reshape(reshape.1884)
  broadcast.1886 = f32[128,28,28,512]{3,2,1,0} broadcast(reshape.1885), dimensions={3}
  subtract.1887 = f32[128,28,28,512]{3,2,1,0} subtract(convert.1840, broadcast.1886)
  multiply.1851 = f32[128,28,28,512]{3,2,1,0} multiply(convert.1840, convert.1840)
  constant.1855 = f32[] constant(0)
  reduce.1860 = f32[512]{0} reduce(multiply.1851, constant.1855), dimensions={0,1,2}, to_apply=primitive_computation_add.1856
  constant.1861 = s32[] constant(100352)
  convert.1862 = f32[] convert(constant.1861)
  broadcast.1863 = f32[512]{0} broadcast(convert.1862), dimensions={}
  divide.1864 = f32[512]{0} divide(reduce.1860, broadcast.1863)
  multiply.1865 = f32[512]{0} multiply(divide.1850, divide.1850)
  subtract.1869 = f32[512]{0} subtract(divide.1864, multiply.1865)
  constant.1888 = f32[] constant(1e-05)
  broadcast.1889 = f32[512]{0} broadcast(constant.1888), dimensions={}
  add.1890 = f32[512]{0} add(subtract.1869, broadcast.1889)
  rsqrt.1891 = f32[512]{0} rsqrt(add.1890)
  broadcast.1899 = f32[1,1,1,512]{3,2,1,0} broadcast(rsqrt.1891), dimensions={3}
  parameter.93 = f32[512]{0} parameter(92)
  reshape.1898 = f32[1,1,1,512]{3,2,1,0} reshape(parameter.93)
  multiply.1900 = f32[1,1,1,512]{3,2,1,0} multiply(broadcast.1899, reshape.1898)
  reshape.1901 = f32[512]{0} reshape(multiply.1900)
  broadcast.1902 = f32[128,28,28,512]{3,2,1,0} broadcast(reshape.1901), dimensions={3}
  multiply.1903 = f32[128,28,28,512]{3,2,1,0} multiply(subtract.1887, broadcast.1902)
  parameter.92 = f32[512]{0} parameter(91)
  reshape.1904 = f32[1,1,1,512]{3,2,1,0} reshape(parameter.92)
  reshape.1905 = f32[512]{0} reshape(reshape.1904)
  broadcast.1906 = f32[128,28,28,512]{3,2,1,0} broadcast(reshape.1905), dimensions={3}
  add.1907 = f32[128,28,28,512]{3,2,1,0} add(multiply.1903, broadcast.1906)
  convert.1908 = bf16[128,28,28,512]{3,2,1,0} convert(add.1907)
  add.1985 = bf16[128,28,28,512]{3,2,1,0} add(convert.1984, convert.1908)
  constant.1987 = bf16[] constant(0)
  broadcast.1988 = bf16[128,28,28,512]{3,2,1,0} broadcast(constant.1987), dimensions={}
  maximum.1989 = bf16[128,28,28,512]{3,2,1,0} maximum(add.1985, broadcast.1988)
  tuple.1990 = (bf16[128,28,28,512]{3,2,1,0}) tuple(maximum.1989)
  get-tuple-element.1991 = bf16[128,28,28,512]{3,2,1,0} get-tuple-element(tuple.1990), index=0
  convert.1997 = f32[128,28,28,512]{3,2,1,0} convert(get-tuple-element.1991)
  parameter.195 = f32[1,28,28,512]{3,2,1,0} parameter(194)
  reshape.1998 = f32[28,28,512]{2,1,0} reshape(parameter.195)
  broadcast.1999 = f32[128,28,28,512]{3,2,1,0} broadcast(reshape.1998), dimensions={1,2,3}
  add.2000 = f32[128,28,28,512]{3,2,1,0} add(convert.1997, broadcast.1999)
  convert.2001 = bf16[128,28,28,512]{3,2,1,0} convert(add.2000)
  parameter.106 = f32[1,1,512,128]{3,2,1,0} parameter(105)
  convert.2002 = bf16[1,1,512,128]{3,2,1,0} convert(parameter.106)
  convolution.2003 = bf16[128,28,28,128]{3,2,1,0} convolution(convert.2001, convert.2002), window={size=1x1}, dim_labels=b01f_01io->b01f
  convert.2004 = f32[128,28,28,128]{3,2,1,0} convert(convolution.2003)
  constant.2005 = f32[] constant(0)
  reduce.2010 = f32[128]{0} reduce(convert.2004, constant.2005), dimensions={0,1,2}, to_apply=primitive_computation_add.2006
  constant.2011 = s32[] constant(100352)
  convert.2012 = f32[] convert(constant.2011)
  broadcast.2013 = f32[128]{0} broadcast(convert.2012), dimensions={}
  divide.2014 = f32[128]{0} divide(reduce.2010, broadcast.2013)
  reshape.2048 = f32[1,1,1,128]{3,2,1,0} reshape(divide.2014)
  reshape.2049 = f32[128]{0} reshape(reshape.2048)
  broadcast.2050 = f32[128,28,28,128]{3,2,1,0} broadcast(reshape.2049), dimensions={3}
  subtract.2051 = f32[128,28,28,128]{3,2,1,0} subtract(convert.2004, broadcast.2050)
  multiply.2015 = f32[128,28,28,128]{3,2,1,0} multiply(convert.2004, convert.2004)
  constant.2019 = f32[] constant(0)
  reduce.2024 = f32[128]{0} reduce(multiply.2015, constant.2019), dimensions={0,1,2}, to_apply=primitive_computation_add.2020
  constant.2025 = s32[] constant(100352)
  convert.2026 = f32[] convert(constant.2025)
  broadcast.2027 = f32[128]{0} broadcast(convert.2026), dimensions={}
  divide.2028 = f32[128]{0} divide(reduce.2024, broadcast.2027)
  multiply.2029 = f32[128]{0} multiply(divide.2014, divide.2014)
  subtract.2033 = f32[128]{0} subtract(divide.2028, multiply.2029)
  constant.2052 = f32[] constant(1e-05)
  broadcast.2053 = f32[128]{0} broadcast(constant.2052), dimensions={}
  add.2054 = f32[128]{0} add(subtract.2033, broadcast.2053)
  rsqrt.2055 = f32[128]{0} rsqrt(add.2054)
  broadcast.2063 = f32[1,1,1,128]{3,2,1,0} broadcast(rsqrt.2055), dimensions={3}
  parameter.101 = f32[128]{0} parameter(100)
  reshape.2062 = f32[1,1,1,128]{3,2,1,0} reshape(parameter.101)
  multiply.2064 = f32[1,1,1,128]{3,2,1,0} multiply(broadcast.2063, reshape.2062)
  reshape.2065 = f32[128]{0} reshape(multiply.2064)
  broadcast.2066 = f32[128,28,28,128]{3,2,1,0} broadcast(reshape.2065), dimensions={3}
  multiply.2067 = f32[128,28,28,128]{3,2,1,0} multiply(subtract.2051, broadcast.2066)
  parameter.100 = f32[128]{0} parameter(99)
  reshape.2068 = f32[1,1,1,128]{3,2,1,0} reshape(parameter.100)
  reshape.2069 = f32[128]{0} reshape(reshape.2068)
  broadcast.2070 = f32[128,28,28,128]{3,2,1,0} broadcast(reshape.2069), dimensions={3}
  add.2071 = f32[128,28,28,128]{3,2,1,0} add(multiply.2067, broadcast.2070)
  convert.2072 = bf16[128,28,28,128]{3,2,1,0} convert(add.2071)
  constant.2074 = bf16[] constant(0)
  broadcast.2075 = bf16[128,28,28,128]{3,2,1,0} broadcast(constant.2074), dimensions={}
  maximum.2076 = bf16[128,28,28,128]{3,2,1,0} maximum(convert.2072, broadcast.2075)
  tuple.2077 = (bf16[128,28,28,128]{3,2,1,0}) tuple(maximum.2076)
  get-tuple-element.2078 = bf16[128,28,28,128]{3,2,1,0} get-tuple-element(tuple.2077), index=0
  convert.2084 = f32[128,28,28,128]{3,2,1,0} convert(get-tuple-element.2078)
  parameter.196 = f32[1,28,28,128]{3,2,1,0} parameter(195)
  reshape.2085 = f32[28,28,128]{2,1,0} reshape(parameter.196)
  broadcast.2086 = f32[128,28,28,128]{3,2,1,0} broadcast(reshape.2085), dimensions={1,2,3}
  add.2087 = f32[128,28,28,128]{3,2,1,0} add(convert.2084, broadcast.2086)
  convert.2088 = bf16[128,28,28,128]{3,2,1,0} convert(add.2087)
  parameter.107 = f32[3,3,128,128]{3,2,1,0} parameter(106)
  convert.2089 = bf16[3,3,128,128]{3,2,1,0} convert(parameter.107)
  convolution.2090 = bf16[128,28,28,128]{3,2,1,0} convolution(convert.2088, convert.2089), window={size=3x3 pad=1_1x1_1}, dim_labels=b01f_01io->b01f
  convert.2091 = f32[128,28,28,128]{3,2,1,0} convert(convolution.2090)
  constant.2092 = f32[] constant(0)
  reduce.2097 = f32[128]{0} reduce(convert.2091, constant.2092), dimensions={0,1,2}, to_apply=primitive_computation_add.2093
  constant.2098 = s32[] constant(100352)
  convert.2099 = f32[] convert(constant.2098)
  broadcast.2100 = f32[128]{0} broadcast(convert.2099), dimensions={}
  divide.2101 = f32[128]{0} divide(reduce.2097, broadcast.2100)
  reshape.2135 = f32[1,1,1,128]{3,2,1,0} reshape(divide.2101)
  reshape.2136 = f32[128]{0} reshape(reshape.2135)
  broadcast.2137 = f32[128,28,28,128]{3,2,1,0} broadcast(reshape.2136), dimensions={3}
…
  broadcast.5579 = f32[1,1,2048,512]{3,2,1,0} broadcast(constant.5578), dimensions={}
  multiply.5580 = f32[1,1,2048,512]{3,2,1,0} multiply(broadcast.5579, parameter.67)
  multiply.6045 = f32[1,1,2048,512]{3,2,1,0} multiply(broadcast.6044, multiply.5580)
  convolution.6531 = bf16[1,1,2048,512]{3,2,1,0} convolution(convert.4773, convert.6530), window={size=7x7}, dim_labels=f01b_i01o->01bf
  convert.6532 = f32[1,1,2048,512]{3,2,1,0} convert(convolution.6531)
  add.6533 = f32[1,1,2048,512]{3,2,1,0} add(multiply.6045, convert.6532)
  broadcast.6042 = f32[3,3,512,512]{3,2,1,0} broadcast(multiply.5977), dimensions={}
  constant.5588 = f32[] constant(2)
  broadcast.5589 = f32[3,3,512,512]{3,2,1,0} broadcast(constant.5588), dimensions={}
  multiply.5590 = f32[3,3,512,512]{3,2,1,0} multiply(broadcast.5589, parameter.68)
  multiply.6043 = f32[3,3,512,512]{3,2,1,0} multiply(broadcast.6042, multiply.5590)
  convolution.6465 = bf16[3,3,512,512]{3,2,1,0} convolution(convert.4860, convert.6464), window={size=7x7 pad=1_1x1_1}, dim_labels=f01b_i01o->01bf
  convert.6466 = f32[3,3,512,512]{3,2,1,0} convert(convolution.6465)
  add.6467 = f32[3,3,512,512]{3,2,1,0} add(multiply.6043, convert.6466)
  broadcast.6040 = f32[1,1,512,2048]{3,2,1,0} broadcast(multiply.5977), dimensions={}
  constant.5598 = f32[] constant(2)
  broadcast.5599 = f32[1,1,512,2048]{3,2,1,0} broadcast(constant.5598), dimensions={}
  multiply.5600 = f32[1,1,512,2048]{3,2,1,0} multiply(broadcast.5599, parameter.69)
  multiply.6041 = f32[1,1,512,2048]{3,2,1,0} multiply(broadcast.6040, multiply.5600)
  convolution.6399 = bf16[1,1,512,2048]{3,2,1,0} convolution(convert.4947, convert.6398), window={size=7x7}, dim_labels=f01b_i01o->01bf
  convert.6400 = f32[1,1,512,2048]{3,2,1,0} convert(convolution.6399)
  add.6401 = f32[1,1,512,2048]{3,2,1,0} add(multiply.6041, convert.6400)
  constant.6277 = f32[] constant(0)
  reduce.6282 = f32[512]{0} reduce(convert.6276, constant.6277), dimensions={0,1,2}, to_apply=primitive_computation_add.6278
  broadcast.6283 = f32[512]{0} broadcast(reduce.6282), dimensions={0}
  broadcast.6284 = f32[1,1,1,512]{3,2,1,0} broadcast(broadcast.6283), dimensions={3}
  reshape.6285 = f32[512]{0} reshape(broadcast.6284)
  multiply.6295 = f32[1,1,1,512]{3,2,1,0} multiply(broadcast.6294, broadcast.5097)
  reshape.6296 = f32[512]{0} reshape(multiply.6295)
  constant.6211 = f32[] constant(0)
  reduce.6216 = f32[512]{0} reduce(convert.6210, constant.6211), dimensions={0,1,2}, to_apply=primitive_computation_add.6212
  broadcast.6217 = f32[512]{0} broadcast(reduce.6216), dimensions={0}
  broadcast.6218 = f32[1,1,1,512]{3,2,1,0} broadcast(broadcast.6217), dimensions={3}
  reshape.6219 = f32[512]{0} reshape(broadcast.6218)
  multiply.6229 = f32[1,1,1,512]{3,2,1,0} multiply(broadcast.6228, broadcast.5184)
  reshape.6230 = f32[512]{0} reshape(multiply.6229)
  constant.6145 = f32[] constant(0)
  reduce.6150 = f32[2048]{0} reduce(convert.6144, constant.6145), dimensions={0,1,2}, to_apply=primitive_computation_add.6146
  broadcast.6151 = f32[2048]{0} broadcast(reduce.6150), dimensions={0}
  broadcast.6152 = f32[1,1,1,2048]{3,2,1,0} broadcast(broadcast.6151), dimensions={3}
  reshape.6153 = f32[2048]{0} reshape(broadcast.6152)
  multiply.6163 = f32[1,1,1,2048]{3,2,1,0} multiply(broadcast.6162, broadcast.5271)
  reshape.6164 = f32[2048]{0} reshape(multiply.6163)
  broadcast.6038 = f32[1,1,2048,512]{3,2,1,0} broadcast(multiply.5977), dimensions={}
  constant.5608 = f32[] constant(2)
  broadcast.5609 = f32[1,1,2048,512]{3,2,1,0} broadcast(constant.5608), dimensions={}
  multiply.5610 = f32[1,1,2048,512]{3,2,1,0} multiply(broadcast.5609, parameter.76)
  multiply.6039 = f32[1,1,2048,512]{3,2,1,0} multiply(broadcast.6038, multiply.5610)
  convolution.6332 = bf16[1,1,2048,512]{3,2,1,0} convolution(convert.5035, convert.6331), window={size=7x7}, dim_labels=f01b_i01o->01bf
  convert.6333 = f32[1,1,2048,512]{3,2,1,0} convert(convolution.6332)
  add.6334 = f32[1,1,2048,512]{3,2,1,0} add(multiply.6039, convert.6333)
  broadcast.6036 = f32[3,3,512,512]{3,2,1,0} broadcast(multiply.5977), dimensions={}
  constant.5618 = f32[] constant(2)
  broadcast.5619 = f32[3,3,512,512]{3,2,1,0} broadcast(constant.5618), dimensions={}
  multiply.5620 = f32[3,3,512,512]{3,2,1,0} multiply(broadcast.5619, parameter.77)
  multiply.6037 = f32[3,3,512,512]{3,2,1,0} multiply(broadcast.6036, multiply.5620)
  convolution.6266 = bf16[3,3,512,512]{3,2,1,0} convolution(convert.5122, convert.6265), window={size=7x7 pad=1_1x1_1}, dim_labels=f01b_i01o->01bf
  convert.6267 = f32[3,3,512,512]{3,2,1,0} convert(convolution.6266)
  add.6268 = f32[3,3,512,512]{3,2,1,0} add(multiply.6037, convert.6267)
  broadcast.6034 = f32[1,1,512,2048]{3,2,1,0} broadcast(multiply.5977), dimensions={}
  constant.5628 = f32[] constant(2)
  broadcast.5629 = f32[1,1,512,2048]{3,2,1,0} broadcast(constant.5628), dimensions={}
  multiply.5630 = f32[1,1,512,2048]{3,2,1,0} multiply(broadcast.5629, parameter.78)
  multiply.6035 = f32[1,1,512,2048]{3,2,1,0} multiply(broadcast.6034, multiply.5630)
  convolution.6200 = bf16[1,1,512,2048]{3,2,1,0} convolution(convert.5209, convert.6199), window={size=7x7}, dim_labels=f01b_i01o->01bf
  convert.6201 = f32[1,1,512,2048]{3,2,1,0} convert(convolution.6200)
  add.6202 = f32[1,1,512,2048]{3,2,1,0} add(multiply.6035, convert.6201)
  constant.9053 = f32[] constant(0)
  reduce.9058 = f32[64]{0} reduce(convert.9052, constant.9053), dimensions={0,1,2}, to_apply=primitive_computation_add.9054
  broadcast.9059 = f32[64]{0} broadcast(reduce.9058), dimensions={0}
  broadcast.9060 = f32[1,1,1,64]{3,2,1,0} broadcast(broadcast.9059), dimensions={3}
  reshape.9061 = f32[64]{0} reshape(broadcast.9060)
  multiply.9071 = f32[1,1,1,64]{3,2,1,0} multiply(broadcast.9070, broadcast.1463)
  reshape.9072 = f32[64]{0} reshape(multiply.9071)
  constant.8987 = f32[] constant(0)
  reduce.8992 = f32[64]{0} reduce(convert.8986, constant.8987), dimensions={0,1,2}, to_apply=primitive_computation_add.8988
  broadcast.8993 = f32[64]{0} broadcast(reduce.8992), dimensions={0}
  broadcast.8994 = f32[1,1,1,64]{3,2,1,0} broadcast(broadcast.8993), dimensions={3}
  reshape.8995 = f32[64]{0} reshape(broadcast.8994)
  multiply.9005 = f32[1,1,1,64]{3,2,1,0} multiply(broadcast.9004, broadcast.1550)
  reshape.9006 = f32[64]{0} reshape(multiply.9005)
  constant.8921 = f32[] constant(0)
  reduce.8926 = f32[256]{0} reduce(convert.8920, constant.8921), dimensions={0,1,2}, to_apply=primitive_computation_add.8922
  broadcast.8927 = f32[256]{0} broadcast(reduce.8926), dimensions={0}
  broadcast.8928 = f32[1,1,1,256]{3,2,1,0} broadcast(broadcast.8927), dimensions={3}
  reshape.8929 = f32[256]{0} reshape(broadcast.8928)
  multiply.8939 = f32[1,1,1,256]{3,2,1,0} multiply(broadcast.8938, broadcast.1637)
  reshape.8940 = f32[256]{0} reshape(multiply.8939)
  broadcast.6032 = f32[1,1,256,64]{3,2,1,0} broadcast(multiply.5977), dimensions={}
  constant.5638 = f32[] constant(2)
  broadcast.5639 = f32[1,1,256,64]{3,2,1,0} broadcast(constant.5638), dimensions={}
  multiply.5640 = f32[1,1,256,64]{3,2,1,0} multiply(broadcast.5639, parameter.85)
  multiply.6033 = f32[1,1,256,64]{3,2,1,0} multiply(broadcast.6032, multiply.5640)
  convolution.9108 = bf16[1,1,256,64]{3,2,1,0} convolution(convert.1401, convert.9107), window={size=56x56}, dim_labels=f01b_i01o->01bf
  convert.9109 = f32[1,1,256,64]{3,2,1,0} convert(convolution.9108)
  add.9110 = f32[1,1,256,64]{3,2,1,0} add(multiply.6033, convert.9109)
  broadcast.6030 = f32[3,3,64,64]{3,2,1,0} broadcast(multiply.5977), dimensions={}
  constant.5648 = f32[] constant(2)
  broadcast.5649 = f32[3,3,64,64]{3,2,1,0} broadcast(constant.5648), dimensions={}
  multiply.5650 = f32[3,3,64,64]{3,2,1,0} multiply(broadcast.5649, parameter.86)
  multiply.6031 = f32[3,3,64,64]{3,2,1,0} multiply(broadcast.6030, multiply.5650)
  convolution.9042 = bf16[3,3,64,64]{3,2,1,0} convolution(convert.1488, convert.9041), window={size=56x56 pad=1_1x1_1}, dim_labels=f01b_i01o->01bf
  convert.9043 = f32[3,3,64,64]{3,2,1,0} convert(convolution.9042)
  add.9044 = f32[3,3,64,64]{3,2,1,0} add(multiply.6031, convert.9043)
  broadcast.6028 = f32[1,1,64,256]{3,2,1,0} broadcast(multiply.5977), dimensions={}
  constant.5658 = f32[] constant(2)
  broadcast.5659 = f32[1,1,64,256]{3,2,1,0} broadcast(constant.5658), dimensions={}
  multiply.5660 = f32[1,1,64,256]{3,2,1,0} multiply(broadcast.5659, parameter.87)
  multiply.6029 = f32[1,1,64,256]{3,2,1,0} multiply(broadcast.6028, multiply.5660)
  convolution.8976 = bf16[1,1,64,256]{3,2,1,0} convolution(convert.1575, convert.8975), window={size=56x56}, dim_labels=f01b_i01o->01bf
  convert.8977 = f32[1,1,64,256]{3,2,1,0} convert(convolution.8976)
  add.8978 = f32[1,1,64,256]{3,2,1,0} add(multiply.6029, convert.8977)
  constant.8791 = f32[] constant(0)
  reduce.8796 = f32[128]{0} reduce(convert.8790, constant.8791), dimensions={0,1,2}, to_apply=primitive_computation_add.8792
  broadcast.8797 = f32[128]{0} broadcast(reduce.8796), dimensions={0}
  broadcast.8798 = f32[1,1,1,128]{3,2,1,0} broadcast(broadcast.8797), dimensions={3}
  reshape.8799 = f32[128]{0} reshape(broadcast.8798)
  multiply.8809 = f32[1,1,1,128]{3,2,1,0} multiply(broadcast.8808, broadcast.1725)
  reshape.8810 = f32[128]{0} reshape(multiply.8809)
  constant.8725 = f32[] constant(0)
  reduce.8730 = f32[128]{0} reduce(convert.8724, constant.8725), dimensions={0,1,2}, to_apply=primitive_computation_add.8726
  broadcast.8731 = f32[128]{0} broadcast(reduce.8730), dimensions={0}
  broadcast.8732 = f32[1,1,1,128]{3,2,1,0} broadcast(broadcast.8731), dimensions={3}
  reshape.8733 = f32[128]{0} reshape(broadcast.8732)
  multiply.8743 = f32[1,1,1,128]{3,2,1,0} multiply(broadcast.8742, broadcast.1812)
  reshape.8744 = f32[128]{0} reshape(multiply.8743)
  constant.8659 = f32[] constant(0)
  reduce.8664 = f32[512]{0} reduce(convert.8658, constant.8659), dimensions={0,1,2}, to_apply=primitive_computation_add.8660
  broadcast.8665 = f32[512]{0} broadcast(reduce.8664), dimensions={0}
  broadcast.8666 = f32[1,1,1,512]{3,2,1,0} broadcast(broadcast.8665), dimensions={3}
  reshape.8667 = f32[512]{0} reshape(broadcast.8666)
  multiply.8677 = f32[1,1,1,512]{3,2,1,0} multiply(broadcast.8676, broadcast.1899)
  reshape.8678 = f32[512]{0} reshape(multiply.8677)
  broadcast.6026 = f32[1,1,256,128]{3,2,1,0} broadcast(multiply.5977), dimensions={}
  constant.5668 = f32[] constant(2)
  broadcast.5669 = f32[1,1,256,128]{3,2,1,0} broadcast(constant.5668), dimensions={}
  multiply.5670 = f32[1,1,256,128]{3,2,1,0} multiply(broadcast.5669, parameter.94)
  multiply.6027 = f32[1,1,256,128]{3,2,1,0} multiply(broadcast.6026, multiply.5670)
  convolution.8846 = bf16[1,1,256,128]{3,2,1,0} convolution(convert.1663, convert.8845), window={size=56x56}, dim_labels=f01b_i01o->01bf
  convert.8847 = f32[1,1,256,128]{3,2,1,0} convert(convolution.8846)
  add.8848 = f32[1,1,256,128]{3,2,1,0} add(multiply.6027, convert.8847)
  broadcast.6024 = f32[3,3,128,128]{3,2,1,0} broadcast(multiply.5977), dimensions={}
  constant.5678 = f32[] constant(2)
  broadcast.5679 = f32[3,3,128,128]{3,2,1,0} broadcast(constant.5678), dimensions={}
  multiply.5680 = f32[3,3,128,128]{3,2,1,0} multiply(broadcast.5679, parameter.95)
  multiply.6025 = f32[3,3,128,128]{3,2,1,0} multiply(broadcast.6024, multiply.5680)
  convolution.8780 = bf16[3,3,128,128]{3,2,1,0} convolution(convert.1750, convert.8779), window={size=28x28 pad=0_1x0_1 rhs_dilate=2x2}, dim_labels=f01b_i01o->01bf
  convert.8781 = f32[3,3,128,128]{3,2,1,0} convert(convolution.8780)
  add.8782 = f32[3,3,128,128]{3,2,1,0} add(multiply.6025, convert.8781)
  broadcast.6022 = f32[1,1,128,512]{3,2,1,0} broadcast(multiply.5977), dimensions={}
  constant.5688 = f32[] constant(2)
  broadcast.5689 = f32[1,1,128,512]{3,2,1,0} broadcast(constant.5688), dimensions={}
  multiply.5690 = f32[1,1,128,512]{3,2,1,0} multiply(broadcast.5689, parameter.96)
  multiply.6023 = f32[1,1,128,512]{3,2,1,0} multiply(broadcast.6022, multiply.5690)
  convolution.8714 = bf16[1,1,128,512]{3,2,1,0} convolution(convert.1837, convert.8713), window={size=28x28}, dim_labels=f01b_i01o->01bf
  convert.8715 = f32[1,1,128,512]{3,2,1,0} convert(convolution.8714)
  add.8716 = f32[1,1,128,512]{3,2,1,0} add(multiply.6023, convert.8715)
  broadcast.6020 = f32[1,1,256,512]{3,2,1,0} broadcast(multiply.5977), dimensions={}
  constant.5698 = f32[] constant(2)
  broadcast.5699 = f32[1,1,256,512]{3,2,1,0} broadcast(constant.5698), dimensions={}
  multiply.5700 = f32[1,1,256,512]{3,2,1,0} multiply(broadcast.5699, parameter.97)
  multiply.6021 = f32[1,1,256,512]{3,2,1,0} multiply(broadcast.6020, multiply.5700)
  convolution.8909 = bf16[1,1,256,512]{3,2,1,0} convolution(convert.1913, convert.8908), window={size=28x28 pad=0_-1x0_-1 rhs_dilate=2x2}, dim_labels=f01b_i01o->01bf
  convert.8910 = f32[1,1,256,512]{3,2,1,0} convert(convolution.8909)
  add.8911 = f32[1,1,256,512]{3,2,1,0} add(multiply.6021, convert.8910)
  constant.8854 = f32[] constant(0)
  reduce.8859 = f32[512]{0} reduce(convert.8853, constant.8854), dimensions={0,1,2}, to_apply=primitive_computation_add.8855
  broadcast.8860 = f32[512]{0} broadcast(reduce.8859), dimensions={0}
  broadcast.8861 = f32[1,1,1,512]{3,2,1,0} broadcast(broadcast.8860), dimensions={3}
  reshape.8862 = f32[512]{0} reshape(broadcast.8861)
  multiply.8872 = f32[1,1,1,512]{3,2,1,0} multiply(broadcast.8871, broadcast.1975)
  reshape.8873 = f32[512]{0} reshape(multiply.8872)
  constant.8592 = f32[] constant(0)
  reduce.8597 = f32[128]{0} reduce(convert.8591, constant.8592), dimensions={0,1,2}, to_apply=primitive_computation_add.8593
  broadcast.8598 = f32[128]{0} broadcast(reduce.8597), dimensions={0}
  broadcast.8599 = f32[1,1,1,128]{3,2,1,0} broadcast(broadcast.8598), dimensions={3}
  reshape.8600 = f32[128]{0} reshape(broadcast.8599)
  multiply.8610 = f32[1,1,1,128]{3,2,1,0} multiply(broadcast.8609, broadcast.2063)
  reshape.8611 = f32[128]{0} reshape(multiply.8610)
  constant.8526 = f32[] constant(0)
  reduce.8531 = f32[128]{0} reduce(convert.8525, constant.8526), dimensions={0,1,2}, to_apply=primitive_computation_add.8527
  broadcast.8532 = f32[128]{0} broadcast(reduce.8531), dimensions={0}
  broadcast.8533 = f32[1,1,1,128]{3,2,1,0} broadcast(broadcast.8532), dimensions={3}
  reshape.8534 = f32[128]{0} reshape(broadcast.8533)
  multiply.8544 = f32[1,1,1,128]{3,2,1,0} multiply(broadcast.8543, broadcast.2150)
  reshape.8545 = f32[128]{0} reshape(multiply.8544)
  constant.8460 = f32[] constant(0)
  reduce.8465 = f32[512]{0} reduce(convert.8459, constant.8460), dimensions={0,1,2}, to_apply=primitive_computation_add.8461
  broadcast.8466 = f32[512]{0} broadcast(reduce.8465), dimensions={0}
  broadcast.8467 = f32[1,1,1,512]{3,2,1,0} broadcast(broadcast.8466), dimensions={3}
  reshape.8468 = f32[512]{0} reshape(broadcast.8467)
  multiply.8478 = f32[1,1,1,512]{3,2,1,0} multiply(broadcast.8477, broadcast.2237)
  reshape.8479 = f32[512]{0} reshape(multiply.8478)
  broadcast.6018 = f32[1,1,512,128]{3,2,1,0} broadcast(multiply.5977), dimensions={}
  constant.5708 = f32[] constant(2)
  broadcast.5709 = f32[1,1,512,128]{3,2,1,0} broadcast(constant.5708), dimensions={}
  multiply.5710 = f32[1,1,512,128]{3,2,1,0} multiply(broadcast.5709, parameter.106)
  multiply.6019 = f32[1,1,512,128]{3,2,1,0} multiply(broadcast.6018, multiply.5710)
  convolution.8647 = bf16[1,1,512,128]{3,2,1,0} convolution(convert.2001, convert.8646), window={size=28x28}, dim_labels=f01b_i01o->01bf
  convert.8648 = f32[1,1,512,128]{3,2,1,0} convert(convolution.8647)
  add.8649 = f32[1,1,512,128]{3,2,1,0} add(multiply.6019, convert.8648)
  broadcast.6016 = f32[3,3,128,128]{3,2,1,0} broadcast(multiply.5977), dimensions={}
  constant.5718 = f32[] constant(2)
  broadcast.5719 = f32[3,3,128,128]{3,2,1,0} broadcast(constant.5718), dimensions={}
  multiply.5720 = f32[3,3,128,128]{3,2,1,0} multiply(broadcast.5719, parameter.107)
  multiply.6017 = f32[3,3,128,128]{3,2,1,0} multiply(broadcast.6016, multiply.5720)
  convolution.8581 = bf16[3,3,128,128]{3,2,1,0} convolution(convert.2088, convert.8580), window={size=28x28 pad=1_1x1_1}, dim_labels=f01b_i01o->01bf
  convert.8582 = f32[3,3,128,128]{3,2,1,0} convert(convolution.8581)
  add.8583 = f32[3,3,128,128]{3,2,1,0} add(multiply.6017, convert.8582)
  broadcast.6014 = f32[1,1,128,512]{3,2,1,0} broadcast(multiply.5977), dimensions={}
  constant.5728 = f32[] constant(2)
  broadcast.5729 = f32[1,1,128,512]{3,2,1,0} broadcast(constant.5728), dimensions={}
  multiply.5730 = f32[1,1,128,512]{3,2,1,0} multiply(broadcast.5729, parameter.108)
  multiply.6015 = f32[1,1,128,512]{3,2,1,0} multiply(broadcast.6014, multiply.5730)
  convolution.8515 = bf16[1,1,128,512]{3,2,1,0} convolution(convert.2175, convert.8514), window={size=28x28}, dim_labels=f01b_i01o->01bf
  convert.8516 = f32[1,1,128,512]{3,2,1,0} convert(convolution.8515)
  add.8517 = f32[1,1,128,512]{3,2,1,0} add(multiply.6015, convert.8516)
  constant.8393 = f32[] constant(0)
  reduce.8398 = f32[128]{0} reduce(convert.8392, constant.8393), dimensions={0,1,2}, to_apply=primitive_computation_add.8394
  broadcast.8399 = f32[128]{0} broadcast(reduce.8398), dimensions={0}
  broadcast.8400 = f32[1,1,1,128]{3,2,1,0} broadcast(broadcast.8399), dimensions={3}
  reshape.8401 = f32[128]{0} reshape(broadcast.8400)
  multiply.8411 = f32[1,1,1,128]{3,2,1,0} multiply(broadcast.8410, broadcast.2325)
  reshape.8412 = f32[128]{0} reshape(multiply.8411)
  constant.8327 = f32[] constant(0)
  reduce.8332 = f32[128]{0} reduce(convert.8326, constant.8327), dimensions={0,1,2}, to_apply=primitive_computation_add.8328
  broadcast.8333 = f32[128]{0} broadcast(reduce.8332), dimensions={0}
  broadcast.8334 = f32[1,1,1,128]{3,2,1,0} broadcast(broadcast.8333), dimensions={3}
  reshape.8335 = f32[128]{0} reshape(broadcast.8334)
  multiply.8345 = f32[1,1,1,128]{3,2,1,0} multiply(broadcast.8344, broadcast.2412)
  reshape.8346 = f32[128]{0} reshape(multiply.8345)
  constant.8261 = f32[] constant(0)
  reduce.8266 = f32[512]{0} reduce(convert.8260, constant.8261), dimensions={0,1,2}, to_apply=primitive_computation_add.8262
  broadcast.8267 = f32[512]{0} broadcast(reduce.8266), dimensions={0}
  broadcast.8268 = f32[1,1,1,512]{3,2,1,0} broadcast(broadcast.8267), dimensions={3}
  reshape.8269 = f32[512]{0} reshape(broadcast.8268)
  multiply.8279 = f32[1,1,1,512]{3,2,1,0} multiply(broadcast.8278, broadcast.2499)
  reshape.8280 = f32[512]{0} reshape(multiply.8279)
  broadcast.6012 = f32[1,1,512,128]{3,2,1,0} broadcast(multiply.5977), dimensions={}
  constant.5738 = f32[] constant(2)
  broadcast.5739 = f32[1,1,512,128]{3,2,1,0} broadcast(constant.5738), dimensions={}
  multiply.5740 = f32[1,1,512,128]{3,2,1,0} multiply(broadcast.5739, parameter.115)
  multiply.6013 = f32[1,1,512,128]{3,2,1,0} multiply(broadcast.6012, multiply.5740)
  convolution.8448 = bf16[1,1,512,128]{3,2,1,0} convolution(convert.2263, convert.8447), window={size=28x28}, dim_labels=f01b_i01o->01bf
  convert.8449 = f32[1,1,512,128]{3,2,1,0} convert(convolution.8448)
  add.8450 = f32[1,1,512,128]{3,2,1,0} add(multiply.6013, convert.8449)
  broadcast.6010 = f32[3,3,128,128]{3,2,1,0} broadcast(multiply.5977), dimensions={}
  constant.5748 = f32[] constant(2)
  broadcast.5749 = f32[3,3,128,128]{3,2,1,0} broadcast(constant.5748), dimensions={}
  multiply.5750 = f32[3,3,128,128]{3,2,1,0} multiply(broadcast.5749, parameter.116)
  multiply.6011 = f32[3,3,128,128]{3,2,1,0} multiply(broadcast.6010, multiply.5750)
  convolution.8382 = bf16[3,3,128,128]{3,2,1,0} convolution(convert.2350, convert.8381), window={size=28x28 pad=1_1x1_1}, dim_labels=f01b_i01o->01bf
  convert.8383 = f32[3,3,128,128]{3,2,1,0} convert(convolution.8382)
  add.8384 = f32[3,3,128,128]{3,2,1,0} add(multiply.6011, convert.8383)
  broadcast.6008 = f32[1,1,128,512]{3,2,1,0} broadcast(multiply.5977), dimensions={}
  constant.5758 = f32[] constant(2)
  broadcast.5759 = f32[1,1,128,512]{3,2,1,0} broadcast(constant.5758), dimensions={}
  multiply.5760 = f32[1,1,128,512]{3,2,1,0} multiply(broadcast.5759, parameter.117)
  multiply.6009 = f32[1,1,128,512]{3,2,1,0} multiply(broadcast.6008, multiply.5760)
  convolution.8316 = bf16[1,1,128,512]{3,2,1,0} convolution(convert.2437, convert.8315), window={size=28x28}, dim_labels=f01b_i01o->01bf
  convert.8317 = f32[1,1,128,512]{3,2,1,0} convert(convolution.8316)
  add.8318 = f32[1,1,128,512]{3,2,1,0} add(multiply.6009, convert.8317)
  constant.8194 = f32[] constant(0)
  reduce.8199 = f32[128]{0} reduce(convert.8193, constant.8194), dimensions={0,1,2}, to_apply=primitive_computation_add.8195
  broadcast.8200 = f32[128]{0} broadcast(reduce.8199), dimensions={0}
  broadcast.8201 = f32[1,1,1,128]{3,2,1,0} broadcast(broadcast.8200), dimensions={3}
  reshape.8202 = f32[128]{0} reshape(broadcast.8201)
  multiply.8212 = f32[1,1,1,128]{3,2,1,0} multiply(broadcast.8211, broadcast.2587)
  reshape.8213 = f32[128]{0} reshape(multiply.8212)
  constant.8128 = f32[] constant(0)
  reduce.8133 = f32[128]{0} reduce(convert.8127, constant.8128), dimensions={0,1,2}, to_apply=primitive_computation_add.8129
  broadcast.8134 = f32[128]{0} broadcast(reduce.8133), dimensions={0}
  broadcast.8135 = f32[1,1,1,128]{3,2,1,0} broadcast(broadcast.8134), dimensions={3}
  reshape.8136 = f32[128]{0} reshape(broadcast.8135)
  multiply.8146 = f32[1,1,1,128]{3,2,1,0} multiply(broadcast.8145, broadcast.2674)
  reshape.8147 = f32[128]{0} reshape(multiply.8146)
  constant.8062 = f32[] constant(0)
  reduce.8067 = f32[512]{0} reduce(convert.8061, constant.8062), dimensions={0,1,2}, to_apply=primitive_computation_add.8063
  broadcast.8068 = f32[512]{0} broadcast(reduce.8067), dimensions={0}
  broadcast.8069 = f32[1,1,1,512]{3,2,1,0} broadcast(broadcast.8068), dimensions={3}
  reshape.8070 = f32[512]{0} reshape(broadcast.8069)
  multiply.8080 = f32[1,1,1,512]{3,2,1,0} multiply(broadcast.8079, broadcast.2761)
  reshape.8081 = f32[512]{0} reshape(multiply.8080)
  broadcast.6006 = f32[1,1,512,128]{3,2,1,0} broadcast(multiply.5977), dimensions={}
  constant.5768 = f32[] constant(2)
  broadcast.5769 = f32[1,1,512,128]{3,2,1,0} broadcast(constant.5768), dimensions={}
  multiply.5770 = f32[1,1,512,128]{3,2,1,0} multiply(broadcast.5769, parameter.124)
  multiply.6007 = f32[1,1,512,128]{3,2,1,0} multiply(broadcast.6006, multiply.5770)
  convolution.8249 = bf16[1,1,512,128]{3,2,1,0} convolution(convert.2525, convert.8248), window={size=28x28}, dim_labels=f01b_i01o->01bf
  convert.8250 = f32[1,1,512,128]{3,2,1,0} convert(convolution.8249)
  add.8251 = f32[1,1,512,128]{3,2,1,0} add(multiply.6007, convert.8250)
  broadcast.6004 = f32[3,3,128,128]{3,2,1,0} broadcast(multiply.5977), dimensions={}
  constant.5778 = f32[] constant(2)
  broadcast.5779 = f32[3,3,128,128]{3,2,1,0} broadcast(constant.5778), dimensions={}
  multiply.5780 = f32[3,3,128,128]{3,2,1,0} multiply(broadcast.5779, parameter.125)
  multiply.6005 = f32[3,3,128,128]{3,2,1,0} multiply(broadcast.6004, multiply.5780)
  convolution.8183 = bf16[3,3,128,128]{3,2,1,0} convolution(convert.2612, convert.8182), window={size=28x28 pad=1_1x1_1}, dim_labels=f01b_i01o->01bf
  convert.8184 = f32[3,3,128,128]{3,2,1,0} convert(convolution.8183)
  add.8185 = f32[3,3,128,128]{3,2,1,0} add(multiply.6005, convert.8184)
  broadcast.6002 = f32[1,1,128,512]{3,2,1,0} broadcast(multiply.5977), dimensions={}
  constant.5788 = f32[] constant(2)
  broadcast.5789 = f32[1,1,128,512]{3,2,1,0} broadcast(constant.5788), dimensions={}
  multiply.5790 = f32[1,1,128,512]{3,2,1,0} multiply(broadcast.5789, parameter.126)
  multiply.6003 = f32[1,1,128,512]{3,2,1,0} multiply(broadcast.6002, multiply.5790)
  convolution.8117 = bf16[1,1,128,512]{3,2,1,0} convolution(convert.2699, convert.8116), window={size=28x28}, dim_labels=f01b_i01o->01bf
  convert.8118 = f32[1,1,128,512]{3,2,1,0} convert(convolution.8117)
  add.8119 = f32[1,1,128,512]{3,2,1,0} add(multiply.6003, convert.8118)
  constant.7932 = f32[] constant(0)
  reduce.7937 = f32[256]{0} reduce(convert.7931, constant.7932), dimensions={0,1,2}, to_apply=primitive_computation_add.7933
  broadcast.7938 = f32[256]{0} broadcast(reduce.7937), dimensions={0}
  broadcast.7939 = f32[1,1,1,256]{3,2,1,0} broadcast(broadcast.7938), dimensions={3}
  reshape.7940 = f32[256]{0} reshape(broadcast.7939)
  multiply.7950 = f32[1,1,1,256]{3,2,1,0} multiply(broadcast.7949, broadcast.2849)
  reshape.7951 = f32[256]{0} reshape(multiply.7950)
  constant.7866 = f32[] constant(0)
  reduce.7871 = f32[256]{0} reduce(convert.7865, constant.7866), dimensions={0,1,2}, to_apply=primitive_computation_add.7867
  broadcast.7872 = f32[256]{0} broadcast(reduce.7871), dimensions={0}
  broadcast.7873 = f32[1,1,1,256]{3,2,1,0} broadcast(broadcast.7872), dimensions={3}
  reshape.7874 = f32[256]{0} reshape(broadcast.7873)
  multiply.7884 = f32[1,1,1,256]{3,2,1,0} multiply(broadcast.7883, broadcast.2936)
  reshape.7885 = f32[256]{0} reshape(multiply.7884)
  constant.7800 = f32[] constant(0)
  reduce.7805 = f32[1024]{0} reduce(convert.7799, constant.7800), dimensions={0,1,2}, to_apply=primitive_computation_add.7801
  broadcast.7806 = f32[1024]{0} broadcast(reduce.7805), dimensions={0}
  broadcast.7807 = f32[1,1,1,1024]{3,2,1,0} broadcast(broadcast.7806), dimensions={3}
  reshape.7808 = f32[1024]{0} reshape(broadcast.7807)
  multiply.7818 = f32[1,1,1,1024]{3,2,1,0} multiply(broadcast.7817, broadcast.3023)
  reshape.7819 = f32[1024]{0} reshape(multiply.7818)
  broadcast.6000 = f32[1,1,512,256]{3,2,1,0} broadcast(multiply.5977), dimensions={}
  constant.5798 = f32[] constant(2)
  broadcast.5799 = f32[1,1,512,256]{3,2,1,0} broadcast(constant.5798), dimensions={}
  multiply.5800 = f32[1,1,512,256]{3,2,1,0} multiply(broadcast.5799, parameter.133)
  multiply.6001 = f32[1,1,512,256]{3,2,1,0} multiply(broadcast.6000, multiply.5800)
  convolution.7987 = bf16[1,1,512,256]{3,2,1,0} convolution(convert.2787, convert.7986), window={size=28x28}, dim_labels=f01b_i01o->01bf
  convert.7988 = f32[1,1,512,256]{3,2,1,0} convert(convolution.7987)
  add.7989 = f32[1,1,512,256]{3,2,1,0} add(multiply.6001, convert.7988)
  broadcast.5998 = f32[3,3,256,256]{3,2,1,0} broadcast(multiply.5977), dimensions={}
  constant.5808 = f32[] constant(2)
  broadcast.5809 = f32[3,3,256,256]{3,2,1,0} broadcast(constant.5808), dimensions={}
  multiply.5810 = f32[3,3,256,256]{3,2,1,0} multiply(broadcast.5809, parameter.134)
  multiply.5999 = f32[3,3,256,256]{3,2,1,0} multiply(broadcast.5998, multiply.5810)
  convolution.7921 = bf16[3,3,256,256]{3,2,1,0} convolution(convert.2874, convert.7920), window={size=14x14 pad=0_1x0_1 rhs_dilate=2x2}, dim_labels=f01b_i01o->01bf
  convert.7922 = f32[3,3,256,256]{3,2,1,0} convert(convolution.7921)
  add.7923 = f32[3,3,256,256]{3,2,1,0} add(multiply.5999, convert.7922)
  broadcast.5996 = f32[1,1,256,1024]{3,2,1,0} broadcast(multiply.5977), dimensions={}
  constant.5818 = f32[] constant(2)
  broadcast.5819 = f32[1,1,256,1024]{3,2,1,0} broadcast(constant.5818), dimensions={}
  multiply.5820 = f32[1,1,256,1024]{3,2,1,0} multiply(broadcast.5819, parameter.135)
  multiply.5997 = f32[1,1,256,1024]{3,2,1,0} multiply(broadcast.5996, multiply.5820)
  convolution.7855 = bf16[1,1,256,1024]{3,2,1,0} convolution(convert.2961, convert.7854), window={size=14x14}, dim_labels=f01b_i01o->01bf
  convert.7856 = f32[1,1,256,1024]{3,2,1,0} convert(convolution.7855)
  add.7857 = f32[1,1,256,1024]{3,2,1,0} add(multiply.5997, convert.7856)
  broadcast.5994 = f32[1,1,512,1024]{3,2,1,0} broadcast(multiply.5977), dimensions={}
  constant.5828 = f32[] constant(2)
  broadcast.5829 = f32[1,1,512,1024]{3,2,1,0} broadcast(constant.5828), dimensions={}
  multiply.5830 = f32[1,1,512,1024]{3,2,1,0} multiply(broadcast.5829, parameter.136)
  multiply.5995 = f32[1,1,512,1024]{3,2,1,0} multiply(broadcast.5994, multiply.5830)
  convolution.8050 = bf16[1,1,512,1024]{3,2,1,0} convolution(convert.3037, convert.8049), window={size=14x14 pad=0_-1x0_-1 rhs_dilate=2x2}, dim_labels=f01b_i01o->01bf
  convert.8051 = f32[1,1,512,1024]{3,2,1,0} convert(convolution.8050)
  add.8052 = f32[1,1,512,1024]{3,2,1,0} add(multiply.5995, convert.8051)
  constant.7995 = f32[] constant(0)
  reduce.8000 = f32[1024]{0} reduce(convert.7994, constant.7995), dimensions={0,1,2}, to_apply=primitive_computation_add.7996
  broadcast.8001 = f32[1024]{0} broadcast(reduce.8000), dimensions={0}
  broadcast.8002 = f32[1,1,1,1024]{3,2,1,0} broadcast(broadcast.8001), dimensions={3}
  reshape.8003 = f32[1024]{0} reshape(broadcast.8002)
  multiply.8013 = f32[1,1,1,1024]{3,2,1,0} multiply(broadcast.8012, broadcast.3099)
  reshape.8014 = f32[1024]{0} reshape(multiply.8013)
  constant.7733 = f32[] constant(0)
  reduce.7738 = f32[256]{0} reduce(convert.7732, constant.7733), dimensions={0,1,2}, to_apply=primitive_computation_add.7734
  broadcast.7739 = f32[256]{0} broadcast(reduce.7738), dimensions={0}
  broadcast.7740 = f32[1,1,1,256]{3,2,1,0} broadcast(broadcast.7739), dimensions={3}
  reshape.7741 = f32[256]{0} reshape(broadcast.7740)
  multiply.7751 = f32[1,1,1,256]{3,2,1,0} multiply(broadcast.7750, broadcast.3187)
  reshape.7752 = f32[256]{0} reshape(multiply.7751)
  constant.7667 = f32[] constant(0)
  reduce.7672 = f32[256]{0} reduce(convert.7666, constant.7667), dimensions={0,1,2}, to_apply=primitive_computation_add.7668
  broadcast.7673 = f32[256]{0} broadcast(reduce.7672), dimensions={0}
  broadcast.7674 = f32[1,1,1,256]{3,2,1,0} broadcast(broadcast.7673), dimensions={3}
  reshape.7675 = f32[256]{0} reshape(broadcast.7674)
  multiply.7685 = f32[1,1,1,256]{3,2,1,0} multiply(broadcast.7684, broadcast.3274)
  reshape.7686 = f32[256]{0} reshape(multiply.7685)
  constant.7601 = f32[] constant(0)
  reduce.7606 = f32[1024]{0} reduce(convert.7600, constant.7601), dimensions={0,1,2}, to_apply=primitive_computation_add.7602
  broadcast.7607 = f32[1024]{0} broadcast(reduce.7606), dimensions={0}
  broadcast.7608 = f32[1,1,1,1024]{3,2,1,0} broadcast(broadcast.7607), dimensions={3}
  reshape.7609 = f32[1024]{0} reshape(broadcast.7608)
  multiply.7619 = f32[1,1,1,1024]{3,2,1,0} multiply(broadcast.7618, broadcast.3361)
  reshape.7620 = f32[1024]{0} reshape(multiply.7619)
  broadcast.5992 = f32[1,1,1024,256]{3,2,1,0} broadcast(multiply.5977), dimensions={}
  constant.5838 = f32[] constant(2)
  broadcast.5839 = f32[1,1,1024,256]{3,2,1,0} broadcast(constant.5838), dimensions={}
  multiply.5840 = f32[1,1,1024,256]{3,2,1,0} multiply(broadcast.5839, parameter.145)
  multiply.5993 = f32[1,1,1024,256]{3,2,1,0} multiply(broadcast.5992, multiply.5840)
  convolution.7788 = bf16[1,1,1024,256]{3,2,1,0} convolution(convert.3125, convert.7787), window={size=14x14}, dim_labels=f01b_i01o->01bf
  convert.7789 = f32[1,1,1024,256]{3,2,1,0} convert(convolution.7788)
  add.7790 = f32[1,1,1024,256]{3,2,1,0} add(multiply.5993, convert.7789)
  broadcast.5990 = f32[3,3,256,256]{3,2,1,0} broadcast(multiply.5977), dimensions={}
  constant.5848 = f32[] constant(2)
  broadcast.5849 = f32[3,3,256,256]{3,2,1,0} broadcast(constant.5848), dimensions={}
  multiply.5850 = f32[3,3,256,256]{3,2,1,0} multiply(broadcast.5849, parameter.146)
  multiply.5991 = f32[3,3,256,256]{3,2,1,0} multiply(broadcast.5990, multiply.5850)
  convolution.7722 = bf16[3,3,256,256]{3,2,1,0} convolution(convert.3212, convert.7721), window={size=14x14 pad=1_1x1_1}, dim_labels=f01b_i01o->01bf
  convert.7723 = f32[3,3,256,256]{3,2,1,0} convert(convolution.7722)
  add.7724 = f32[3,3,256,256]{3,2,1,0} add(multiply.5991, convert.7723)
  broadcast.5988 = f32[1,1,256,1024]{3,2,1,0} broadcast(multiply.5977), dimensions={}
  constant.5858 = f32[] constant(2)
  broadcast.5859 = f32[1,1,256,1024]{3,2,1,0} broadcast(constant.5858), dimensions={}
  multiply.5860 = f32[1,1,256,1024]{3,2,1,0} multiply(broadcast.5859, parameter.147)
  multiply.5989 = f32[1,1,256,1024]{3,2,1,0} multiply(broadcast.5988, multiply.5860)
  convolution.7656 = bf16[1,1,256,1024]{3,2,1,0} convolution(convert.3299, convert.7655), window={size=14x14}, dim_labels=f01b_i01o->01bf
  convert.7657 = f32[1,1,256,1024]{3,2,1,0} convert(convolution.7656)
  add.7658 = f32[1,1,256,1024]{3,2,1,0} add(multiply.5989, convert.7657)
  constant.7534 = f32[] constant(0)
  reduce.7539 = f32[256]{0} reduce(convert.7533, constant.7534), dimensions={0,1,2}, to_apply=primitive_computation_add.7535
  broadcast.7540 = f32[256]{0} broadcast(reduce.7539), dimensions={0}
  broadcast.7541 = f32[1,1,1,256]{3,2,1,0} broadcast(broadcast.7540), dimensions={3}
  reshape.7542 = f32[256]{0} reshape(broadcast.7541)
  multiply.7552 = f32[1,1,1,256]{3,2,1,0} multiply(broadcast.7551, broadcast.3449)
  reshape.7553 = f32[256]{0} reshape(multiply.7552)
  constant.7468 = f32[] constant(0)
  reduce.7473 = f32[256]{0} reduce(convert.7467, constant.7468), dimensions={0,1,2}, to_apply=primitive_computation_add.7469
  broadcast.7474 = f32[256]{0} broadcast(reduce.7473), dimensions={0}
  broadcast.7475 = f32[1,1,1,256]{3,2,1,0} broadcast(broadcast.7474), dimensions={3}
  reshape.7476 = f32[256]{0} reshape(broadcast.7475)
  multiply.7486 = f32[1,1,1,256]{3,2,1,0} multiply(broadcast.7485, broadcast.3536)
  reshape.7487 = f32[256]{0} reshape(multiply.7486)
  constant.7402 = f32[] constant(0)
  reduce.7407 = f32[1024]{0} reduce(convert.7401, constant.7402), dimensions={0,1,2}, to_apply=primitive_computation_add.7403
  broadcast.7408 = f32[1024]{0} broadcast(reduce.7407), dimensions={0}
  broadcast.7409 = f32[1,1,1,1024]{3,2,1,0} broadcast(broadcast.7408), dimensions={3}
  reshape.7410 = f32[1024]{0} reshape(broadcast.7409)
  multiply.7420 = f32[1,1,1,1024]{3,2,1,0} multiply(broadcast.7419, broadcast.3623)
  reshape.7421 = f32[1024]{0} reshape(multiply.7420)
  broadcast.5986 = f32[1,1,1024,256]{3,2,1,0} broadcast(multiply.5977), dimensions={}
  constant.5868 = f32[] constant(2)
  broadcast.5869 = f32[1,1,1024,256]{3,2,1,0} broadcast(constant.5868), dimensions={}
  multiply.5870 = f32[1,1,1024,256]{3,2,1,0} multiply(broadcast.5869, parameter.154)
  multiply.5987 = f32[1,1,1024,256]{3,2,1,0} multiply(broadcast.5986, multiply.5870)
  convolution.7589 = bf16[1,1,1024,256]{3,2,1,0} convolution(convert.3387, convert.7588), window={size=14x14}, dim_labels=f01b_i01o->01bf
  convert.7590 = f32[1,1,1024,256]{3,2,1,0} convert(convolution.7589)
  add.7591 = f32[1,1,1024,256]{3,2,1,0} add(multiply.5987, convert.7590)
  broadcast.5984 = f32[3,3,256,256]{3,2,1,0} broadcast(multiply.5977), dimensions={}
  constant.5878 = f32[] constant(2)
  broadcast.5879 = f32[3,3,256,256]{3,2,1,0} broadcast(constant.5878), dimensions={}
  multiply.5880 = f32[3,3,256,256]{3,2,1,0} multiply(broadcast.5879, parameter.155)
  multiply.5985 = f32[3,3,256,256]{3,2,1,0} multiply(broadcast.5984, multiply.5880)
  convolution.7523 = bf16[3,3,256,256]{3,2,1,0} convolution(convert.3474, convert.7522), window={size=14x14 pad=1_1x1_1}, dim_labels=f01b_i01o->01bf
  convert.7524 = f32[3,3,256,256]{3,2,1,0} convert(convolution.7523)
  add.7525 = f32[3,3,256,256]{3,2,1,0} add(multiply.5985, convert.7524)
  broadcast.5982 = f32[1,1,256,1024]{3,2,1,0} broadcast(multiply.5977), dimensions={}
  constant.5888 = f32[] constant(2)
  broadcast.5889 = f32[1,1,256,1024]{3,2,1,0} broadcast(constant.5888), dimensions={}
  multiply.5890 = f32[1,1,256,1024]{3,2,1,0} multiply(broadcast.5889, parameter.156)
  multiply.5983 = f32[1,1,256,1024]{3,2,1,0} multiply(broadcast.5982, multiply.5890)
  convolution.7457 = bf16[1,1,256,1024]{3,2,1,0} convolution(convert.3561, convert.7456), window={size=14x14}, dim_labels=f01b_i01o->01bf
  convert.7458 = f32[1,1,256,1024]{3,2,1,0} convert(convolution.7457)
  add.7459 = f32[1,1,256,1024]{3,2,1,0} add(multiply.5983, convert.7458)
  constant.6113 = bf16[] constant(0)
  reduce.6118 = bf16[1000]{0} reduce(convert.6112, constant.6113), dimensions={0}, to_apply=primitive_computation_add__1.6114
  broadcast.6119 = bf16[1000]{0} broadcast(reduce.6118), dimensions={0}
  broadcast.6120 = bf16[1,1000]{1,0} broadcast(broadcast.6119), dimensions={1}
  constant.6121 = bf16[] constant(0)
  reduce.6126 = bf16[1000]{0} reduce(broadcast.6120, constant.6121), dimensions={0}, to_apply=primitive_computation_add__1.6122
  broadcast.6127 = bf16[1000]{0} broadcast(reduce.6126), dimensions={0}
  convert.6128 = f32[1000]{0} convert(broadcast.6127)
  broadcast.5980 = f32[2048,1000]{1,0} broadcast(multiply.5977), dimensions={}
  constant.5898 = f32[] constant(2)
  broadcast.5899 = f32[2048,1000]{1,0} broadcast(constant.5898), dimensions={}
  multiply.5900 = f32[2048,1000]{1,0} multiply(broadcast.5899, parameter.158)
  multiply.5981 = f32[2048,1000]{1,0} multiply(broadcast.5980, multiply.5900)
  dot.6129 = bf16[1000,2048]{1,0} dot(convert.6112, convert.5309), lhs_contracting_dims={0}, rhs_contracting_dims={0}
  transpose.6130 = bf16[2048,1000]{0,1} transpose(dot.6129), dimensions={1,0}
  convert.6131 = f32[2048,1000]{0,1} convert(transpose.6130)
  add.6132 = f32[2048,1000]{1,0} add(multiply.5981, convert.6131)
  constant.786 = bf16[] constant(0)
  broadcast.787 = bf16[128,112,112,64]{3,2,1,0} broadcast(constant.786), dimensions={}
  compare.788 = pred[128,112,112,64]{3,2,1,0} compare(convert.779, broadcast.787), direction=GT
  reverse.9509 = bf16[1,1,64,64]{3,2,1,0} reverse(convert.802), dimensions={0,1}
  convolution.9510 = bf16[128,56,56,64]{3,2,1,0} convolution(convert.9505, reverse.9509), window={size=1x1}, dim_labels=b01f_01oi->b01f
  convert.9511 = f32[128,56,56,64]{3,2,1,0} convert(convolution.9510)
  convert.9512 = bf16[128,56,56,64]{3,2,1,0} convert(convert.9511)
  reverse.9572 = bf16[1,1,64,256]{3,2,1,0} reverse(convert.1052), dimensions={0,1}
  convolution.9573 = bf16[128,56,56,64]{3,2,1,0} convolution(convert.9568, reverse.9572), window={size=1x1}, dim_labels=b01f_01oi->b01f
  convert.9574 = f32[128,56,56,64]{3,2,1,0} convert(convolution.9573)
  convert.9575 = bf16[128,56,56,64]{3,2,1,0} convert(convert.9574)
  add.9576 = bf16[128,56,56,64]{3,2,1,0} add(convert.9512, convert.9575)
  constant.9577 = bf16[] constant(0)
  select-and-scatter.9586 = bf16[128,112,112,64]{3,2,1,0} select-and-scatter(get-tuple-element.785, add.9576, constant.9577), window={size=1x3x3x1 stride=1x2x2x1 pad=0_0x0_1x0_1x0_0}, select=primitive_computation_ge.9578, scatter=primitive_computation_add__1.9582
  constant.9587 = bf16[] constant(0)
  broadcast.9588 = bf16[128,112,112,64]{3,2,1,0} broadcast(constant.9587), dimensions={}
  select.9589 = bf16[128,112,112,64]{3,2,1,0} select(compare.788, select-and-scatter.9586, broadcast.9588)
  convert.9590 = f32[128,112,112,64]{3,2,1,0} convert(select.9589)
  constant.9591 = f32[] constant(0)
  reduce.9596 = f32[64]{0} reduce(convert.9590, constant.9591), dimensions={0,1,2}, to_apply=primitive_computation_add.9592
  broadcast.9597 = f32[64]{0} broadcast(reduce.9596), dimensions={0}
  broadcast.9598 = f32[1,1,1,64]{3,2,1,0} broadcast(broadcast.9597), dimensions={3}
  reshape.9599 = f32[64]{0} reshape(broadcast.9598)
  multiply.9600 = f32[128,112,112,64]{3,2,1,0} multiply(convert.9590, subtract.758)
  constant.9601 = f32[] constant(0)
  reduce.9606 = f32[64]{0} reduce(multiply.9600, constant.9601), dimensions={0,1,2}, to_apply=primitive_computation_add.9602
  broadcast.9607 = f32[64]{0} broadcast(reduce.9606), dimensions={0}
  broadcast.9608 = f32[1,1,1,64]{3,2,1,0} broadcast(broadcast.9607), dimensions={3}
  multiply.9609 = f32[1,1,1,64]{3,2,1,0} multiply(broadcast.9608, broadcast.770)
  reshape.9610 = f32[64]{0} reshape(multiply.9609)
  broadcast.5978 = f32[7,7,3,64]{3,2,1,0} broadcast(multiply.5977), dimensions={}
  constant.5908 = f32[] constant(2)
  broadcast.5909 = f32[7,7,3,64]{3,2,1,0} broadcast(constant.5908), dimensions={}
  multiply.5910 = f32[7,7,3,64]{3,2,1,0} multiply(broadcast.5909, parameter.161)
  multiply.5979 = f32[7,7,3,64]{3,2,1,0} multiply(broadcast.5978, multiply.5910)
  multiply.9611 = f32[1,1,1,64]{3,2,1,0} multiply(broadcast.9608, reshape.769)
  constant.9612 = f32[] constant(0)
  reduce.9617 = f32[64]{0} reduce(multiply.9611, constant.9612), dimensions={0,1,2}, to_apply=primitive_computation_add.9613
  broadcast.9618 = f32[64]{0} broadcast(reduce.9617), dimensions={0}
  constant.766 = f32[] constant(-0.5)
  broadcast.767 = f32[64]{0} broadcast(constant.766), dimensions={}
  constant.763 = f32[] constant(-1.5)
  broadcast.764 = f32[64]{0} broadcast(constant.763), dimensions={}
  power.765 = f32[64]{0} power(add.761, broadcast.764)
  multiply.768 = f32[64]{0} multiply(broadcast.767, power.765)
  multiply.9619 = f32[64]{0} multiply(broadcast.9618, multiply.768)
  broadcast.9622 = f32[64]{0} broadcast(convert.733), dimensions={}
  divide.9623 = f32[64]{0} divide(multiply.9619, broadcast.9622)
  broadcast.9624 = f32[128,112,112,64]{3,2,1,0} broadcast(divide.9623), dimensions={3}
  constant.723 = f32[] constant(2)
  broadcast.724 = f32[128,112,112,64]{3,2,1,0} broadcast(constant.723), dimensions={}
  multiply.725 = f32[128,112,112,64]{3,2,1,0} multiply(broadcast.724, convert.711)
  multiply.9625 = f32[128,112,112,64]{3,2,1,0} multiply(broadcast.9624, multiply.725)
  reshape.9626 = f32[64]{0} reshape(multiply.771)
  broadcast.9627 = f32[128,112,112,64]{3,2,1,0} broadcast(reshape.9626), dimensions={3}
  multiply.9628 = f32[128,112,112,64]{3,2,1,0} multiply(convert.9590, broadcast.9627)
  add.9629 = f32[128,112,112,64]{3,2,1,0} add(multiply.9625, multiply.9628)
  negate.9620 = f32[64]{0} negate(multiply.9619)
  constant.737 = f32[] constant(2)
  broadcast.738 = f32[64]{0} broadcast(constant.737), dimensions={}
  multiply.739 = f32[64]{0} multiply(broadcast.738, divide.721)
  multiply.9621 = f32[64]{0} multiply(negate.9620, multiply.739)
  constant.9630 = f32[] constant(0)
  reduce.9635 = f32[64]{0} reduce(multiply.9628, constant.9630), dimensions={0,1,2}, to_apply=primitive_computation_add.9631
  broadcast.9636 = f32[64]{0} broadcast(reduce.9635), dimensions={0}
  broadcast.9637 = f32[1,1,1,64]{3,2,1,0} broadcast(broadcast.9636), dimensions={3}
  negate.9638 = f32[1,1,1,64]{3,2,1,0} negate(broadcast.9637)
  reshape.9639 = f32[64]{0} reshape(negate.9638)
  add.9640 = f32[64]{0} add(multiply.9621, reshape.9639)
  broadcast.9641 = f32[64]{0} broadcast(convert.719), dimensions={}
  divide.9642 = f32[64]{0} divide(add.9640, broadcast.9641)
  broadcast.9643 = f32[128,112,112,64]{3,2,1,0} broadcast(divide.9642), dimensions={3}
  add.9644 = f32[128,112,112,64]{3,2,1,0} add(add.9629, broadcast.9643)
  convert.9645 = bf16[128,112,112,64]{3,2,1,0} convert(add.9644)
  convolution.9646 = bf16[7,7,3,64]{3,2,1,0} convolution(convert.708, convert.9645), window={size=112x112 pad=3_2x3_2 rhs_dilate=2x2}, dim_labels=f01b_i01o->01bf
  convert.9647 = f32[7,7,3,64]{3,2,1,0} convert(convolution.9646)
  add.9648 = f32[7,7,3,64]{3,2,1,0} add(multiply.5979, convert.9647)
  ROOT tuple.9649 = (f32[], f32[64]{0}, f32[64]{0}, f32[64]{0}, f32[64]{0}, f32[256]{0}, f32[256]{0}, f32[256]{0}, f32[256]{0}, f32[64]{0}, f32[64]{0}, f32[64]{0}, f32[64]{0}, f32[256]{0}, f32[256]{0}, f32[256]{0}, f32[256]{0}, f32[256]{0}, f32[256]{0}, f32[1024]{0}, f32[1024]{0}, f32[256]{0}, f32[256]{0}, f32[256]{0}, f32[256]{0}, f32[1024]{0}, f32[1024]{0}, f32[256]{0}, f32[256]{0}, f32[256]{0}, f32[256]{0}, f32[1024]{0}, f32[1024]{0}, f32[512]{0}, f32[512]{0}, f32[512]{0}, f32[512]{0}, f32[2048]{0}, f32[2048]{0}, f32[2048]{0}, f32[2048]{0}, f32[512]{0}, f32[512]{0}, f32[512]{0}, f32[512]{0}, f32[2048]{0}, f32[2048]{0}, f32[512]{0}, f32[512]{0}, f32[512]{0}, f32[512]{0}, f32[2048]{0}, f32[2048]{0}, f32[64]{0}, f32[64]{0}, f32[64]{0}, f32[64]{0}, f32[256]{0}, f32[256]{0}, f32[128]{0}, f32[128]{0}, f32[128]{0}, f32[128]{0}, f32[512]{0}, f32[512]{0}, f32[512]{0}, f32[512]{0}, f32[128]{0}, f32[128]{0}, f32[128]{0}, f32[128]{0}, f32[512]{0}, f32[512]{0}, f32[128]{0}, f32[128]{0}, f32[128]{0}, f32[128]{0}, f32[512]{0}, f32[512]{0}, f32[128]{0}, f32[128]{0}, f32[128]{0}, f32[128]{0}, f32[512]{0}, f32[512]{0}, f32[256]{0}, f32[256]{0}, f32[256]{0}, f32[256]{0}, f32[1024]{0}, f32[1024]{0}, f32[1024]{0}, f32[1024]{0}, f32[256]{0}, f32[256]{0}, f32[256]{0}, f32[256]{0}, f32[1024]{0}, f32[1024]{0}, f32[256]{0}, f32[256]{0}, f32[256]{0}, f32[256]{0}, f32[1024]{0}, f32[1024]{0}, f32[64]{0}, f32[64]{0}, f32[128,1000]{1,0}, f32[64]{0}, f32[64]{0}, f32[64]{0}, f32[64]{0}, f32[256]{0}, f32[256]{0}, f32[1,1,64,64]{3,2,1,0}, f32[3,3,64,64]{3,2,1,0}, f32[1,1,64,256]{3,2,1,0}, f32[1,1,64,256]{3,2,1,0}, f32[256]{0}, f32[256]{0}, f32[64]{0}, f32[64]{0}, f32[64]{0}, f32[64]{0}, f32[256]{0}, f32[256]{0}, f32[1,1,256,64]{3,2,1,0}, f32[3,3,64,64]{3,2,1,0}, f32[1,1,64,256]{3,2,1,0}, f32[256]{0}, f32[256]{0}, f32[256]{0}, f32[256]{0}, f32[1024]{0}, f32[1024]{0}, f32[1,1,1024,256]{3,2,1,0}, f32[3,3,256,256]{3,2,1,0}, f32[1,1,256,1024]{3,2,1,0}, f32[256]{0}, f32[256]{0}, f32[256]{0}, f32[256]{0}, f32[1024]{0}, f32[1024]{0}, f32[1,1,1024,256]{3,2,1,0}, f32[3,3,256,256]{3,2,1,0}, f32[1,1,256,1024]{3,2,1,0}, f32[256]{0}, f32[256]{0}, f32[256]{0}, f32[256]{0}, f32[1024]{0}, f32[1024]{0}, f32[1,1,1024,256]{3,2,1,0}, f32[3,3,256,256]{3,2,1,0}, f32[1,1,256,1024]{3,2,1,0}, f32[512]{0}, f32[512]{0}, f32[512]{0}, f32[512]{0}, f32[2048]{0}, f32[2048]{0}, f32[1,1,1024,512]{3,2,1,0}, f32[3,3,512,512]{3,2,1,0}, f32[1,1,512,2048]{3,2,1,0}, f32[1,1,1024,2048]{3,2,1,0}, f32[2048]{0}, f32[2048]{0}, f32[512]{0}, f32[512]{0}, f32[512]{0}, f32[512]{0}, f32[2048]{0}, f32[2048]{0}, f32[1,1,2048,512]{3,2,1,0}, f32[3,3,512,512]{3,2,1,0}, f32[1,1,512,2048]{3,2,1,0}, f32[512]{0}, f32[512]{0}, f32[512]{0}, f32[512]{0}, f32[2048]{0}, f32[2048]{0}, f32[1,1,2048,512]{3,2,1,0}, f32[3,3,512,512]{3,2,1,0}, f32[1,1,512,2048]{3,2,1,0}, f32[64]{0}, f32[64]{0}, f32[64]{0}, f32[64]{0}, f32[256]{0}, f32[256]{0}, f32[1,1,256,64]{3,2,1,0}, f32[3,3,64,64]{3,2,1,0}, f32[1,1,64,256]{3,2,1,0}, f32[128]{0}, f32[128]{0}, f32[128]{0}, f32[128]{0}, f32[512]{0}, f32[512]{0}, f32[1,1,256,128]{3,2,1,0}, f32[3,3,128,128]{3,2,1,0}, f32[1,1,128,512]{3,2,1,0}, f32[1,1,256,512]{3,2,1,0}, f32[512]{0}, f32[512]{0}, f32[128]{0}, f32[128]{0}, f32[128]{0}, f32[128]{0}, f32[512]{0}, f32[512]{0}, f32[1,1,512,128]{3,2,1,0}, f32[3,3,128,128]{3,2,1,0}, f32[1,1,128,512]{3,2,1,0}, f32[128]{0}, f32[128]{0}, f32[128]{0}, f32[128]{0}, f32[512]{0}, f32[512]{0}, f32[1,1,512,128]{3,2,1,0}, f32[3,3,128,128]{3,2,1,0}, f32[1,1,128,512]{3,2,1,0}, f32[128]{0}, f32[128]{0}, f32[128]{0}, f32[128]{0}, f32[512]{0}, f32[512]{0}, f32[1,1,512,128]{3,2,1,0}, f32[3,3,128,128]{3,2,1,0}, f32[1,1,128,512]{3,2,1,0}, f32[256]{0}, f32[256]{0}, f32[256]{0}, f32[256]{0}, f32[1024]{0}, f32[1024]{0}, f32[1,1,512,256]{3,2,1,0}, f32[3,3,256,256]{3,2,1,0}, f32[1,1,256,1024]{3,2,1,0}, f32[1,1,512,1024]{3,2,1,0}, f32[1024]{0}, f32[1024]{0}, f32[256]{0}, f32[256]{0}, f32[256]{0}, f32[256]{0}, f32[1024]{0}, f32[1024]{0}, f32[1,1,1024,256]{3,2,1,0}, f32[3,3,256,256]{3,2,1,0}, f32[1,1,256,1024]{3,2,1,0}, f32[256]{0}, f32[256]{0}, f32[256]{0}, f32[256]{0}, f32[1024]{0}, f32[1024]{0}, f32[1,1,1024,256]{3,2,1,0}, f32[3,3,256,256]{3,2,1,0}, f32[1,1,256,1024]{3,2,1,0}, f32[1000]{0}, f32[2048,1000]{1,0}, f32[64]{0}, f32[64]{0}, f32[7,7,3,64]{3,2,1,0}) tuple(add.5974, add.840, add.847, add.927, add.934, add.1014, add.1021, add.1090, add.1097, add.1178, add.1185, add.1265, add.1272, add.1352, add.1359, add.3688, add.3695, add.3775, add.3782, add.3862, add.3869, add.3950, add.3957, add.4037, add.4044, add.4124, add.4131, add.4212, add.4219, add.4299, add.4306, add.4386, add.4393, add.4474, add.4481, add.4561, add.4568, add.4648, add.4655, add.4724, add.4731, add.4812, add.4819, add.4899, add.4906, add.4986, add.4993, add.5074, add.5081, add.5161, add.5168, add.5248, add.5255, add.1440, add.1447, add.1527, add.1534, add.1614, add.1621, add.1702, add.1709, add.1789, add.1796, add.1876, add.1883, add.1952, add.1959, add.2040, add.2047, add.2127, add.2134, add.2214, add.2221, add.2302, add.2309, add.2389, add.2396, add.2476, add.2483, add.2564, add.2571, add.2651, add.2658, add.2738, add.2745, add.2826, add.2833, add.2913, add.2920, add.3000, add.3007, add.3076, add.3083, add.3164, add.3171, add.3251, add.3258, add.3338, add.3345, add.3426, add.3433, add.3513, add.3520, add.3600, add.3607, add.747, add.754, subtract.5353, reshape.9459, reshape.9470, reshape.9393, reshape.9404, reshape.9327, reshape.9338, add.9508, add.9442, add.9376, add.9571, reshape.9522, reshape.9533, reshape.9260, reshape.9271, reshape.9194, reshape.9205, reshape.9128, reshape.9139, add.9309, add.9243, add.9177, reshape.7343, reshape.7354, reshape.7277, reshape.7288, reshape.7211, reshape.7222, add.7392, add.7326, add.7260, reshape.7144, reshape.7155, reshape.7078, reshape.7089, reshape.7012, reshape.7023, add.7193, add.7127, add.7061, reshape.6945, reshape.6956, reshape.6879, reshape.6890, reshape.6813, reshape.6824, add.6994, add.6928, add.6862, reshape.6683, reshape.6694, reshape.6617, reshape.6628, reshape.6551, reshape.6562, add.6732, add.6666, add.6600, add.6795, reshape.6746, reshape.6757, reshape.6484, reshape.6495, reshape.6418, reshape.6429, reshape.6352, reshape.6363, add.6533, add.6467, add.6401, reshape.6285, reshape.6296, reshape.6219, reshape.6230, reshape.6153, reshape.6164, add.6334, add.6268, add.6202, reshape.9061, reshape.9072, reshape.8995, reshape.9006, reshape.8929, reshape.8940, add.9110, add.9044, add.8978, reshape.8799, reshape.8810, reshape.8733, reshape.8744, reshape.8667, reshape.8678, add.8848, add.8782, add.8716, add.8911, reshape.8862, reshape.8873, reshape.8600, reshape.8611, reshape.8534, reshape.8545, reshape.8468, reshape.8479, add.8649, add.8583, add.8517, reshape.8401, reshape.8412, reshape.8335, reshape.8346, reshape.8269, reshape.8280, add.8450, add.8384, add.8318, reshape.8202, reshape.8213, reshape.8136, reshape.8147, reshape.8070, reshape.8081, add.8251, add.8185, add.8119, reshape.7940, reshape.7951, reshape.7874, reshape.7885, reshape.7808, reshape.7819, add.7989, add.7923, add.7857, add.8052, reshape.8003, reshape.8014, reshape.7741, reshape.7752, reshape.7675, reshape.7686, reshape.7609, reshape.7620, add.7790, add.7724, add.7658, reshape.7542, reshape.7553, reshape.7476, reshape.7487, reshape.7410, reshape.7421, add.7591, add.7525, add.7459, convert.6128, add.6132, reshape.9599, reshape.9610, add.9648)
}


