HloModule xla_computation_unknown.9168

primitive_computation_add.602 {
  parameter.603 = f32[] parameter(0)
  parameter.604 = f32[] parameter(1)
  ROOT add.605 = f32[] add(parameter.603, parameter.604)
}

primitive_computation_add.616 {
  parameter.617 = f32[] parameter(0)
  parameter.618 = f32[] parameter(1)
  ROOT add.619 = f32[] add(parameter.617, parameter.618)
}

primitive_computation_max.681 {
  parameter.682 = bf16[] parameter(0)
  parameter.683 = bf16[] parameter(1)
  ROOT maximum.684 = bf16[] maximum(parameter.682, parameter.683)
}

primitive_computation_add.690 {
  parameter.691 = f32[] parameter(0)
  parameter.692 = f32[] parameter(1)
  ROOT add.693 = f32[] add(parameter.691, parameter.692)
}

primitive_computation_add.704 {
  parameter.705 = f32[] parameter(0)
  parameter.706 = f32[] parameter(1)
  ROOT add.707 = f32[] add(parameter.705, parameter.706)
}

primitive_computation_add.772 {
  parameter.773 = f32[] parameter(0)
  parameter.774 = f32[] parameter(1)
  ROOT add.775 = f32[] add(parameter.773, parameter.774)
}

primitive_computation_add.786 {
  parameter.787 = f32[] parameter(0)
  parameter.788 = f32[] parameter(1)
  ROOT add.789 = f32[] add(parameter.787, parameter.788)
}

primitive_computation_add.854 {
  parameter.855 = f32[] parameter(0)
  parameter.856 = f32[] parameter(1)
  ROOT add.857 = f32[] add(parameter.855, parameter.856)
}

primitive_computation_add.868 {
  parameter.869 = f32[] parameter(0)
  parameter.870 = f32[] parameter(1)
  ROOT add.871 = f32[] add(parameter.869, parameter.870)
}

primitive_computation_add.925 {
  parameter.926 = f32[] parameter(0)
  parameter.927 = f32[] parameter(1)
  ROOT add.928 = f32[] add(parameter.926, parameter.927)
}

primitive_computation_add.939 {
  parameter.940 = f32[] parameter(0)
  parameter.941 = f32[] parameter(1)
  ROOT add.942 = f32[] add(parameter.940, parameter.941)
}

primitive_computation_add.1008 {
  parameter.1009 = f32[] parameter(0)
  parameter.1010 = f32[] parameter(1)
  ROOT add.1011 = f32[] add(parameter.1009, parameter.1010)
}

primitive_computation_add.1022 {
  parameter.1023 = f32[] parameter(0)
  parameter.1024 = f32[] parameter(1)
  ROOT add.1025 = f32[] add(parameter.1023, parameter.1024)
}

primitive_computation_add.1090 {
  parameter.1091 = f32[] parameter(0)
  parameter.1092 = f32[] parameter(1)
  ROOT add.1093 = f32[] add(parameter.1091, parameter.1092)
}

primitive_computation_add.1104 {
  parameter.1105 = f32[] parameter(0)
  parameter.1106 = f32[] parameter(1)
  ROOT add.1107 = f32[] add(parameter.1105, parameter.1106)
}

primitive_computation_add.1172 {
  parameter.1173 = f32[] parameter(0)
  parameter.1174 = f32[] parameter(1)
  ROOT add.1175 = f32[] add(parameter.1173, parameter.1174)
}

primitive_computation_add.1186 {
  parameter.1187 = f32[] parameter(0)
  parameter.1188 = f32[] parameter(1)
  ROOT add.1189 = f32[] add(parameter.1187, parameter.1188)
}

primitive_computation_add.1255 {
  parameter.1256 = f32[] parameter(0)
  parameter.1257 = f32[] parameter(1)
  ROOT add.1258 = f32[] add(parameter.1256, parameter.1257)
}

primitive_computation_add.1269 {
  parameter.1270 = f32[] parameter(0)
  parameter.1271 = f32[] parameter(1)
  ROOT add.1272 = f32[] add(parameter.1270, parameter.1271)
}

primitive_computation_add.1337 {
  parameter.1338 = f32[] parameter(0)
  parameter.1339 = f32[] parameter(1)
  ROOT add.1340 = f32[] add(parameter.1338, parameter.1339)
}

primitive_computation_add.1351 {
  parameter.1352 = f32[] parameter(0)
  parameter.1353 = f32[] parameter(1)
  ROOT add.1354 = f32[] add(parameter.1352, parameter.1353)
}

primitive_computation_add.1419 {
  parameter.1420 = f32[] parameter(0)
  parameter.1421 = f32[] parameter(1)
  ROOT add.1422 = f32[] add(parameter.1420, parameter.1421)
}

primitive_computation_add.1433 {
  parameter.1434 = f32[] parameter(0)
  parameter.1435 = f32[] parameter(1)
  ROOT add.1436 = f32[] add(parameter.1434, parameter.1435)
}

primitive_computation_add.1502 {
  parameter.1503 = f32[] parameter(0)
  parameter.1504 = f32[] parameter(1)
  ROOT add.1505 = f32[] add(parameter.1503, parameter.1504)
}

primitive_computation_add.1516 {
  parameter.1517 = f32[] parameter(0)
  parameter.1518 = f32[] parameter(1)
  ROOT add.1519 = f32[] add(parameter.1517, parameter.1518)
}

primitive_computation_add.1584 {
  parameter.1585 = f32[] parameter(0)
  parameter.1586 = f32[] parameter(1)
  ROOT add.1587 = f32[] add(parameter.1585, parameter.1586)
}

primitive_computation_add.1598 {
  parameter.1599 = f32[] parameter(0)
  parameter.1600 = f32[] parameter(1)
  ROOT add.1601 = f32[] add(parameter.1599, parameter.1600)
}

primitive_computation_add.1666 {
  parameter.1667 = f32[] parameter(0)
  parameter.1668 = f32[] parameter(1)
  ROOT add.1669 = f32[] add(parameter.1667, parameter.1668)
}

primitive_computation_add.1680 {
  parameter.1681 = f32[] parameter(0)
  parameter.1682 = f32[] parameter(1)
  ROOT add.1683 = f32[] add(parameter.1681, parameter.1682)
}

primitive_computation_add.1737 {
  parameter.1738 = f32[] parameter(0)
  parameter.1739 = f32[] parameter(1)
  ROOT add.1740 = f32[] add(parameter.1738, parameter.1739)
}

primitive_computation_add.1751 {
  parameter.1752 = f32[] parameter(0)
  parameter.1753 = f32[] parameter(1)
  ROOT add.1754 = f32[] add(parameter.1752, parameter.1753)
}

primitive_computation_add.1820 {
  parameter.1821 = f32[] parameter(0)
  parameter.1822 = f32[] parameter(1)
  ROOT add.1823 = f32[] add(parameter.1821, parameter.1822)
}

primitive_computation_add.1834 {
  parameter.1835 = f32[] parameter(0)
  parameter.1836 = f32[] parameter(1)
  ROOT add.1837 = f32[] add(parameter.1835, parameter.1836)
}

primitive_computation_add.1902 {
  parameter.1903 = f32[] parameter(0)
  parameter.1904 = f32[] parameter(1)
  ROOT add.1905 = f32[] add(parameter.1903, parameter.1904)
}

primitive_computation_add.1916 {
  parameter.1917 = f32[] parameter(0)
  parameter.1918 = f32[] parameter(1)
  ROOT add.1919 = f32[] add(parameter.1917, parameter.1918)
}

primitive_computation_add.1984 {
  parameter.1985 = f32[] parameter(0)
  parameter.1986 = f32[] parameter(1)
  ROOT add.1987 = f32[] add(parameter.1985, parameter.1986)
}

primitive_computation_add.1998 {
  parameter.1999 = f32[] parameter(0)
  parameter.2000 = f32[] parameter(1)
  ROOT add.2001 = f32[] add(parameter.1999, parameter.2000)
}

primitive_computation_add.2067 {
  parameter.2068 = f32[] parameter(0)
  parameter.2069 = f32[] parameter(1)
  ROOT add.2070 = f32[] add(parameter.2068, parameter.2069)
}

primitive_computation_add.2081 {
  parameter.2082 = f32[] parameter(0)
  parameter.2083 = f32[] parameter(1)
  ROOT add.2084 = f32[] add(parameter.2082, parameter.2083)
}

primitive_computation_add.2149 {
  parameter.2150 = f32[] parameter(0)
  parameter.2151 = f32[] parameter(1)
  ROOT add.2152 = f32[] add(parameter.2150, parameter.2151)
}

primitive_computation_add.2163 {
  parameter.2164 = f32[] parameter(0)
  parameter.2165 = f32[] parameter(1)
  ROOT add.2166 = f32[] add(parameter.2164, parameter.2165)
}

primitive_computation_add.2231 {
  parameter.2232 = f32[] parameter(0)
  parameter.2233 = f32[] parameter(1)
  ROOT add.2234 = f32[] add(parameter.2232, parameter.2233)
}

primitive_computation_add.2245 {
  parameter.2246 = f32[] parameter(0)
  parameter.2247 = f32[] parameter(1)
  ROOT add.2248 = f32[] add(parameter.2246, parameter.2247)
}

primitive_computation_add.2314 {
  parameter.2315 = f32[] parameter(0)
  parameter.2316 = f32[] parameter(1)
  ROOT add.2317 = f32[] add(parameter.2315, parameter.2316)
}

primitive_computation_add.2328 {
  parameter.2329 = f32[] parameter(0)
  parameter.2330 = f32[] parameter(1)
  ROOT add.2331 = f32[] add(parameter.2329, parameter.2330)
}

primitive_computation_add.2396 {
  parameter.2397 = f32[] parameter(0)
  parameter.2398 = f32[] parameter(1)
  ROOT add.2399 = f32[] add(parameter.2397, parameter.2398)
}

primitive_computation_add.2410 {
  parameter.2411 = f32[] parameter(0)
  parameter.2412 = f32[] parameter(1)
  ROOT add.2413 = f32[] add(parameter.2411, parameter.2412)
}

primitive_computation_add.2478 {
  parameter.2479 = f32[] parameter(0)
  parameter.2480 = f32[] parameter(1)
  ROOT add.2481 = f32[] add(parameter.2479, parameter.2480)
}

primitive_computation_add.2492 {
  parameter.2493 = f32[] parameter(0)
  parameter.2494 = f32[] parameter(1)
  ROOT add.2495 = f32[] add(parameter.2493, parameter.2494)
}

primitive_computation_add.2561 {
  parameter.2562 = f32[] parameter(0)
  parameter.2563 = f32[] parameter(1)
  ROOT add.2564 = f32[] add(parameter.2562, parameter.2563)
}

primitive_computation_add.2575 {
  parameter.2576 = f32[] parameter(0)
  parameter.2577 = f32[] parameter(1)
  ROOT add.2578 = f32[] add(parameter.2576, parameter.2577)
}

primitive_computation_add.2643 {
  parameter.2644 = f32[] parameter(0)
  parameter.2645 = f32[] parameter(1)
  ROOT add.2646 = f32[] add(parameter.2644, parameter.2645)
}

primitive_computation_add.2657 {
  parameter.2658 = f32[] parameter(0)
  parameter.2659 = f32[] parameter(1)
  ROOT add.2660 = f32[] add(parameter.2658, parameter.2659)
}

primitive_computation_add.2725 {
  parameter.2726 = f32[] parameter(0)
  parameter.2727 = f32[] parameter(1)
  ROOT add.2728 = f32[] add(parameter.2726, parameter.2727)
}

primitive_computation_add.2739 {
  parameter.2740 = f32[] parameter(0)
  parameter.2741 = f32[] parameter(1)
  ROOT add.2742 = f32[] add(parameter.2740, parameter.2741)
}

primitive_computation_add.2796 {
  parameter.2797 = f32[] parameter(0)
  parameter.2798 = f32[] parameter(1)
  ROOT add.2799 = f32[] add(parameter.2797, parameter.2798)
}

primitive_computation_add.2810 {
  parameter.2811 = f32[] parameter(0)
  parameter.2812 = f32[] parameter(1)
  ROOT add.2813 = f32[] add(parameter.2811, parameter.2812)
}

primitive_computation_add.2879 {
  parameter.2880 = f32[] parameter(0)
  parameter.2881 = f32[] parameter(1)
  ROOT add.2882 = f32[] add(parameter.2880, parameter.2881)
}

primitive_computation_add.2893 {
  parameter.2894 = f32[] parameter(0)
  parameter.2895 = f32[] parameter(1)
  ROOT add.2896 = f32[] add(parameter.2894, parameter.2895)
}

primitive_computation_add.2961 {
  parameter.2962 = f32[] parameter(0)
  parameter.2963 = f32[] parameter(1)
  ROOT add.2964 = f32[] add(parameter.2962, parameter.2963)
}

primitive_computation_add.2975 {
  parameter.2976 = f32[] parameter(0)
  parameter.2977 = f32[] parameter(1)
  ROOT add.2978 = f32[] add(parameter.2976, parameter.2977)
}

primitive_computation_add.3043 {
  parameter.3044 = f32[] parameter(0)
  parameter.3045 = f32[] parameter(1)
  ROOT add.3046 = f32[] add(parameter.3044, parameter.3045)
}

primitive_computation_add.3057 {
  parameter.3058 = f32[] parameter(0)
  parameter.3059 = f32[] parameter(1)
  ROOT add.3060 = f32[] add(parameter.3058, parameter.3059)
}

primitive_computation_add.3126 {
  parameter.3127 = f32[] parameter(0)
  parameter.3128 = f32[] parameter(1)
  ROOT add.3129 = f32[] add(parameter.3127, parameter.3128)
}

primitive_computation_add.3140 {
  parameter.3141 = f32[] parameter(0)
  parameter.3142 = f32[] parameter(1)
  ROOT add.3143 = f32[] add(parameter.3141, parameter.3142)
}

primitive_computation_add.3208 {
  parameter.3209 = f32[] parameter(0)
  parameter.3210 = f32[] parameter(1)
  ROOT add.3211 = f32[] add(parameter.3209, parameter.3210)
}

primitive_computation_add.3222 {
  parameter.3223 = f32[] parameter(0)
  parameter.3224 = f32[] parameter(1)
  ROOT add.3225 = f32[] add(parameter.3223, parameter.3224)
}

primitive_computation_add.3290 {
  parameter.3291 = f32[] parameter(0)
  parameter.3292 = f32[] parameter(1)
  ROOT add.3293 = f32[] add(parameter.3291, parameter.3292)
}

primitive_computation_add.3304 {
  parameter.3305 = f32[] parameter(0)
  parameter.3306 = f32[] parameter(1)
  ROOT add.3307 = f32[] add(parameter.3305, parameter.3306)
}

primitive_computation_add.3373 {
  parameter.3374 = f32[] parameter(0)
  parameter.3375 = f32[] parameter(1)
  ROOT add.3376 = f32[] add(parameter.3374, parameter.3375)
}

primitive_computation_add.3387 {
  parameter.3388 = f32[] parameter(0)
  parameter.3389 = f32[] parameter(1)
  ROOT add.3390 = f32[] add(parameter.3388, parameter.3389)
}

primitive_computation_add.3455 {
  parameter.3456 = f32[] parameter(0)
  parameter.3457 = f32[] parameter(1)
  ROOT add.3458 = f32[] add(parameter.3456, parameter.3457)
}

primitive_computation_add.3469 {
  parameter.3470 = f32[] parameter(0)
  parameter.3471 = f32[] parameter(1)
  ROOT add.3472 = f32[] add(parameter.3470, parameter.3471)
}

primitive_computation_add.3537 {
  parameter.3538 = f32[] parameter(0)
  parameter.3539 = f32[] parameter(1)
  ROOT add.3540 = f32[] add(parameter.3538, parameter.3539)
}

primitive_computation_add.3551 {
  parameter.3552 = f32[] parameter(0)
  parameter.3553 = f32[] parameter(1)
  ROOT add.3554 = f32[] add(parameter.3552, parameter.3553)
}

primitive_computation_add.3620 {
  parameter.3621 = f32[] parameter(0)
  parameter.3622 = f32[] parameter(1)
  ROOT add.3623 = f32[] add(parameter.3621, parameter.3622)
}

primitive_computation_add.3634 {
  parameter.3635 = f32[] parameter(0)
  parameter.3636 = f32[] parameter(1)
  ROOT add.3637 = f32[] add(parameter.3635, parameter.3636)
}

primitive_computation_add.3702 {
  parameter.3703 = f32[] parameter(0)
  parameter.3704 = f32[] parameter(1)
  ROOT add.3705 = f32[] add(parameter.3703, parameter.3704)
}

primitive_computation_add.3716 {
  parameter.3717 = f32[] parameter(0)
  parameter.3718 = f32[] parameter(1)
  ROOT add.3719 = f32[] add(parameter.3717, parameter.3718)
}

primitive_computation_add.3784 {
  parameter.3785 = f32[] parameter(0)
  parameter.3786 = f32[] parameter(1)
  ROOT add.3787 = f32[] add(parameter.3785, parameter.3786)
}

primitive_computation_add.3798 {
  parameter.3799 = f32[] parameter(0)
  parameter.3800 = f32[] parameter(1)
  ROOT add.3801 = f32[] add(parameter.3799, parameter.3800)
}

primitive_computation_add.3867 {
  parameter.3868 = f32[] parameter(0)
  parameter.3869 = f32[] parameter(1)
  ROOT add.3870 = f32[] add(parameter.3868, parameter.3869)
}

primitive_computation_add.3881 {
  parameter.3882 = f32[] parameter(0)
  parameter.3883 = f32[] parameter(1)
  ROOT add.3884 = f32[] add(parameter.3882, parameter.3883)
}

primitive_computation_add.3949 {
  parameter.3950 = f32[] parameter(0)
  parameter.3951 = f32[] parameter(1)
  ROOT add.3952 = f32[] add(parameter.3950, parameter.3951)
}

primitive_computation_add.3963 {
  parameter.3964 = f32[] parameter(0)
  parameter.3965 = f32[] parameter(1)
  ROOT add.3966 = f32[] add(parameter.3964, parameter.3965)
}

primitive_computation_add.4031 {
  parameter.4032 = f32[] parameter(0)
  parameter.4033 = f32[] parameter(1)
  ROOT add.4034 = f32[] add(parameter.4032, parameter.4033)
}

primitive_computation_add.4045 {
  parameter.4046 = f32[] parameter(0)
  parameter.4047 = f32[] parameter(1)
  ROOT add.4048 = f32[] add(parameter.4046, parameter.4047)
}

primitive_computation_add.4114 {
  parameter.4115 = f32[] parameter(0)
  parameter.4116 = f32[] parameter(1)
  ROOT add.4117 = f32[] add(parameter.4115, parameter.4116)
}

primitive_computation_add.4128 {
  parameter.4129 = f32[] parameter(0)
  parameter.4130 = f32[] parameter(1)
  ROOT add.4131 = f32[] add(parameter.4129, parameter.4130)
}

primitive_computation_add.4196 {
  parameter.4197 = f32[] parameter(0)
  parameter.4198 = f32[] parameter(1)
  ROOT add.4199 = f32[] add(parameter.4197, parameter.4198)
}

primitive_computation_add.4210 {
  parameter.4211 = f32[] parameter(0)
  parameter.4212 = f32[] parameter(1)
  ROOT add.4213 = f32[] add(parameter.4211, parameter.4212)
}

primitive_computation_add.4278 {
  parameter.4279 = f32[] parameter(0)
  parameter.4280 = f32[] parameter(1)
  ROOT add.4281 = f32[] add(parameter.4279, parameter.4280)
}

primitive_computation_add.4292 {
  parameter.4293 = f32[] parameter(0)
  parameter.4294 = f32[] parameter(1)
  ROOT add.4295 = f32[] add(parameter.4293, parameter.4294)
}

primitive_computation_add.4349 {
  parameter.4350 = f32[] parameter(0)
  parameter.4351 = f32[] parameter(1)
  ROOT add.4352 = f32[] add(parameter.4350, parameter.4351)
}

primitive_computation_add.4363 {
  parameter.4364 = f32[] parameter(0)
  parameter.4365 = f32[] parameter(1)
  ROOT add.4366 = f32[] add(parameter.4364, parameter.4365)
}

primitive_computation_add.4432 {
  parameter.4433 = f32[] parameter(0)
  parameter.4434 = f32[] parameter(1)
  ROOT add.4435 = f32[] add(parameter.4433, parameter.4434)
}

primitive_computation_add.4446 {
  parameter.4447 = f32[] parameter(0)
  parameter.4448 = f32[] parameter(1)
  ROOT add.4449 = f32[] add(parameter.4447, parameter.4448)
}

primitive_computation_add.4514 {
  parameter.4515 = f32[] parameter(0)
  parameter.4516 = f32[] parameter(1)
  ROOT add.4517 = f32[] add(parameter.4515, parameter.4516)
}

primitive_computation_add.4528 {
  parameter.4529 = f32[] parameter(0)
  parameter.4530 = f32[] parameter(1)
  ROOT add.4531 = f32[] add(parameter.4529, parameter.4530)
}

primitive_computation_add.4596 {
  parameter.4597 = f32[] parameter(0)
  parameter.4598 = f32[] parameter(1)
  ROOT add.4599 = f32[] add(parameter.4597, parameter.4598)
}

primitive_computation_add.4610 {
  parameter.4611 = f32[] parameter(0)
  parameter.4612 = f32[] parameter(1)
  ROOT add.4613 = f32[] add(parameter.4611, parameter.4612)
}

primitive_computation_add.4679 {
  parameter.4680 = f32[] parameter(0)
  parameter.4681 = f32[] parameter(1)
  ROOT add.4682 = f32[] add(parameter.4680, parameter.4681)
}

primitive_computation_add.4693 {
  parameter.4694 = f32[] parameter(0)
  parameter.4695 = f32[] parameter(1)
  ROOT add.4696 = f32[] add(parameter.4694, parameter.4695)
}

primitive_computation_add.4761 {
  parameter.4762 = f32[] parameter(0)
  parameter.4763 = f32[] parameter(1)
  ROOT add.4764 = f32[] add(parameter.4762, parameter.4763)
}

primitive_computation_add.4775 {
  parameter.4776 = f32[] parameter(0)
  parameter.4777 = f32[] parameter(1)
  ROOT add.4778 = f32[] add(parameter.4776, parameter.4777)
}

primitive_computation_add.4843 {
  parameter.4844 = f32[] parameter(0)
  parameter.4845 = f32[] parameter(1)
  ROOT add.4846 = f32[] add(parameter.4844, parameter.4845)
}

primitive_computation_add.4857 {
  parameter.4858 = f32[] parameter(0)
  parameter.4859 = f32[] parameter(1)
  ROOT add.4860 = f32[] add(parameter.4858, parameter.4859)
}

primitive_computation_add.4924 {
  parameter.4925 = f32[] parameter(0)
  parameter.4926 = f32[] parameter(1)
  ROOT add.4927 = f32[] add(parameter.4925, parameter.4926)
}

primitive_computation_max__1.4946 {
  parameter.4947 = f32[] parameter(0)
  parameter.4948 = f32[] parameter(1)
  ROOT maximum.4949 = f32[] maximum(parameter.4947, parameter.4948)
}

primitive_computation_add.4957 {
  parameter.4958 = f32[] parameter(0)
  parameter.4959 = f32[] parameter(1)
  ROOT add.4960 = f32[] add(parameter.4958, parameter.4959)
}

primitive_computation_add.4968 {
  parameter.4969 = f32[] parameter(0)
  parameter.4970 = f32[] parameter(1)
  ROOT add.4971 = f32[] add(parameter.4969, parameter.4970)
}

primitive_computation_add.4993 {
  parameter.4994 = f32[] parameter(0)
  parameter.4995 = f32[] parameter(1)
  ROOT add.4996 = f32[] add(parameter.4994, parameter.4995)
}

primitive_computation_add.5006 {
  parameter.5007 = f32[] parameter(0)
  parameter.5008 = f32[] parameter(1)
  ROOT add.5009 = f32[] add(parameter.5007, parameter.5008)
}

primitive_computation_add.5016 {
  parameter.5017 = f32[] parameter(0)
  parameter.5018 = f32[] parameter(1)
  ROOT add.5019 = f32[] add(parameter.5017, parameter.5018)
}

primitive_computation_add.5026 {
  parameter.5027 = f32[] parameter(0)
  parameter.5028 = f32[] parameter(1)
  ROOT add.5029 = f32[] add(parameter.5027, parameter.5028)
}

primitive_computation_add.5036 {
  parameter.5037 = f32[] parameter(0)
  parameter.5038 = f32[] parameter(1)
  ROOT add.5039 = f32[] add(parameter.5037, parameter.5038)
}

primitive_computation_add.5046 {
  parameter.5047 = f32[] parameter(0)
  parameter.5048 = f32[] parameter(1)
  ROOT add.5049 = f32[] add(parameter.5047, parameter.5048)
}

primitive_computation_add.5056 {
  parameter.5057 = f32[] parameter(0)
  parameter.5058 = f32[] parameter(1)
  ROOT add.5059 = f32[] add(parameter.5057, parameter.5058)
}

primitive_computation_add.5066 {
  parameter.5067 = f32[] parameter(0)
  parameter.5068 = f32[] parameter(1)
  ROOT add.5069 = f32[] add(parameter.5067, parameter.5068)
}

primitive_computation_add.5076 {
  parameter.5077 = f32[] parameter(0)
  parameter.5078 = f32[] parameter(1)
  ROOT add.5079 = f32[] add(parameter.5077, parameter.5078)
}

primitive_computation_add.5086 {
  parameter.5087 = f32[] parameter(0)
  parameter.5088 = f32[] parameter(1)
  ROOT add.5089 = f32[] add(parameter.5087, parameter.5088)
}

primitive_computation_add.5096 {
  parameter.5097 = f32[] parameter(0)
  parameter.5098 = f32[] parameter(1)
  ROOT add.5099 = f32[] add(parameter.5097, parameter.5098)
}

primitive_computation_add.5106 {
  parameter.5107 = f32[] parameter(0)
  parameter.5108 = f32[] parameter(1)
  ROOT add.5109 = f32[] add(parameter.5107, parameter.5108)
}

primitive_computation_add.5116 {
  parameter.5117 = f32[] parameter(0)
  parameter.5118 = f32[] parameter(1)
  ROOT add.5119 = f32[] add(parameter.5117, parameter.5118)
}

primitive_computation_add.5126 {
  parameter.5127 = f32[] parameter(0)
  parameter.5128 = f32[] parameter(1)
  ROOT add.5129 = f32[] add(parameter.5127, parameter.5128)
}

primitive_computation_add.5136 {
  parameter.5137 = f32[] parameter(0)
  parameter.5138 = f32[] parameter(1)
  ROOT add.5139 = f32[] add(parameter.5137, parameter.5138)
}

primitive_computation_add.5146 {
  parameter.5147 = f32[] parameter(0)
  parameter.5148 = f32[] parameter(1)
  ROOT add.5149 = f32[] add(parameter.5147, parameter.5148)
}

primitive_computation_add.5156 {
  parameter.5157 = f32[] parameter(0)
  parameter.5158 = f32[] parameter(1)
  ROOT add.5159 = f32[] add(parameter.5157, parameter.5158)
}

primitive_computation_add.5166 {
  parameter.5167 = f32[] parameter(0)
  parameter.5168 = f32[] parameter(1)
  ROOT add.5169 = f32[] add(parameter.5167, parameter.5168)
}

primitive_computation_add.5176 {
  parameter.5177 = f32[] parameter(0)
  parameter.5178 = f32[] parameter(1)
  ROOT add.5179 = f32[] add(parameter.5177, parameter.5178)
}

primitive_computation_add.5186 {
  parameter.5187 = f32[] parameter(0)
  parameter.5188 = f32[] parameter(1)
  ROOT add.5189 = f32[] add(parameter.5187, parameter.5188)
}

primitive_computation_add.5196 {
  parameter.5197 = f32[] parameter(0)
  parameter.5198 = f32[] parameter(1)
  ROOT add.5199 = f32[] add(parameter.5197, parameter.5198)
}

primitive_computation_add.5206 {
  parameter.5207 = f32[] parameter(0)
  parameter.5208 = f32[] parameter(1)
  ROOT add.5209 = f32[] add(parameter.5207, parameter.5208)
}

primitive_computation_add.5216 {
  parameter.5217 = f32[] parameter(0)
  parameter.5218 = f32[] parameter(1)
  ROOT add.5219 = f32[] add(parameter.5217, parameter.5218)
}

primitive_computation_add.5226 {
  parameter.5227 = f32[] parameter(0)
  parameter.5228 = f32[] parameter(1)
  ROOT add.5229 = f32[] add(parameter.5227, parameter.5228)
}

primitive_computation_add.5236 {
  parameter.5237 = f32[] parameter(0)
  parameter.5238 = f32[] parameter(1)
  ROOT add.5239 = f32[] add(parameter.5237, parameter.5238)
}

primitive_computation_add.5246 {
  parameter.5247 = f32[] parameter(0)
  parameter.5248 = f32[] parameter(1)
  ROOT add.5249 = f32[] add(parameter.5247, parameter.5248)
}

primitive_computation_add.5256 {
  parameter.5257 = f32[] parameter(0)
  parameter.5258 = f32[] parameter(1)
  ROOT add.5259 = f32[] add(parameter.5257, parameter.5258)
}

primitive_computation_add.5266 {
  parameter.5267 = f32[] parameter(0)
  parameter.5268 = f32[] parameter(1)
  ROOT add.5269 = f32[] add(parameter.5267, parameter.5268)
}

primitive_computation_add.5276 {
  parameter.5277 = f32[] parameter(0)
  parameter.5278 = f32[] parameter(1)
  ROOT add.5279 = f32[] add(parameter.5277, parameter.5278)
}

primitive_computation_add.5286 {
  parameter.5287 = f32[] parameter(0)
  parameter.5288 = f32[] parameter(1)
  ROOT add.5289 = f32[] add(parameter.5287, parameter.5288)
}

primitive_computation_add.5296 {
  parameter.5297 = f32[] parameter(0)
  parameter.5298 = f32[] parameter(1)
  ROOT add.5299 = f32[] add(parameter.5297, parameter.5298)
}

primitive_computation_add.5306 {
  parameter.5307 = f32[] parameter(0)
  parameter.5308 = f32[] parameter(1)
  ROOT add.5309 = f32[] add(parameter.5307, parameter.5308)
}

primitive_computation_add.5316 {
  parameter.5317 = f32[] parameter(0)
  parameter.5318 = f32[] parameter(1)
  ROOT add.5319 = f32[] add(parameter.5317, parameter.5318)
}

primitive_computation_add.5326 {
  parameter.5327 = f32[] parameter(0)
  parameter.5328 = f32[] parameter(1)
  ROOT add.5329 = f32[] add(parameter.5327, parameter.5328)
}

primitive_computation_add.5336 {
  parameter.5337 = f32[] parameter(0)
  parameter.5338 = f32[] parameter(1)
  ROOT add.5339 = f32[] add(parameter.5337, parameter.5338)
}

primitive_computation_add.5346 {
  parameter.5347 = f32[] parameter(0)
  parameter.5348 = f32[] parameter(1)
  ROOT add.5349 = f32[] add(parameter.5347, parameter.5348)
}

primitive_computation_add.5356 {
  parameter.5357 = f32[] parameter(0)
  parameter.5358 = f32[] parameter(1)
  ROOT add.5359 = f32[] add(parameter.5357, parameter.5358)
}

primitive_computation_add.5366 {
  parameter.5367 = f32[] parameter(0)
  parameter.5368 = f32[] parameter(1)
  ROOT add.5369 = f32[] add(parameter.5367, parameter.5368)
}

primitive_computation_add.5376 {
  parameter.5377 = f32[] parameter(0)
  parameter.5378 = f32[] parameter(1)
  ROOT add.5379 = f32[] add(parameter.5377, parameter.5378)
}

primitive_computation_add.5386 {
  parameter.5387 = f32[] parameter(0)
  parameter.5388 = f32[] parameter(1)
  ROOT add.5389 = f32[] add(parameter.5387, parameter.5388)
}

primitive_computation_add.5396 {
  parameter.5397 = f32[] parameter(0)
  parameter.5398 = f32[] parameter(1)
  ROOT add.5399 = f32[] add(parameter.5397, parameter.5398)
}

primitive_computation_add.5406 {
  parameter.5407 = f32[] parameter(0)
  parameter.5408 = f32[] parameter(1)
  ROOT add.5409 = f32[] add(parameter.5407, parameter.5408)
}

primitive_computation_add.5416 {
  parameter.5417 = f32[] parameter(0)
  parameter.5418 = f32[] parameter(1)
  ROOT add.5419 = f32[] add(parameter.5417, parameter.5418)
}

primitive_computation_add.5426 {
  parameter.5427 = f32[] parameter(0)
  parameter.5428 = f32[] parameter(1)
  ROOT add.5429 = f32[] add(parameter.5427, parameter.5428)
}

primitive_computation_add.5436 {
  parameter.5437 = f32[] parameter(0)
  parameter.5438 = f32[] parameter(1)
  ROOT add.5439 = f32[] add(parameter.5437, parameter.5438)
}

primitive_computation_add.5446 {
  parameter.5447 = f32[] parameter(0)
  parameter.5448 = f32[] parameter(1)
  ROOT add.5449 = f32[] add(parameter.5447, parameter.5448)
}

primitive_computation_add.5456 {
  parameter.5457 = f32[] parameter(0)
  parameter.5458 = f32[] parameter(1)
  ROOT add.5459 = f32[] add(parameter.5457, parameter.5458)
}

primitive_computation_add.5466 {
  parameter.5467 = f32[] parameter(0)
  parameter.5468 = f32[] parameter(1)
  ROOT add.5469 = f32[] add(parameter.5467, parameter.5468)
}

primitive_computation_add.5476 {
  parameter.5477 = f32[] parameter(0)
  parameter.5478 = f32[] parameter(1)
  ROOT add.5479 = f32[] add(parameter.5477, parameter.5478)
}

primitive_computation_add.5486 {
  parameter.5487 = f32[] parameter(0)
  parameter.5488 = f32[] parameter(1)
  ROOT add.5489 = f32[] add(parameter.5487, parameter.5488)
}

primitive_computation_add.5496 {
  parameter.5497 = f32[] parameter(0)
  parameter.5498 = f32[] parameter(1)
  ROOT add.5499 = f32[] add(parameter.5497, parameter.5498)
}

primitive_computation_add.5506 {
  parameter.5507 = f32[] parameter(0)
  parameter.5508 = f32[] parameter(1)
  ROOT add.5509 = f32[] add(parameter.5507, parameter.5508)
}

primitive_computation_add.5516 {
  parameter.5517 = f32[] parameter(0)
  parameter.5518 = f32[] parameter(1)
  ROOT add.5519 = f32[] add(parameter.5517, parameter.5518)
}

primitive_computation_add.5526 {
  parameter.5527 = f32[] parameter(0)
  parameter.5528 = f32[] parameter(1)
  ROOT add.5529 = f32[] add(parameter.5527, parameter.5528)
}

primitive_computation_add.5536 {
  parameter.5537 = f32[] parameter(0)
  parameter.5538 = f32[] parameter(1)
  ROOT add.5539 = f32[] add(parameter.5537, parameter.5538)
}

primitive_computation_add.5717 {
  parameter.5718 = f32[] parameter(0)
  parameter.5719 = f32[] parameter(1)
  ROOT add.5720 = f32[] add(parameter.5718, parameter.5719)
}

primitive_computation_add.5727 {
  parameter.5728 = f32[] parameter(0)
  parameter.5729 = f32[] parameter(1)
  ROOT add.5730 = f32[] add(parameter.5728, parameter.5729)
}

primitive_computation_add__1.5738 {
  parameter.5739 = bf16[] parameter(0)
  parameter.5740 = bf16[] parameter(1)
  ROOT add.5741 = bf16[] add(parameter.5739, parameter.5740)
}

primitive_computation_add__1.5746 {
  parameter.5747 = bf16[] parameter(0)
  parameter.5748 = bf16[] parameter(1)
  ROOT add.5749 = bf16[] add(parameter.5747, parameter.5748)
}

primitive_computation_add.5768 {
  parameter.5769 = f32[] parameter(0)
  parameter.5770 = f32[] parameter(1)
  ROOT add.5771 = f32[] add(parameter.5769, parameter.5770)
}

primitive_computation_add.5778 {
  parameter.5779 = f32[] parameter(0)
  parameter.5780 = f32[] parameter(1)
  ROOT add.5781 = f32[] add(parameter.5779, parameter.5780)
}

primitive_computation_add.5789 {
  parameter.5790 = f32[] parameter(0)
  parameter.5791 = f32[] parameter(1)
  ROOT add.5792 = f32[] add(parameter.5790, parameter.5791)
}

primitive_computation_add.5807 {
  parameter.5808 = f32[] parameter(0)
  parameter.5809 = f32[] parameter(1)
  ROOT add.5810 = f32[] add(parameter.5808, parameter.5809)
}

primitive_computation_add.5832 {
  parameter.5833 = f32[] parameter(0)
  parameter.5834 = f32[] parameter(1)
  ROOT add.5835 = f32[] add(parameter.5833, parameter.5834)
}

primitive_computation_add.5842 {
  parameter.5843 = f32[] parameter(0)
  parameter.5844 = f32[] parameter(1)
  ROOT add.5845 = f32[] add(parameter.5843, parameter.5844)
}

primitive_computation_add.5853 {
  parameter.5854 = f32[] parameter(0)
  parameter.5855 = f32[] parameter(1)
  ROOT add.5856 = f32[] add(parameter.5854, parameter.5855)
}

primitive_computation_add.5871 {
  parameter.5872 = f32[] parameter(0)
  parameter.5873 = f32[] parameter(1)
  ROOT add.5874 = f32[] add(parameter.5872, parameter.5873)
}

primitive_computation_add.5896 {
  parameter.5897 = f32[] parameter(0)
  parameter.5898 = f32[] parameter(1)
  ROOT add.5899 = f32[] add(parameter.5897, parameter.5898)
}

primitive_computation_add.5906 {
  parameter.5907 = f32[] parameter(0)
  parameter.5908 = f32[] parameter(1)
  ROOT add.5909 = f32[] add(parameter.5907, parameter.5908)
}

primitive_computation_add.5917 {
  parameter.5918 = f32[] parameter(0)
  parameter.5919 = f32[] parameter(1)
  ROOT add.5920 = f32[] add(parameter.5918, parameter.5919)
}

primitive_computation_add.5935 {
  parameter.5936 = f32[] parameter(0)
  parameter.5937 = f32[] parameter(1)
  ROOT add.5938 = f32[] add(parameter.5936, parameter.5937)
}

primitive_computation_add.5961 {
  parameter.5962 = f32[] parameter(0)
  parameter.5963 = f32[] parameter(1)
  ROOT add.5964 = f32[] add(parameter.5962, parameter.5963)
}

primitive_computation_add.5971 {
  parameter.5972 = f32[] parameter(0)
  parameter.5973 = f32[] parameter(1)
  ROOT add.5974 = f32[] add(parameter.5972, parameter.5973)
}

primitive_computation_add.5982 {
  parameter.5983 = f32[] parameter(0)
  parameter.5984 = f32[] parameter(1)
  ROOT add.5985 = f32[] add(parameter.5983, parameter.5984)
}

primitive_computation_add.6000 {
  parameter.6001 = f32[] parameter(0)
  parameter.6002 = f32[] parameter(1)
  ROOT add.6003 = f32[] add(parameter.6001, parameter.6002)
}

primitive_computation_add.6025 {
  parameter.6026 = f32[] parameter(0)
  parameter.6027 = f32[] parameter(1)
  ROOT add.6028 = f32[] add(parameter.6026, parameter.6027)
}

primitive_computation_add.6035 {
  parameter.6036 = f32[] parameter(0)
  parameter.6037 = f32[] parameter(1)
  ROOT add.6038 = f32[] add(parameter.6036, parameter.6037)
}

primitive_computation_add.6046 {
  parameter.6047 = f32[] parameter(0)
  parameter.6048 = f32[] parameter(1)
  ROOT add.6049 = f32[] add(parameter.6047, parameter.6048)
}

primitive_computation_add.6064 {
  parameter.6065 = f32[] parameter(0)
  parameter.6066 = f32[] parameter(1)
  ROOT add.6067 = f32[] add(parameter.6065, parameter.6066)
}

primitive_computation_add.6089 {
  parameter.6090 = f32[] parameter(0)
  parameter.6091 = f32[] parameter(1)
  ROOT add.6092 = f32[] add(parameter.6090, parameter.6091)
}

primitive_computation_add.6099 {
  parameter.6100 = f32[] parameter(0)
  parameter.6101 = f32[] parameter(1)
  ROOT add.6102 = f32[] add(parameter.6100, parameter.6101)
}

primitive_computation_add.6110 {
  parameter.6111 = f32[] parameter(0)
  parameter.6112 = f32[] parameter(1)
  ROOT add.6113 = f32[] add(parameter.6111, parameter.6112)
}

primitive_computation_add.6128 {
  parameter.6129 = f32[] parameter(0)
  parameter.6130 = f32[] parameter(1)
  ROOT add.6131 = f32[] add(parameter.6129, parameter.6130)
}

primitive_computation_add.6154 {
  parameter.6155 = f32[] parameter(0)
  parameter.6156 = f32[] parameter(1)
  ROOT add.6157 = f32[] add(parameter.6155, parameter.6156)
}

primitive_computation_add.6164 {
  parameter.6165 = f32[] parameter(0)
  parameter.6166 = f32[] parameter(1)
  ROOT add.6167 = f32[] add(parameter.6165, parameter.6166)
}

primitive_computation_add.6175 {
  parameter.6176 = f32[] parameter(0)
  parameter.6177 = f32[] parameter(1)
  ROOT add.6178 = f32[] add(parameter.6176, parameter.6177)
}

primitive_computation_add.6193 {
  parameter.6194 = f32[] parameter(0)
  parameter.6195 = f32[] parameter(1)
  ROOT add.6196 = f32[] add(parameter.6194, parameter.6195)
}

primitive_computation_add.6218 {
  parameter.6219 = f32[] parameter(0)
  parameter.6220 = f32[] parameter(1)
  ROOT add.6221 = f32[] add(parameter.6219, parameter.6220)
}

primitive_computation_add.6228 {
  parameter.6229 = f32[] parameter(0)
  parameter.6230 = f32[] parameter(1)
  ROOT add.6231 = f32[] add(parameter.6229, parameter.6230)
}

primitive_computation_add.6239 {
  parameter.6240 = f32[] parameter(0)
  parameter.6241 = f32[] parameter(1)
  ROOT add.6242 = f32[] add(parameter.6240, parameter.6241)
}

primitive_computation_add.6257 {
  parameter.6258 = f32[] parameter(0)
  parameter.6259 = f32[] parameter(1)
  ROOT add.6260 = f32[] add(parameter.6258, parameter.6259)
}

primitive_computation_add.6282 {
  parameter.6283 = f32[] parameter(0)
  parameter.6284 = f32[] parameter(1)
  ROOT add.6285 = f32[] add(parameter.6283, parameter.6284)
}

primitive_computation_add.6292 {
  parameter.6293 = f32[] parameter(0)
  parameter.6294 = f32[] parameter(1)
  ROOT add.6295 = f32[] add(parameter.6293, parameter.6294)
}

primitive_computation_add.6303 {
  parameter.6304 = f32[] parameter(0)
  parameter.6305 = f32[] parameter(1)
  ROOT add.6306 = f32[] add(parameter.6304, parameter.6305)
}

primitive_computation_add.6321 {
  parameter.6322 = f32[] parameter(0)
  parameter.6323 = f32[] parameter(1)
  ROOT add.6324 = f32[] add(parameter.6322, parameter.6323)
}

primitive_computation_add.6343 {
  parameter.6344 = f32[] parameter(0)
  parameter.6345 = f32[] parameter(1)
  ROOT add.6346 = f32[] add(parameter.6344, parameter.6345)
}

primitive_computation_add.6353 {
  parameter.6354 = f32[] parameter(0)
  parameter.6355 = f32[] parameter(1)
  ROOT add.6356 = f32[] add(parameter.6354, parameter.6355)
}

primitive_computation_add.6364 {
  parameter.6365 = f32[] parameter(0)
  parameter.6366 = f32[] parameter(1)
  ROOT add.6367 = f32[] add(parameter.6365, parameter.6366)
}

primitive_computation_add.6382 {
  parameter.6383 = f32[] parameter(0)
  parameter.6384 = f32[] parameter(1)
  ROOT add.6385 = f32[] add(parameter.6383, parameter.6384)
}

primitive_computation_add.6408 {
  parameter.6409 = f32[] parameter(0)
  parameter.6410 = f32[] parameter(1)
  ROOT add.6411 = f32[] add(parameter.6409, parameter.6410)
}

primitive_computation_add.6418 {
  parameter.6419 = f32[] parameter(0)
  parameter.6420 = f32[] parameter(1)
  ROOT add.6421 = f32[] add(parameter.6419, parameter.6420)
}

primitive_computation_add.6429 {
  parameter.6430 = f32[] parameter(0)
  parameter.6431 = f32[] parameter(1)
  ROOT add.6432 = f32[] add(parameter.6430, parameter.6431)
}

primitive_computation_add.6447 {
  parameter.6448 = f32[] parameter(0)
  parameter.6449 = f32[] parameter(1)
  ROOT add.6450 = f32[] add(parameter.6448, parameter.6449)
}

primitive_computation_add.6472 {
  parameter.6473 = f32[] parameter(0)
  parameter.6474 = f32[] parameter(1)
  ROOT add.6475 = f32[] add(parameter.6473, parameter.6474)
}

primitive_computation_add.6482 {
  parameter.6483 = f32[] parameter(0)
  parameter.6484 = f32[] parameter(1)
  ROOT add.6485 = f32[] add(parameter.6483, parameter.6484)
}

primitive_computation_add.6493 {
  parameter.6494 = f32[] parameter(0)
  parameter.6495 = f32[] parameter(1)
  ROOT add.6496 = f32[] add(parameter.6494, parameter.6495)
}

primitive_computation_add.6511 {
  parameter.6512 = f32[] parameter(0)
  parameter.6513 = f32[] parameter(1)
  ROOT add.6514 = f32[] add(parameter.6512, parameter.6513)
}

primitive_computation_add.6536 {
  parameter.6537 = f32[] parameter(0)
  parameter.6538 = f32[] parameter(1)
  ROOT add.6539 = f32[] add(parameter.6537, parameter.6538)
}

primitive_computation_add.6546 {
  parameter.6547 = f32[] parameter(0)
  parameter.6548 = f32[] parameter(1)
  ROOT add.6549 = f32[] add(parameter.6547, parameter.6548)
}

primitive_computation_add.6557 {
  parameter.6558 = f32[] parameter(0)
  parameter.6559 = f32[] parameter(1)
  ROOT add.6560 = f32[] add(parameter.6558, parameter.6559)
}

primitive_computation_add.6575 {
  parameter.6576 = f32[] parameter(0)
  parameter.6577 = f32[] parameter(1)
  ROOT add.6578 = f32[] add(parameter.6576, parameter.6577)
}

primitive_computation_add.6601 {
  parameter.6602 = f32[] parameter(0)
  parameter.6603 = f32[] parameter(1)
  ROOT add.6604 = f32[] add(parameter.6602, parameter.6603)
}

primitive_computation_add.6611 {
  parameter.6612 = f32[] parameter(0)
  parameter.6613 = f32[] parameter(1)
  ROOT add.6614 = f32[] add(parameter.6612, parameter.6613)
}

primitive_computation_add.6622 {
  parameter.6623 = f32[] parameter(0)
  parameter.6624 = f32[] parameter(1)
  ROOT add.6625 = f32[] add(parameter.6623, parameter.6624)
}

primitive_computation_add.6640 {
  parameter.6641 = f32[] parameter(0)
  parameter.6642 = f32[] parameter(1)
  ROOT add.6643 = f32[] add(parameter.6641, parameter.6642)
}

primitive_computation_add.6665 {
  parameter.6666 = f32[] parameter(0)
  parameter.6667 = f32[] parameter(1)
  ROOT add.6668 = f32[] add(parameter.6666, parameter.6667)
}

primitive_computation_add.6675 {
  parameter.6676 = f32[] parameter(0)
  parameter.6677 = f32[] parameter(1)
  ROOT add.6678 = f32[] add(parameter.6676, parameter.6677)
}

primitive_computation_add.6686 {
  parameter.6687 = f32[] parameter(0)
  parameter.6688 = f32[] parameter(1)
  ROOT add.6689 = f32[] add(parameter.6687, parameter.6688)
}

primitive_computation_add.6704 {
  parameter.6705 = f32[] parameter(0)
  parameter.6706 = f32[] parameter(1)
  ROOT add.6707 = f32[] add(parameter.6705, parameter.6706)
}

primitive_computation_add.6729 {
  parameter.6730 = f32[] parameter(0)
  parameter.6731 = f32[] parameter(1)
  ROOT add.6732 = f32[] add(parameter.6730, parameter.6731)
}

primitive_computation_add.6739 {
  parameter.6740 = f32[] parameter(0)
  parameter.6741 = f32[] parameter(1)
  ROOT add.6742 = f32[] add(parameter.6740, parameter.6741)
}

primitive_computation_add.6750 {
  parameter.6751 = f32[] parameter(0)
  parameter.6752 = f32[] parameter(1)
  ROOT add.6753 = f32[] add(parameter.6751, parameter.6752)
}

primitive_computation_add.6768 {
  parameter.6769 = f32[] parameter(0)
  parameter.6770 = f32[] parameter(1)
  ROOT add.6771 = f32[] add(parameter.6769, parameter.6770)
}

primitive_computation_add.6794 {
  parameter.6795 = f32[] parameter(0)
  parameter.6796 = f32[] parameter(1)
  ROOT add.6797 = f32[] add(parameter.6795, parameter.6796)
}

primitive_computation_add.6804 {
  parameter.6805 = f32[] parameter(0)
  parameter.6806 = f32[] parameter(1)
  ROOT add.6807 = f32[] add(parameter.6805, parameter.6806)
}

primitive_computation_add.6815 {
  parameter.6816 = f32[] parameter(0)
  parameter.6817 = f32[] parameter(1)
  ROOT add.6818 = f32[] add(parameter.6816, parameter.6817)
}

primitive_computation_add.6833 {
  parameter.6834 = f32[] parameter(0)
  parameter.6835 = f32[] parameter(1)
  ROOT add.6836 = f32[] add(parameter.6834, parameter.6835)
}

primitive_computation_add.6858 {
  parameter.6859 = f32[] parameter(0)
  parameter.6860 = f32[] parameter(1)
  ROOT add.6861 = f32[] add(parameter.6859, parameter.6860)
}

primitive_computation_add.6868 {
  parameter.6869 = f32[] parameter(0)
  parameter.6870 = f32[] parameter(1)
  ROOT add.6871 = f32[] add(parameter.6869, parameter.6870)
}

primitive_computation_add.6879 {
  parameter.6880 = f32[] parameter(0)
  parameter.6881 = f32[] parameter(1)
  ROOT add.6882 = f32[] add(parameter.6880, parameter.6881)
}

primitive_computation_add.6897 {
  parameter.6898 = f32[] parameter(0)
  parameter.6899 = f32[] parameter(1)
  ROOT add.6900 = f32[] add(parameter.6898, parameter.6899)
}

primitive_computation_add.6922 {
  parameter.6923 = f32[] parameter(0)
  parameter.6924 = f32[] parameter(1)
  ROOT add.6925 = f32[] add(parameter.6923, parameter.6924)
}

primitive_computation_add.6932 {
  parameter.6933 = f32[] parameter(0)
  parameter.6934 = f32[] parameter(1)
  ROOT add.6935 = f32[] add(parameter.6933, parameter.6934)
}

primitive_computation_add.6943 {
  parameter.6944 = f32[] parameter(0)
  parameter.6945 = f32[] parameter(1)
  ROOT add.6946 = f32[] add(parameter.6944, parameter.6945)
}

primitive_computation_add.6961 {
  parameter.6962 = f32[] parameter(0)
  parameter.6963 = f32[] parameter(1)
  ROOT add.6964 = f32[] add(parameter.6962, parameter.6963)
}

primitive_computation_add.6987 {
  parameter.6988 = f32[] parameter(0)
  parameter.6989 = f32[] parameter(1)
  ROOT add.6990 = f32[] add(parameter.6988, parameter.6989)
}

primitive_computation_add.6997 {
  parameter.6998 = f32[] parameter(0)
  parameter.6999 = f32[] parameter(1)
  ROOT add.7000 = f32[] add(parameter.6998, parameter.6999)
}

primitive_computation_add.7008 {
  parameter.7009 = f32[] parameter(0)
  parameter.7010 = f32[] parameter(1)
  ROOT add.7011 = f32[] add(parameter.7009, parameter.7010)
}

primitive_computation_add.7026 {
  parameter.7027 = f32[] parameter(0)
  parameter.7028 = f32[] parameter(1)
  ROOT add.7029 = f32[] add(parameter.7027, parameter.7028)
}

primitive_computation_add.7051 {
  parameter.7052 = f32[] parameter(0)
  parameter.7053 = f32[] parameter(1)
  ROOT add.7054 = f32[] add(parameter.7052, parameter.7053)
}

primitive_computation_add.7061 {
  parameter.7062 = f32[] parameter(0)
  parameter.7063 = f32[] parameter(1)
  ROOT add.7064 = f32[] add(parameter.7062, parameter.7063)
}

primitive_computation_add.7072 {
  parameter.7073 = f32[] parameter(0)
  parameter.7074 = f32[] parameter(1)
  ROOT add.7075 = f32[] add(parameter.7073, parameter.7074)
}

primitive_computation_add.7090 {
  parameter.7091 = f32[] parameter(0)
  parameter.7092 = f32[] parameter(1)
  ROOT add.7093 = f32[] add(parameter.7091, parameter.7092)
}

primitive_computation_add.7115 {
  parameter.7116 = f32[] parameter(0)
  parameter.7117 = f32[] parameter(1)
  ROOT add.7118 = f32[] add(parameter.7116, parameter.7117)
}

primitive_computation_add.7125 {
  parameter.7126 = f32[] parameter(0)
  parameter.7127 = f32[] parameter(1)
  ROOT add.7128 = f32[] add(parameter.7126, parameter.7127)
}

primitive_computation_add.7136 {
  parameter.7137 = f32[] parameter(0)
  parameter.7138 = f32[] parameter(1)
  ROOT add.7139 = f32[] add(parameter.7137, parameter.7138)
}

primitive_computation_add.7154 {
  parameter.7155 = f32[] parameter(0)
  parameter.7156 = f32[] parameter(1)
  ROOT add.7157 = f32[] add(parameter.7155, parameter.7156)
}

primitive_computation_add.7180 {
  parameter.7181 = f32[] parameter(0)
  parameter.7182 = f32[] parameter(1)
  ROOT add.7183 = f32[] add(parameter.7181, parameter.7182)
}

primitive_computation_add.7190 {
  parameter.7191 = f32[] parameter(0)
  parameter.7192 = f32[] parameter(1)
  ROOT add.7193 = f32[] add(parameter.7191, parameter.7192)
}

primitive_computation_add.7201 {
  parameter.7202 = f32[] parameter(0)
  parameter.7203 = f32[] parameter(1)
  ROOT add.7204 = f32[] add(parameter.7202, parameter.7203)
}

primitive_computation_add.7219 {
  parameter.7220 = f32[] parameter(0)
  parameter.7221 = f32[] parameter(1)
  ROOT add.7222 = f32[] add(parameter.7220, parameter.7221)
}

primitive_computation_add.7244 {
  parameter.7245 = f32[] parameter(0)
  parameter.7246 = f32[] parameter(1)
  ROOT add.7247 = f32[] add(parameter.7245, parameter.7246)
}

primitive_computation_add.7254 {
  parameter.7255 = f32[] parameter(0)
  parameter.7256 = f32[] parameter(1)
  ROOT add.7257 = f32[] add(parameter.7255, parameter.7256)
}

primitive_computation_add.7265 {
  parameter.7266 = f32[] parameter(0)
  parameter.7267 = f32[] parameter(1)
  ROOT add.7268 = f32[] add(parameter.7266, parameter.7267)
}

primitive_computation_add.7283 {
  parameter.7284 = f32[] parameter(0)
  parameter.7285 = f32[] parameter(1)
  ROOT add.7286 = f32[] add(parameter.7284, parameter.7285)
}

primitive_computation_add.7308 {
  parameter.7309 = f32[] parameter(0)
  parameter.7310 = f32[] parameter(1)
  ROOT add.7311 = f32[] add(parameter.7309, parameter.7310)
}

primitive_computation_add.7318 {
  parameter.7319 = f32[] parameter(0)
  parameter.7320 = f32[] parameter(1)
  ROOT add.7321 = f32[] add(parameter.7319, parameter.7320)
}

primitive_computation_add.7329 {
  parameter.7330 = f32[] parameter(0)
  parameter.7331 = f32[] parameter(1)
  ROOT add.7332 = f32[] add(parameter.7330, parameter.7331)
}

primitive_computation_add.7347 {
  parameter.7348 = f32[] parameter(0)
  parameter.7349 = f32[] parameter(1)
  ROOT add.7350 = f32[] add(parameter.7348, parameter.7349)
}

primitive_computation_add.7373 {
  parameter.7374 = f32[] parameter(0)
  parameter.7375 = f32[] parameter(1)
  ROOT add.7376 = f32[] add(parameter.7374, parameter.7375)
}

primitive_computation_add.7383 {
  parameter.7384 = f32[] parameter(0)
  parameter.7385 = f32[] parameter(1)
  ROOT add.7386 = f32[] add(parameter.7384, parameter.7385)
}

primitive_computation_add.7394 {
  parameter.7395 = f32[] parameter(0)
  parameter.7396 = f32[] parameter(1)
  ROOT add.7397 = f32[] add(parameter.7395, parameter.7396)
}

primitive_computation_add.7412 {
  parameter.7413 = f32[] parameter(0)
  parameter.7414 = f32[] parameter(1)
  ROOT add.7415 = f32[] add(parameter.7413, parameter.7414)
}

primitive_computation_add.7437 {
  parameter.7438 = f32[] parameter(0)
  parameter.7439 = f32[] parameter(1)
  ROOT add.7440 = f32[] add(parameter.7438, parameter.7439)
}

primitive_computation_add.7447 {
  parameter.7448 = f32[] parameter(0)
  parameter.7449 = f32[] parameter(1)
  ROOT add.7450 = f32[] add(parameter.7448, parameter.7449)
}

primitive_computation_add.7458 {
  parameter.7459 = f32[] parameter(0)
  parameter.7460 = f32[] parameter(1)
  ROOT add.7461 = f32[] add(parameter.7459, parameter.7460)
}

primitive_computation_add.7476 {
  parameter.7477 = f32[] parameter(0)
  parameter.7478 = f32[] parameter(1)
  ROOT add.7479 = f32[] add(parameter.7477, parameter.7478)
}

primitive_computation_add.7501 {
  parameter.7502 = f32[] parameter(0)
  parameter.7503 = f32[] parameter(1)
  ROOT add.7504 = f32[] add(parameter.7502, parameter.7503)
}

primitive_computation_add.7511 {
  parameter.7512 = f32[] parameter(0)
  parameter.7513 = f32[] parameter(1)
  ROOT add.7514 = f32[] add(parameter.7512, parameter.7513)
}

primitive_computation_add.7522 {
  parameter.7523 = f32[] parameter(0)
  parameter.7524 = f32[] parameter(1)
  ROOT add.7525 = f32[] add(parameter.7523, parameter.7524)
}

primitive_computation_add.7540 {
  parameter.7541 = f32[] parameter(0)
  parameter.7542 = f32[] parameter(1)
  ROOT add.7543 = f32[] add(parameter.7541, parameter.7542)
}

primitive_computation_add.7562 {
  parameter.7563 = f32[] parameter(0)
  parameter.7564 = f32[] parameter(1)
  ROOT add.7565 = f32[] add(parameter.7563, parameter.7564)
}

primitive_computation_add.7572 {
  parameter.7573 = f32[] parameter(0)
  parameter.7574 = f32[] parameter(1)
  ROOT add.7575 = f32[] add(parameter.7573, parameter.7574)
}

primitive_computation_add.7583 {
  parameter.7584 = f32[] parameter(0)
  parameter.7585 = f32[] parameter(1)
  ROOT add.7586 = f32[] add(parameter.7584, parameter.7585)
}

primitive_computation_add.7601 {
  parameter.7602 = f32[] parameter(0)
  parameter.7603 = f32[] parameter(1)
  ROOT add.7604 = f32[] add(parameter.7602, parameter.7603)
}

primitive_computation_add.7627 {
  parameter.7628 = f32[] parameter(0)
  parameter.7629 = f32[] parameter(1)
  ROOT add.7630 = f32[] add(parameter.7628, parameter.7629)
}

primitive_computation_add.7637 {
  parameter.7638 = f32[] parameter(0)
  parameter.7639 = f32[] parameter(1)
  ROOT add.7640 = f32[] add(parameter.7638, parameter.7639)
}

primitive_computation_add.7648 {
  parameter.7649 = f32[] parameter(0)
  parameter.7650 = f32[] parameter(1)
  ROOT add.7651 = f32[] add(parameter.7649, parameter.7650)
}

primitive_computation_add.7666 {
  parameter.7667 = f32[] parameter(0)
  parameter.7668 = f32[] parameter(1)
  ROOT add.7669 = f32[] add(parameter.7667, parameter.7668)
}

primitive_computation_add.7691 {
  parameter.7692 = f32[] parameter(0)
  parameter.7693 = f32[] parameter(1)
  ROOT add.7694 = f32[] add(parameter.7692, parameter.7693)
}

primitive_computation_add.7701 {
  parameter.7702 = f32[] parameter(0)
  parameter.7703 = f32[] parameter(1)
  ROOT add.7704 = f32[] add(parameter.7702, parameter.7703)
}

primitive_computation_add.7712 {
  parameter.7713 = f32[] parameter(0)
  parameter.7714 = f32[] parameter(1)
  ROOT add.7715 = f32[] add(parameter.7713, parameter.7714)
}

primitive_computation_add.7730 {
  parameter.7731 = f32[] parameter(0)
  parameter.7732 = f32[] parameter(1)
  ROOT add.7733 = f32[] add(parameter.7731, parameter.7732)
}

primitive_computation_add.7755 {
  parameter.7756 = f32[] parameter(0)
  parameter.7757 = f32[] parameter(1)
  ROOT add.7758 = f32[] add(parameter.7756, parameter.7757)
}

primitive_computation_add.7765 {
  parameter.7766 = f32[] parameter(0)
  parameter.7767 = f32[] parameter(1)
  ROOT add.7768 = f32[] add(parameter.7766, parameter.7767)
}

primitive_computation_add.7776 {
  parameter.7777 = f32[] parameter(0)
  parameter.7778 = f32[] parameter(1)
  ROOT add.7779 = f32[] add(parameter.7777, parameter.7778)
}

primitive_computation_add.7794 {
  parameter.7795 = f32[] parameter(0)
  parameter.7796 = f32[] parameter(1)
  ROOT add.7797 = f32[] add(parameter.7795, parameter.7796)
}

primitive_computation_add.7820 {
  parameter.7821 = f32[] parameter(0)
  parameter.7822 = f32[] parameter(1)
  ROOT add.7823 = f32[] add(parameter.7821, parameter.7822)
}

primitive_computation_add.7830 {
  parameter.7831 = f32[] parameter(0)
  parameter.7832 = f32[] parameter(1)
  ROOT add.7833 = f32[] add(parameter.7831, parameter.7832)
}

primitive_computation_add.7841 {
  parameter.7842 = f32[] parameter(0)
  parameter.7843 = f32[] parameter(1)
  ROOT add.7844 = f32[] add(parameter.7842, parameter.7843)
}

primitive_computation_add.7859 {
  parameter.7860 = f32[] parameter(0)
  parameter.7861 = f32[] parameter(1)
  ROOT add.7862 = f32[] add(parameter.7860, parameter.7861)
}

primitive_computation_add.7884 {
  parameter.7885 = f32[] parameter(0)
  parameter.7886 = f32[] parameter(1)
  ROOT add.7887 = f32[] add(parameter.7885, parameter.7886)
}

primitive_computation_add.7894 {
  parameter.7895 = f32[] parameter(0)
  parameter.7896 = f32[] parameter(1)
  ROOT add.7897 = f32[] add(parameter.7895, parameter.7896)
}

primitive_computation_add.7905 {
  parameter.7906 = f32[] parameter(0)
  parameter.7907 = f32[] parameter(1)
  ROOT add.7908 = f32[] add(parameter.7906, parameter.7907)
}

primitive_computation_add.7923 {
  parameter.7924 = f32[] parameter(0)
  parameter.7925 = f32[] parameter(1)
  ROOT add.7926 = f32[] add(parameter.7924, parameter.7925)
}

primitive_computation_add.7948 {
  parameter.7949 = f32[] parameter(0)
  parameter.7950 = f32[] parameter(1)
  ROOT add.7951 = f32[] add(parameter.7949, parameter.7950)
}

primitive_computation_add.7958 {
  parameter.7959 = f32[] parameter(0)
  parameter.7960 = f32[] parameter(1)
  ROOT add.7961 = f32[] add(parameter.7959, parameter.7960)
}

primitive_computation_add.7969 {
  parameter.7970 = f32[] parameter(0)
  parameter.7971 = f32[] parameter(1)
  ROOT add.7972 = f32[] add(parameter.7970, parameter.7971)
}

primitive_computation_add.7987 {
  parameter.7988 = f32[] parameter(0)
  parameter.7989 = f32[] parameter(1)
  ROOT add.7990 = f32[] add(parameter.7988, parameter.7989)
}

primitive_computation_add.8013 {
  parameter.8014 = f32[] parameter(0)
  parameter.8015 = f32[] parameter(1)
  ROOT add.8016 = f32[] add(parameter.8014, parameter.8015)
}

primitive_computation_add.8023 {
  parameter.8024 = f32[] parameter(0)
  parameter.8025 = f32[] parameter(1)
  ROOT add.8026 = f32[] add(parameter.8024, parameter.8025)
}

primitive_computation_add.8034 {
  parameter.8035 = f32[] parameter(0)
  parameter.8036 = f32[] parameter(1)
  ROOT add.8037 = f32[] add(parameter.8035, parameter.8036)
}

primitive_computation_add.8052 {
  parameter.8053 = f32[] parameter(0)
  parameter.8054 = f32[] parameter(1)
  ROOT add.8055 = f32[] add(parameter.8053, parameter.8054)
}

primitive_computation_add.8077 {
  parameter.8078 = f32[] parameter(0)
  parameter.8079 = f32[] parameter(1)
  ROOT add.8080 = f32[] add(parameter.8078, parameter.8079)
}

primitive_computation_add.8087 {
  parameter.8088 = f32[] parameter(0)
  parameter.8089 = f32[] parameter(1)
  ROOT add.8090 = f32[] add(parameter.8088, parameter.8089)
}

primitive_computation_add.8098 {
  parameter.8099 = f32[] parameter(0)
  parameter.8100 = f32[] parameter(1)
  ROOT add.8101 = f32[] add(parameter.8099, parameter.8100)
}

primitive_computation_add.8116 {
  parameter.8117 = f32[] parameter(0)
  parameter.8118 = f32[] parameter(1)
  ROOT add.8119 = f32[] add(parameter.8117, parameter.8118)
}

primitive_computation_add.8141 {
  parameter.8142 = f32[] parameter(0)
  parameter.8143 = f32[] parameter(1)
  ROOT add.8144 = f32[] add(parameter.8142, parameter.8143)
}

primitive_computation_add.8151 {
  parameter.8152 = f32[] parameter(0)
  parameter.8153 = f32[] parameter(1)
  ROOT add.8154 = f32[] add(parameter.8152, parameter.8153)
}

primitive_computation_add.8162 {
  parameter.8163 = f32[] parameter(0)
  parameter.8164 = f32[] parameter(1)
  ROOT add.8165 = f32[] add(parameter.8163, parameter.8164)
}

primitive_computation_add.8180 {
  parameter.8181 = f32[] parameter(0)
  parameter.8182 = f32[] parameter(1)
  ROOT add.8183 = f32[] add(parameter.8181, parameter.8182)
}

primitive_computation_add.8206 {
  parameter.8207 = f32[] parameter(0)
  parameter.8208 = f32[] parameter(1)
  ROOT add.8209 = f32[] add(parameter.8207, parameter.8208)
}

primitive_computation_add.8216 {
  parameter.8217 = f32[] parameter(0)
  parameter.8218 = f32[] parameter(1)
  ROOT add.8219 = f32[] add(parameter.8217, parameter.8218)
}

primitive_computation_add.8227 {
  parameter.8228 = f32[] parameter(0)
  parameter.8229 = f32[] parameter(1)
  ROOT add.8230 = f32[] add(parameter.8228, parameter.8229)
}

primitive_computation_add.8245 {
  parameter.8246 = f32[] parameter(0)
  parameter.8247 = f32[] parameter(1)
  ROOT add.8248 = f32[] add(parameter.8246, parameter.8247)
}

primitive_computation_add.8270 {
  parameter.8271 = f32[] parameter(0)
  parameter.8272 = f32[] parameter(1)
  ROOT add.8273 = f32[] add(parameter.8271, parameter.8272)
}

primitive_computation_add.8280 {
  parameter.8281 = f32[] parameter(0)
  parameter.8282 = f32[] parameter(1)
  ROOT add.8283 = f32[] add(parameter.8281, parameter.8282)
}

primitive_computation_add.8291 {
  parameter.8292 = f32[] parameter(0)
  parameter.8293 = f32[] parameter(1)
  ROOT add.8294 = f32[] add(parameter.8292, parameter.8293)
}

primitive_computation_add.8309 {
  parameter.8310 = f32[] parameter(0)
  parameter.8311 = f32[] parameter(1)
  ROOT add.8312 = f32[] add(parameter.8310, parameter.8311)
}

primitive_computation_add.8334 {
  parameter.8335 = f32[] parameter(0)
  parameter.8336 = f32[] parameter(1)
  ROOT add.8337 = f32[] add(parameter.8335, parameter.8336)
}

primitive_computation_add.8344 {
  parameter.8345 = f32[] parameter(0)
  parameter.8346 = f32[] parameter(1)
  ROOT add.8347 = f32[] add(parameter.8345, parameter.8346)
}

primitive_computation_add.8355 {
  parameter.8356 = f32[] parameter(0)
  parameter.8357 = f32[] parameter(1)
  ROOT add.8358 = f32[] add(parameter.8356, parameter.8357)
}

primitive_computation_add.8373 {
  parameter.8374 = f32[] parameter(0)
  parameter.8375 = f32[] parameter(1)
  ROOT add.8376 = f32[] add(parameter.8374, parameter.8375)
}

primitive_computation_add.8395 {
  parameter.8396 = f32[] parameter(0)
  parameter.8397 = f32[] parameter(1)
  ROOT add.8398 = f32[] add(parameter.8396, parameter.8397)
}

primitive_computation_add.8405 {
  parameter.8406 = f32[] parameter(0)
  parameter.8407 = f32[] parameter(1)
  ROOT add.8408 = f32[] add(parameter.8406, parameter.8407)
}

primitive_computation_add.8416 {
  parameter.8417 = f32[] parameter(0)
  parameter.8418 = f32[] parameter(1)
  ROOT add.8419 = f32[] add(parameter.8417, parameter.8418)
}

primitive_computation_add.8434 {
  parameter.8435 = f32[] parameter(0)
  parameter.8436 = f32[] parameter(1)
  ROOT add.8437 = f32[] add(parameter.8435, parameter.8436)
}

primitive_computation_add.8460 {
  parameter.8461 = f32[] parameter(0)
  parameter.8462 = f32[] parameter(1)
  ROOT add.8463 = f32[] add(parameter.8461, parameter.8462)
}

primitive_computation_add.8470 {
  parameter.8471 = f32[] parameter(0)
  parameter.8472 = f32[] parameter(1)
  ROOT add.8473 = f32[] add(parameter.8471, parameter.8472)
}

primitive_computation_add.8481 {
  parameter.8482 = f32[] parameter(0)
  parameter.8483 = f32[] parameter(1)
  ROOT add.8484 = f32[] add(parameter.8482, parameter.8483)
}

primitive_computation_add.8499 {
  parameter.8500 = f32[] parameter(0)
  parameter.8501 = f32[] parameter(1)
  ROOT add.8502 = f32[] add(parameter.8500, parameter.8501)
}

primitive_computation_add.8524 {
  parameter.8525 = f32[] parameter(0)
  parameter.8526 = f32[] parameter(1)
  ROOT add.8527 = f32[] add(parameter.8525, parameter.8526)
}

primitive_computation_add.8534 {
  parameter.8535 = f32[] parameter(0)
  parameter.8536 = f32[] parameter(1)
  ROOT add.8537 = f32[] add(parameter.8535, parameter.8536)
}

primitive_computation_add.8545 {
  parameter.8546 = f32[] parameter(0)
  parameter.8547 = f32[] parameter(1)
  ROOT add.8548 = f32[] add(parameter.8546, parameter.8547)
}

primitive_computation_add.8563 {
  parameter.8564 = f32[] parameter(0)
  parameter.8565 = f32[] parameter(1)
  ROOT add.8566 = f32[] add(parameter.8564, parameter.8565)
}

primitive_computation_add.8588 {
  parameter.8589 = f32[] parameter(0)
  parameter.8590 = f32[] parameter(1)
  ROOT add.8591 = f32[] add(parameter.8589, parameter.8590)
}

primitive_computation_add.8598 {
  parameter.8599 = f32[] parameter(0)
  parameter.8600 = f32[] parameter(1)
  ROOT add.8601 = f32[] add(parameter.8599, parameter.8600)
}

primitive_computation_add.8609 {
  parameter.8610 = f32[] parameter(0)
  parameter.8611 = f32[] parameter(1)
  ROOT add.8612 = f32[] add(parameter.8610, parameter.8611)
}

primitive_computation_add.8627 {
  parameter.8628 = f32[] parameter(0)
  parameter.8629 = f32[] parameter(1)
  ROOT add.8630 = f32[] add(parameter.8628, parameter.8629)
}

primitive_computation_add.8653 {
  parameter.8654 = f32[] parameter(0)
  parameter.8655 = f32[] parameter(1)
  ROOT add.8656 = f32[] add(parameter.8654, parameter.8655)
}

primitive_computation_add.8663 {
  parameter.8664 = f32[] parameter(0)
  parameter.8665 = f32[] parameter(1)
  ROOT add.8666 = f32[] add(parameter.8664, parameter.8665)
}

primitive_computation_add.8674 {
  parameter.8675 = f32[] parameter(0)
  parameter.8676 = f32[] parameter(1)
  ROOT add.8677 = f32[] add(parameter.8675, parameter.8676)
}

primitive_computation_add.8692 {
  parameter.8693 = f32[] parameter(0)
  parameter.8694 = f32[] parameter(1)
  ROOT add.8695 = f32[] add(parameter.8693, parameter.8694)
}

primitive_computation_add.8717 {
  parameter.8718 = f32[] parameter(0)
  parameter.8719 = f32[] parameter(1)
  ROOT add.8720 = f32[] add(parameter.8718, parameter.8719)
}

primitive_computation_add.8727 {
  parameter.8728 = f32[] parameter(0)
  parameter.8729 = f32[] parameter(1)
  ROOT add.8730 = f32[] add(parameter.8728, parameter.8729)
}

primitive_computation_add.8738 {
  parameter.8739 = f32[] parameter(0)
  parameter.8740 = f32[] parameter(1)
  ROOT add.8741 = f32[] add(parameter.8739, parameter.8740)
}

primitive_computation_add.8756 {
  parameter.8757 = f32[] parameter(0)
  parameter.8758 = f32[] parameter(1)
  ROOT add.8759 = f32[] add(parameter.8757, parameter.8758)
}

primitive_computation_add.8781 {
  parameter.8782 = f32[] parameter(0)
  parameter.8783 = f32[] parameter(1)
  ROOT add.8784 = f32[] add(parameter.8782, parameter.8783)
}

primitive_computation_add.8791 {
  parameter.8792 = f32[] parameter(0)
  parameter.8793 = f32[] parameter(1)
  ROOT add.8794 = f32[] add(parameter.8792, parameter.8793)
}

primitive_computation_add.8802 {
  parameter.8803 = f32[] parameter(0)
  parameter.8804 = f32[] parameter(1)
  ROOT add.8805 = f32[] add(parameter.8803, parameter.8804)
}

primitive_computation_add.8820 {
  parameter.8821 = f32[] parameter(0)
  parameter.8822 = f32[] parameter(1)
  ROOT add.8823 = f32[] add(parameter.8821, parameter.8822)
}

primitive_computation_add.8846 {
  parameter.8847 = f32[] parameter(0)
  parameter.8848 = f32[] parameter(1)
  ROOT add.8849 = f32[] add(parameter.8847, parameter.8848)
}

primitive_computation_add.8856 {
  parameter.8857 = f32[] parameter(0)
  parameter.8858 = f32[] parameter(1)
  ROOT add.8859 = f32[] add(parameter.8857, parameter.8858)
}

primitive_computation_add.8867 {
  parameter.8868 = f32[] parameter(0)
  parameter.8869 = f32[] parameter(1)
  ROOT add.8870 = f32[] add(parameter.8868, parameter.8869)
}

primitive_computation_add.8885 {
  parameter.8886 = f32[] parameter(0)
  parameter.8887 = f32[] parameter(1)
  ROOT add.8888 = f32[] add(parameter.8886, parameter.8887)
}

primitive_computation_add.8910 {
  parameter.8911 = f32[] parameter(0)
  parameter.8912 = f32[] parameter(1)
  ROOT add.8913 = f32[] add(parameter.8911, parameter.8912)
}

primitive_computation_add.8920 {
  parameter.8921 = f32[] parameter(0)
  parameter.8922 = f32[] parameter(1)
  ROOT add.8923 = f32[] add(parameter.8921, parameter.8922)
}

primitive_computation_add.8931 {
  parameter.8932 = f32[] parameter(0)
  parameter.8933 = f32[] parameter(1)
  ROOT add.8934 = f32[] add(parameter.8932, parameter.8933)
}

primitive_computation_add.8949 {
  parameter.8950 = f32[] parameter(0)
  parameter.8951 = f32[] parameter(1)
  ROOT add.8952 = f32[] add(parameter.8950, parameter.8951)
}

primitive_computation_add.8974 {
  parameter.8975 = f32[] parameter(0)
  parameter.8976 = f32[] parameter(1)
  ROOT add.8977 = f32[] add(parameter.8975, parameter.8976)
}

primitive_computation_add.8984 {
  parameter.8985 = f32[] parameter(0)
  parameter.8986 = f32[] parameter(1)
  ROOT add.8987 = f32[] add(parameter.8985, parameter.8986)
}

primitive_computation_add.8995 {
  parameter.8996 = f32[] parameter(0)
  parameter.8997 = f32[] parameter(1)
  ROOT add.8998 = f32[] add(parameter.8996, parameter.8997)
}

primitive_computation_add.9013 {
  parameter.9014 = f32[] parameter(0)
  parameter.9015 = f32[] parameter(1)
  ROOT add.9016 = f32[] add(parameter.9014, parameter.9015)
}

primitive_computation_add.9035 {
  parameter.9036 = f32[] parameter(0)
  parameter.9037 = f32[] parameter(1)
  ROOT add.9038 = f32[] add(parameter.9036, parameter.9037)
}

primitive_computation_add.9045 {
  parameter.9046 = f32[] parameter(0)
  parameter.9047 = f32[] parameter(1)
  ROOT add.9048 = f32[] add(parameter.9046, parameter.9047)
}

primitive_computation_add.9056 {
  parameter.9057 = f32[] parameter(0)
  parameter.9058 = f32[] parameter(1)
  ROOT add.9059 = f32[] add(parameter.9057, parameter.9058)
}

primitive_computation_add.9074 {
  parameter.9075 = f32[] parameter(0)
  parameter.9076 = f32[] parameter(1)
  ROOT add.9077 = f32[] add(parameter.9075, parameter.9076)
}

primitive_computation_ge.9096 {
  parameter.9097 = bf16[] parameter(0)
  parameter.9098 = bf16[] parameter(1)
  ROOT compare.9099 = pred[] compare(parameter.9097, parameter.9098), direction=GE
}

primitive_computation_add__1.9100 {
  parameter.9101 = bf16[] parameter(0)
  parameter.9102 = bf16[] parameter(1)
  ROOT add.9103 = bf16[] add(parameter.9101, parameter.9102)
}

primitive_computation_add.9110 {
  parameter.9111 = f32[] parameter(0)
  parameter.9112 = f32[] parameter(1)
  ROOT add.9113 = f32[] add(parameter.9111, parameter.9112)
}

primitive_computation_add.9120 {
  parameter.9121 = f32[] parameter(0)
  parameter.9122 = f32[] parameter(1)
  ROOT add.9123 = f32[] add(parameter.9121, parameter.9122)
}

primitive_computation_add.9131 {
  parameter.9132 = f32[] parameter(0)
  parameter.9133 = f32[] parameter(1)
  ROOT add.9134 = f32[] add(parameter.9132, parameter.9133)
}

primitive_computation_add.9149 {
  parameter.9150 = f32[] parameter(0)
  parameter.9151 = f32[] parameter(1)
  ROOT add.9152 = f32[] add(parameter.9150, parameter.9151)
}

ENTRY xla_computation_unknown.9168 {
  parameter.165 = s32[] parameter(164)
  parameter.166 = s32[] parameter(165)
  parameter.167 = f32[64]{0} parameter(166)
  parameter.168 = f32[64]{0} parameter(167)
  parameter.169 = f32[64]{0} parameter(168)
  parameter.170 = f32[64]{0} parameter(169)
  parameter.171 = f32[256]{0} parameter(170)
  parameter.172 = f32[256]{0} parameter(171)
  parameter.173 = f32[1,1,64,64]{3,2,1,0} parameter(172)
  parameter.174 = f32[3,3,64,64]{3,2,1,0} parameter(173)
  parameter.175 = f32[1,1,64,256]{3,2,1,0} parameter(174)
  parameter.176 = f32[1,1,64,256]{3,2,1,0} parameter(175)
  parameter.177 = f32[256]{0} parameter(176)
  parameter.178 = f32[256]{0} parameter(177)
  parameter.179 = f32[64]{0} parameter(178)
  parameter.180 = f32[64]{0} parameter(179)
  parameter.181 = f32[64]{0} parameter(180)
  parameter.182 = f32[64]{0} parameter(181)
  parameter.183 = f32[256]{0} parameter(182)
  parameter.184 = f32[256]{0} parameter(183)
  parameter.185 = f32[1,1,256,64]{3,2,1,0} parameter(184)
  parameter.186 = f32[3,3,64,64]{3,2,1,0} parameter(185)
  parameter.187 = f32[1,1,64,256]{3,2,1,0} parameter(186)
  parameter.188 = f32[256]{0} parameter(187)
  parameter.189 = f32[256]{0} parameter(188)
  parameter.190 = f32[256]{0} parameter(189)
  parameter.191 = f32[256]{0} parameter(190)
  parameter.192 = f32[1024]{0} parameter(191)
  parameter.193 = f32[1024]{0} parameter(192)
  parameter.194 = f32[1,1,1024,256]{3,2,1,0} parameter(193)
  parameter.195 = f32[3,3,256,256]{3,2,1,0} parameter(194)
  parameter.196 = f32[1,1,256,1024]{3,2,1,0} parameter(195)
  parameter.197 = f32[256]{0} parameter(196)
  parameter.198 = f32[256]{0} parameter(197)
  parameter.199 = f32[256]{0} parameter(198)
  parameter.200 = f32[256]{0} parameter(199)
  parameter.201 = f32[1024]{0} parameter(200)
  parameter.202 = f32[1024]{0} parameter(201)
  parameter.203 = f32[1,1,1024,256]{3,2,1,0} parameter(202)
  parameter.204 = f32[3,3,256,256]{3,2,1,0} parameter(203)
  parameter.205 = f32[1,1,256,1024]{3,2,1,0} parameter(204)
  parameter.206 = f32[256]{0} parameter(205)
  parameter.207 = f32[256]{0} parameter(206)
  parameter.208 = f32[256]{0} parameter(207)
  parameter.209 = f32[256]{0} parameter(208)
  parameter.210 = f32[1024]{0} parameter(209)
  parameter.211 = f32[1024]{0} parameter(210)
  parameter.212 = f32[1,1,1024,256]{3,2,1,0} parameter(211)
  parameter.213 = f32[3,3,256,256]{3,2,1,0} parameter(212)
  parameter.214 = f32[1,1,256,1024]{3,2,1,0} parameter(213)
  parameter.215 = f32[512]{0} parameter(214)
  parameter.216 = f32[512]{0} parameter(215)
  parameter.217 = f32[512]{0} parameter(216)
  parameter.218 = f32[512]{0} parameter(217)
  parameter.219 = f32[2048]{0} parameter(218)
  parameter.220 = f32[2048]{0} parameter(219)
  parameter.221 = f32[1,1,1024,512]{3,2,1,0} parameter(220)
  parameter.222 = f32[3,3,512,512]{3,2,1,0} parameter(221)
  parameter.223 = f32[1,1,512,2048]{3,2,1,0} parameter(222)
  parameter.224 = f32[1,1,1024,2048]{3,2,1,0} parameter(223)
  parameter.225 = f32[2048]{0} parameter(224)
  parameter.226 = f32[2048]{0} parameter(225)
  parameter.227 = f32[512]{0} parameter(226)
  parameter.228 = f32[512]{0} parameter(227)
  parameter.229 = f32[512]{0} parameter(228)
  parameter.230 = f32[512]{0} parameter(229)
  parameter.231 = f32[2048]{0} parameter(230)
  parameter.232 = f32[2048]{0} parameter(231)
  parameter.233 = f32[1,1,2048,512]{3,2,1,0} parameter(232)
  parameter.234 = f32[3,3,512,512]{3,2,1,0} parameter(233)
  parameter.235 = f32[1,1,512,2048]{3,2,1,0} parameter(234)
  parameter.236 = f32[512]{0} parameter(235)
  parameter.237 = f32[512]{0} parameter(236)
  parameter.238 = f32[512]{0} parameter(237)
  parameter.239 = f32[512]{0} parameter(238)
  parameter.240 = f32[2048]{0} parameter(239)
  parameter.241 = f32[2048]{0} parameter(240)
  parameter.242 = f32[1,1,2048,512]{3,2,1,0} parameter(241)
  parameter.243 = f32[3,3,512,512]{3,2,1,0} parameter(242)
  parameter.244 = f32[1,1,512,2048]{3,2,1,0} parameter(243)
  parameter.245 = f32[64]{0} parameter(244)
  parameter.246 = f32[64]{0} parameter(245)
  parameter.247 = f32[64]{0} parameter(246)
  parameter.248 = f32[64]{0} parameter(247)
  parameter.249 = f32[256]{0} parameter(248)
  parameter.250 = f32[256]{0} parameter(249)
  parameter.251 = f32[1,1,256,64]{3,2,1,0} parameter(250)
  parameter.252 = f32[3,3,64,64]{3,2,1,0} parameter(251)
  parameter.253 = f32[1,1,64,256]{3,2,1,0} parameter(252)
  parameter.254 = f32[128]{0} parameter(253)
  parameter.255 = f32[128]{0} parameter(254)
  parameter.256 = f32[128]{0} parameter(255)
  parameter.257 = f32[128]{0} parameter(256)
  parameter.258 = f32[512]{0} parameter(257)
  parameter.259 = f32[512]{0} parameter(258)
  parameter.260 = f32[1,1,256,128]{3,2,1,0} parameter(259)
  parameter.261 = f32[3,3,128,128]{3,2,1,0} parameter(260)
  parameter.262 = f32[1,1,128,512]{3,2,1,0} parameter(261)
  parameter.263 = f32[1,1,256,512]{3,2,1,0} parameter(262)
  parameter.264 = f32[512]{0} parameter(263)
  parameter.265 = f32[512]{0} parameter(264)
  parameter.266 = f32[128]{0} parameter(265)
  parameter.267 = f32[128]{0} parameter(266)
  parameter.268 = f32[128]{0} parameter(267)
  parameter.269 = f32[128]{0} parameter(268)
  parameter.270 = f32[512]{0} parameter(269)
  parameter.271 = f32[512]{0} parameter(270)
  parameter.272 = f32[1,1,512,128]{3,2,1,0} parameter(271)
  parameter.273 = f32[3,3,128,128]{3,2,1,0} parameter(272)
  parameter.274 = f32[1,1,128,512]{3,2,1,0} parameter(273)
  parameter.275 = f32[128]{0} parameter(274)
  parameter.276 = f32[128]{0} parameter(275)
  parameter.277 = f32[128]{0} parameter(276)
  parameter.278 = f32[128]{0} parameter(277)
  parameter.279 = f32[512]{0} parameter(278)
  parameter.280 = f32[512]{0} parameter(279)
  parameter.281 = f32[1,1,512,128]{3,2,1,0} parameter(280)
  parameter.282 = f32[3,3,128,128]{3,2,1,0} parameter(281)
  parameter.283 = f32[1,1,128,512]{3,2,1,0} parameter(282)
  parameter.284 = f32[128]{0} parameter(283)
  parameter.285 = f32[128]{0} parameter(284)
  parameter.286 = f32[128]{0} parameter(285)
  parameter.287 = f32[128]{0} parameter(286)
  parameter.288 = f32[512]{0} parameter(287)
  parameter.289 = f32[512]{0} parameter(288)
  parameter.290 = f32[1,1,512,128]{3,2,1,0} parameter(289)
  parameter.291 = f32[3,3,128,128]{3,2,1,0} parameter(290)
  parameter.292 = f32[1,1,128,512]{3,2,1,0} parameter(291)
  parameter.293 = f32[256]{0} parameter(292)
  parameter.294 = f32[256]{0} parameter(293)
  parameter.295 = f32[256]{0} parameter(294)
  parameter.296 = f32[256]{0} parameter(295)
  parameter.297 = f32[1024]{0} parameter(296)
  parameter.298 = f32[1024]{0} parameter(297)
  parameter.299 = f32[1,1,512,256]{3,2,1,0} parameter(298)
  parameter.300 = f32[3,3,256,256]{3,2,1,0} parameter(299)
  parameter.301 = f32[1,1,256,1024]{3,2,1,0} parameter(300)
  parameter.302 = f32[1,1,512,1024]{3,2,1,0} parameter(301)
  parameter.303 = f32[1024]{0} parameter(302)
  parameter.304 = f32[1024]{0} parameter(303)
  parameter.305 = f32[256]{0} parameter(304)
  parameter.306 = f32[256]{0} parameter(305)
  parameter.307 = f32[256]{0} parameter(306)
  parameter.308 = f32[256]{0} parameter(307)
  parameter.309 = f32[1024]{0} parameter(308)
  parameter.310 = f32[1024]{0} parameter(309)
  parameter.311 = f32[1,1,1024,256]{3,2,1,0} parameter(310)
  parameter.312 = f32[3,3,256,256]{3,2,1,0} parameter(311)
  parameter.313 = f32[1,1,256,1024]{3,2,1,0} parameter(312)
  parameter.314 = f32[256]{0} parameter(313)
  parameter.315 = f32[256]{0} parameter(314)
  parameter.316 = f32[256]{0} parameter(315)
  parameter.317 = f32[256]{0} parameter(316)
  parameter.318 = f32[1024]{0} parameter(317)
  parameter.319 = f32[1024]{0} parameter(318)
  parameter.320 = f32[1,1,1024,256]{3,2,1,0} parameter(319)
  parameter.321 = f32[3,3,256,256]{3,2,1,0} parameter(320)
  parameter.322 = f32[1,1,256,1024]{3,2,1,0} parameter(321)
  parameter.323 = f32[1000]{0} parameter(322)
  parameter.324 = f32[2048,1000]{1,0} parameter(323)
  parameter.325 = f32[64]{0} parameter(324)
  parameter.326 = f32[64]{0} parameter(325)
  parameter.327 = f32[7,7,3,64]{3,2,1,0} parameter(326)
  parameter.328 = f32[64]{0} parameter(327)
  parameter.329 = f32[64]{0} parameter(328)
  parameter.330 = f32[64]{0} parameter(329)
  parameter.331 = f32[64]{0} parameter(330)
  parameter.332 = f32[256]{0} parameter(331)
  parameter.333 = f32[256]{0} parameter(332)
  parameter.334 = f32[1,1,64,64]{3,2,1,0} parameter(333)
  parameter.335 = f32[3,3,64,64]{3,2,1,0} parameter(334)
  parameter.336 = f32[1,1,64,256]{3,2,1,0} parameter(335)
  parameter.337 = f32[1,1,64,256]{3,2,1,0} parameter(336)
  parameter.338 = f32[256]{0} parameter(337)
  parameter.339 = f32[256]{0} parameter(338)
  parameter.340 = f32[64]{0} parameter(339)
  parameter.341 = f32[64]{0} parameter(340)
  parameter.342 = f32[64]{0} parameter(341)
  parameter.343 = f32[64]{0} parameter(342)
  parameter.344 = f32[256]{0} parameter(343)
  parameter.345 = f32[256]{0} parameter(344)
  parameter.346 = f32[1,1,256,64]{3,2,1,0} parameter(345)
  parameter.347 = f32[3,3,64,64]{3,2,1,0} parameter(346)
  parameter.348 = f32[1,1,64,256]{3,2,1,0} parameter(347)
  parameter.349 = f32[256]{0} parameter(348)
  parameter.350 = f32[256]{0} parameter(349)
  parameter.351 = f32[256]{0} parameter(350)
  parameter.352 = f32[256]{0} parameter(351)
  parameter.353 = f32[1024]{0} parameter(352)
  parameter.354 = f32[1024]{0} parameter(353)
  parameter.355 = f32[1,1,1024,256]{3,2,1,0} parameter(354)
  parameter.356 = f32[3,3,256,256]{3,2,1,0} parameter(355)
  parameter.357 = f32[1,1,256,1024]{3,2,1,0} parameter(356)
  parameter.358 = f32[256]{0} parameter(357)
  parameter.359 = f32[256]{0} parameter(358)
  parameter.360 = f32[256]{0} parameter(359)
  parameter.361 = f32[256]{0} parameter(360)
  parameter.362 = f32[1024]{0} parameter(361)
  parameter.363 = f32[1024]{0} parameter(362)
  parameter.364 = f32[1,1,1024,256]{3,2,1,0} parameter(363)
  parameter.365 = f32[3,3,256,256]{3,2,1,0} parameter(364)
  parameter.366 = f32[1,1,256,1024]{3,2,1,0} parameter(365)
  parameter.367 = f32[256]{0} parameter(366)
  parameter.368 = f32[256]{0} parameter(367)
  parameter.369 = f32[256]{0} parameter(368)
  parameter.370 = f32[256]{0} parameter(369)
  parameter.371 = f32[1024]{0} parameter(370)
  parameter.372 = f32[1024]{0} parameter(371)
  parameter.373 = f32[1,1,1024,256]{3,2,1,0} parameter(372)
  parameter.374 = f32[3,3,256,256]{3,2,1,0} parameter(373)
  parameter.375 = f32[1,1,256,1024]{3,2,1,0} parameter(374)
  parameter.376 = f32[512]{0} parameter(375)
  parameter.377 = f32[512]{0} parameter(376)
  parameter.378 = f32[512]{0} parameter(377)
  parameter.379 = f32[512]{0} parameter(378)
  parameter.380 = f32[2048]{0} parameter(379)
  parameter.381 = f32[2048]{0} parameter(380)
  parameter.382 = f32[1,1,1024,512]{3,2,1,0} parameter(381)
  parameter.383 = f32[3,3,512,512]{3,2,1,0} parameter(382)
  parameter.384 = f32[1,1,512,2048]{3,2,1,0} parameter(383)
  parameter.385 = f32[1,1,1024,2048]{3,2,1,0} parameter(384)
  parameter.386 = f32[2048]{0} parameter(385)
  parameter.387 = f32[2048]{0} parameter(386)
  parameter.388 = f32[512]{0} parameter(387)
  parameter.389 = f32[512]{0} parameter(388)
  parameter.390 = f32[512]{0} parameter(389)
  parameter.391 = f32[512]{0} parameter(390)
  parameter.392 = f32[2048]{0} parameter(391)
  parameter.393 = f32[2048]{0} parameter(392)
  parameter.394 = f32[1,1,2048,512]{3,2,1,0} parameter(393)
  parameter.395 = f32[3,3,512,512]{3,2,1,0} parameter(394)
  parameter.396 = f32[1,1,512,2048]{3,2,1,0} parameter(395)
  parameter.397 = f32[512]{0} parameter(396)
  parameter.398 = f32[512]{0} parameter(397)
  parameter.399 = f32[512]{0} parameter(398)
  parameter.400 = f32[512]{0} parameter(399)
  parameter.401 = f32[2048]{0} parameter(400)
  parameter.402 = f32[2048]{0} parameter(401)
  parameter.403 = f32[1,1,2048,512]{3,2,1,0} parameter(402)
  parameter.404 = f32[3,3,512,512]{3,2,1,0} parameter(403)
  parameter.405 = f32[1,1,512,2048]{3,2,1,0} parameter(404)
  parameter.406 = f32[64]{0} parameter(405)
  parameter.407 = f32[64]{0} parameter(406)
  parameter.408 = f32[64]{0} parameter(407)
  parameter.409 = f32[64]{0} parameter(408)
  parameter.410 = f32[256]{0} parameter(409)
  parameter.411 = f32[256]{0} parameter(410)
  parameter.412 = f32[1,1,256,64]{3,2,1,0} parameter(411)
  parameter.413 = f32[3,3,64,64]{3,2,1,0} parameter(412)
  parameter.414 = f32[1,1,64,256]{3,2,1,0} parameter(413)
  parameter.415 = f32[128]{0} parameter(414)
  parameter.416 = f32[128]{0} parameter(415)
  parameter.417 = f32[128]{0} parameter(416)
  parameter.418 = f32[128]{0} parameter(417)
  parameter.419 = f32[512]{0} parameter(418)
  parameter.420 = f32[512]{0} parameter(419)
  parameter.421 = f32[1,1,256,128]{3,2,1,0} parameter(420)
  parameter.422 = f32[3,3,128,128]{3,2,1,0} parameter(421)
  parameter.423 = f32[1,1,128,512]{3,2,1,0} parameter(422)
  parameter.424 = f32[1,1,256,512]{3,2,1,0} parameter(423)
  parameter.425 = f32[512]{0} parameter(424)
  parameter.426 = f32[512]{0} parameter(425)
  parameter.427 = f32[128]{0} parameter(426)
  parameter.428 = f32[128]{0} parameter(427)
  parameter.429 = f32[128]{0} parameter(428)
  parameter.430 = f32[128]{0} parameter(429)
  parameter.431 = f32[512]{0} parameter(430)
  parameter.432 = f32[512]{0} parameter(431)
  parameter.433 = f32[1,1,512,128]{3,2,1,0} parameter(432)
  parameter.434 = f32[3,3,128,128]{3,2,1,0} parameter(433)
  parameter.435 = f32[1,1,128,512]{3,2,1,0} parameter(434)
  parameter.436 = f32[128]{0} parameter(435)
  parameter.437 = f32[128]{0} parameter(436)
  parameter.438 = f32[128]{0} parameter(437)
  parameter.439 = f32[128]{0} parameter(438)
  parameter.440 = f32[512]{0} parameter(439)
  parameter.441 = f32[512]{0} parameter(440)
  parameter.442 = f32[1,1,512,128]{3,2,1,0} parameter(441)
  parameter.443 = f32[3,3,128,128]{3,2,1,0} parameter(442)
  parameter.444 = f32[1,1,128,512]{3,2,1,0} parameter(443)
  parameter.445 = f32[128]{0} parameter(444)
  parameter.446 = f32[128]{0} parameter(445)
  parameter.447 = f32[128]{0} parameter(446)
  parameter.448 = f32[128]{0} parameter(447)
  parameter.449 = f32[512]{0} parameter(448)
  parameter.450 = f32[512]{0} parameter(449)
  parameter.451 = f32[1,1,512,128]{3,2,1,0} parameter(450)
  parameter.452 = f32[3,3,128,128]{3,2,1,0} parameter(451)
  parameter.453 = f32[1,1,128,512]{3,2,1,0} parameter(452)
  parameter.454 = f32[256]{0} parameter(453)
  parameter.455 = f32[256]{0} parameter(454)
  parameter.456 = f32[256]{0} parameter(455)
  parameter.457 = f32[256]{0} parameter(456)
  parameter.458 = f32[1024]{0} parameter(457)
  parameter.459 = f32[1024]{0} parameter(458)
  parameter.460 = f32[1,1,512,256]{3,2,1,0} parameter(459)
  parameter.461 = f32[3,3,256,256]{3,2,1,0} parameter(460)
  parameter.462 = f32[1,1,256,1024]{3,2,1,0} parameter(461)
  parameter.463 = f32[1,1,512,1024]{3,2,1,0} parameter(462)
  parameter.464 = f32[1024]{0} parameter(463)
  parameter.465 = f32[1024]{0} parameter(464)
  parameter.466 = f32[256]{0} parameter(465)
  parameter.467 = f32[256]{0} parameter(466)
  parameter.468 = f32[256]{0} parameter(467)
  parameter.469 = f32[256]{0} parameter(468)
  parameter.470 = f32[1024]{0} parameter(469)
  parameter.471 = f32[1024]{0} parameter(470)
  parameter.472 = f32[1,1,1024,256]{3,2,1,0} parameter(471)
  parameter.473 = f32[3,3,256,256]{3,2,1,0} parameter(472)
  parameter.474 = f32[1,1,256,1024]{3,2,1,0} parameter(473)
  parameter.475 = f32[256]{0} parameter(474)
  parameter.476 = f32[256]{0} parameter(475)
  parameter.477 = f32[256]{0} parameter(476)
  parameter.478 = f32[256]{0} parameter(477)
  parameter.479 = f32[1024]{0} parameter(478)
  parameter.480 = f32[1024]{0} parameter(479)
  parameter.481 = f32[1,1,1024,256]{3,2,1,0} parameter(480)
  parameter.482 = f32[3,3,256,256]{3,2,1,0} parameter(481)
  parameter.483 = f32[1,1,256,1024]{3,2,1,0} parameter(482)
  parameter.484 = f32[1000]{0} parameter(483)
  parameter.485 = f32[2048,1000]{1,0} parameter(484)
  parameter.486 = f32[64]{0} parameter(485)
  parameter.487 = f32[64]{0} parameter(486)
  parameter.488 = f32[7,7,3,64]{3,2,1,0} parameter(487)
  parameter.595 = f32[1,1000]{1,0} parameter(594)
  constant.596 = pred[] constant(false)
  constant.669 = pred[] constant(false)
  constant.678 = bf16[] constant(0)
  broadcast.679 = bf16[128,112,112,64]{3,2,1,0} broadcast(constant.678), dimensions={}
  constant.757 = pred[] constant(false)
  constant.766 = bf16[] constant(0)
  broadcast.767 = bf16[128,56,56,64]{3,2,1,0} broadcast(constant.766), dimensions={}
  constant.839 = pred[] constant(false)
  constant.848 = bf16[] constant(0)
  broadcast.849 = bf16[128,56,56,64]{3,2,1,0} broadcast(constant.848), dimensions={}
  constant.993 = pred[] constant(false)
  constant.1002 = bf16[] constant(0)
  broadcast.1003 = bf16[128,56,56,256]{3,2,1,0} broadcast(constant.1002), dimensions={}
  constant.1075 = pred[] constant(false)
  constant.1084 = bf16[] constant(0)
  broadcast.1085 = bf16[128,56,56,64]{3,2,1,0} broadcast(constant.1084), dimensions={}
  constant.1157 = pred[] constant(false)
  constant.1166 = bf16[] constant(0)
  broadcast.1167 = bf16[128,56,56,64]{3,2,1,0} broadcast(constant.1166), dimensions={}
  constant.1240 = pred[] constant(false)
  constant.1249 = bf16[] constant(0)
  broadcast.1250 = bf16[128,56,56,256]{3,2,1,0} broadcast(constant.1249), dimensions={}
  constant.1322 = pred[] constant(false)
  constant.1331 = bf16[] constant(0)
  broadcast.1332 = bf16[128,56,56,64]{3,2,1,0} broadcast(constant.1331), dimensions={}
  constant.1404 = pred[] constant(false)
  constant.1413 = bf16[] constant(0)
  broadcast.1414 = bf16[128,56,56,64]{3,2,1,0} broadcast(constant.1413), dimensions={}
  constant.1487 = pred[] constant(false)
  constant.1496 = bf16[] constant(0)
  broadcast.1497 = bf16[128,56,56,256]{3,2,1,0} broadcast(constant.1496), dimensions={}
  constant.1569 = pred[] constant(false)
  constant.1578 = bf16[] constant(0)
  broadcast.1579 = bf16[128,56,56,128]{3,2,1,0} broadcast(constant.1578), dimensions={}
  constant.1651 = pred[] constant(false)
  constant.1660 = bf16[] constant(0)
  broadcast.1661 = bf16[128,28,28,128]{3,2,1,0} broadcast(constant.1660), dimensions={}
  constant.1805 = pred[] constant(false)
  constant.1814 = bf16[] constant(0)
  broadcast.1815 = bf16[128,28,28,512]{3,2,1,0} broadcast(constant.1814), dimensions={}
  constant.1887 = pred[] constant(false)
  constant.1896 = bf16[] constant(0)
  broadcast.1897 = bf16[128,28,28,128]{3,2,1,0} broadcast(constant.1896), dimensions={}
  constant.1969 = pred[] constant(false)
  constant.1978 = bf16[] constant(0)
  broadcast.1979 = bf16[128,28,28,128]{3,2,1,0} broadcast(constant.1978), dimensions={}
  constant.2052 = pred[] constant(false)
  constant.2061 = bf16[] constant(0)
  broadcast.2062 = bf16[128,28,28,512]{3,2,1,0} broadcast(constant.2061), dimensions={}
  constant.2134 = pred[] constant(false)
  constant.2143 = bf16[] constant(0)
  broadcast.2144 = bf16[128,28,28,128]{3,2,1,0} broadcast(constant.2143), dimensions={}
  constant.2216 = pred[] constant(false)
  constant.2225 = bf16[] constant(0)
  broadcast.2226 = bf16[128,28,28,128]{3,2,1,0} broadcast(constant.2225), dimensions={}
  constant.2299 = pred[] constant(false)
  constant.2308 = bf16[] constant(0)
  broadcast.2309 = bf16[128,28,28,512]{3,2,1,0} broadcast(constant.2308), dimensions={}
  constant.2381 = pred[] constant(false)
  constant.2390 = bf16[] constant(0)
  broadcast.2391 = bf16[128,28,28,128]{3,2,1,0} broadcast(constant.2390), dimensions={}
  constant.2463 = pred[] constant(false)
  constant.2472 = bf16[] constant(0)
  broadcast.2473 = bf16[128,28,28,128]{3,2,1,0} broadcast(constant.2472), dimensions={}
  constant.2546 = pred[] constant(false)
  constant.2555 = bf16[] constant(0)
  broadcast.2556 = bf16[128,28,28,512]{3,2,1,0} broadcast(constant.2555), dimensions={}
  constant.2628 = pred[] constant(false)
  constant.2637 = bf16[] constant(0)
  broadcast.2638 = bf16[128,28,28,256]{3,2,1,0} broadcast(constant.2637), dimensions={}
  constant.2710 = pred[] constant(false)
  constant.2719 = bf16[] constant(0)
  broadcast.2720 = bf16[128,14,14,256]{3,2,1,0} broadcast(constant.2719), dimensions={}
  constant.2864 = pred[] constant(false)
  constant.2873 = bf16[] constant(0)
  broadcast.2874 = bf16[128,14,14,1024]{3,2,1,0} broadcast(constant.2873), dimensions={}
  constant.2946 = pred[] constant(false)
  constant.2955 = bf16[] constant(0)
  broadcast.2956 = bf16[128,14,14,256]{3,2,1,0} broadcast(constant.2955), dimensions={}
  constant.3028 = pred[] constant(false)
  constant.3037 = bf16[] constant(0)
  broadcast.3038 = bf16[128,14,14,256]{3,2,1,0} broadcast(constant.3037), dimensions={}
  constant.3111 = pred[] constant(false)
  constant.3120 = bf16[] constant(0)
  broadcast.3121 = bf16[128,14,14,1024]{3,2,1,0} broadcast(constant.3120), dimensions={}
  constant.3193 = pred[] constant(false)
  constant.3202 = bf16[] constant(0)
  broadcast.3203 = bf16[128,14,14,256]{3,2,1,0} broadcast(constant.3202), dimensions={}
  constant.3275 = pred[] constant(false)
  constant.3284 = bf16[] constant(0)
  broadcast.3285 = bf16[128,14,14,256]{3,2,1,0} broadcast(constant.3284), dimensions={}
  constant.3358 = pred[] constant(false)
  constant.3367 = bf16[] constant(0)
  broadcast.3368 = bf16[128,14,14,1024]{3,2,1,0} broadcast(constant.3367), dimensions={}
  constant.3440 = pred[] constant(false)
  constant.3449 = bf16[] constant(0)
  broadcast.3450 = bf16[128,14,14,256]{3,2,1,0} broadcast(constant.3449), dimensions={}
  constant.3522 = pred[] constant(false)
  constant.3531 = bf16[] constant(0)
  broadcast.3532 = bf16[128,14,14,256]{3,2,1,0} broadcast(constant.3531), dimensions={}
  constant.3605 = pred[] constant(false)
  constant.3614 = bf16[] constant(0)
  broadcast.3615 = bf16[128,14,14,1024]{3,2,1,0} broadcast(constant.3614), dimensions={}
  constant.3687 = pred[] constant(false)
  constant.3696 = bf16[] constant(0)
  broadcast.3697 = bf16[128,14,14,256]{3,2,1,0} broadcast(constant.3696), dimensions={}
  constant.3769 = pred[] constant(false)
  constant.3778 = bf16[] constant(0)
  broadcast.3779 = bf16[128,14,14,256]{3,2,1,0} broadcast(constant.3778), dimensions={}
  constant.3852 = pred[] constant(false)
  constant.3861 = bf16[] constant(0)
  broadcast.3862 = bf16[128,14,14,1024]{3,2,1,0} broadcast(constant.3861), dimensions={}
  constant.3934 = pred[] constant(false)
  constant.3943 = bf16[] constant(0)
  broadcast.3944 = bf16[128,14,14,256]{3,2,1,0} broadcast(constant.3943), dimensions={}
  constant.4016 = pred[] constant(false)
  constant.4025 = bf16[] constant(0)
  broadcast.4026 = bf16[128,14,14,256]{3,2,1,0} broadcast(constant.4025), dimensions={}
  constant.4099 = pred[] constant(false)
  constant.4108 = bf16[] constant(0)
  broadcast.4109 = bf16[128,14,14,1024]{3,2,1,0} broadcast(constant.4108), dimensions={}
  constant.4181 = pred[] constant(false)
  constant.4190 = bf16[] constant(0)
  broadcast.4191 = bf16[128,14,14,512]{3,2,1,0} broadcast(constant.4190), dimensions={}
  constant.4263 = pred[] constant(false)
  constant.4272 = bf16[] constant(0)
  broadcast.4273 = bf16[128,7,7,512]{3,2,1,0} broadcast(constant.4272), dimensions={}
  constant.4417 = pred[] constant(false)
  constant.4426 = bf16[] constant(0)
  broadcast.4427 = bf16[128,7,7,2048]{3,2,1,0} broadcast(constant.4426), dimensions={}
  constant.4499 = pred[] constant(false)
  constant.4508 = bf16[] constant(0)
  broadcast.4509 = bf16[128,7,7,512]{3,2,1,0} broadcast(constant.4508), dimensions={}
  constant.4581 = pred[] constant(false)
  constant.4590 = bf16[] constant(0)
  broadcast.4591 = bf16[128,7,7,512]{3,2,1,0} broadcast(constant.4590), dimensions={}
  constant.4664 = pred[] constant(false)
  constant.4673 = bf16[] constant(0)
  broadcast.4674 = bf16[128,7,7,2048]{3,2,1,0} broadcast(constant.4673), dimensions={}
  constant.4746 = pred[] constant(false)
  constant.4755 = bf16[] constant(0)
  broadcast.4756 = bf16[128,7,7,512]{3,2,1,0} broadcast(constant.4755), dimensions={}
  constant.4828 = pred[] constant(false)
  constant.4837 = bf16[] constant(0)
  broadcast.4838 = bf16[128,7,7,512]{3,2,1,0} broadcast(constant.4837), dimensions={}
  constant.4911 = pred[] constant(false)
  constant.4920 = bf16[] constant(0)
  broadcast.4921 = bf16[128,7,7,2048]{3,2,1,0} broadcast(constant.4920), dimensions={}
  parameter.163 = f32[128,224,224,3]{3,2,1,0} parameter(162)
  convert.597 = bf16[128,224,224,3]{3,2,1,0} convert(parameter.163)
  parameter.161 = f32[7,7,3,64]{3,2,1,0} parameter(160)
  convert.598 = bf16[7,7,3,64]{3,2,1,0} convert(parameter.161)
  convolution.599 = bf16[128,112,112,64]{3,2,1,0} convolution(convert.597, convert.598), window={size=7x7 stride=2x2 pad=3_3x3_3}, dim_labels=b01f_01io->b01f
  convert.600 = f32[128,112,112,64]{3,2,1,0} convert(convolution.599)
  constant.601 = f32[] constant(0)
  reduce.606 = f32[64]{0} reduce(convert.600, constant.601), dimensions={0,1,2}, to_apply=primitive_computation_add.602
  constant.607 = s32[] constant(1605632)
  convert.608 = f32[] convert(constant.607)
  broadcast.609 = f32[64]{0} broadcast(convert.608), dimensions={}
  divide.610 = f32[64]{0} divide(reduce.606, broadcast.609)
  reshape.644 = f32[1,1,1,64]{3,2,1,0} reshape(divide.610)
  reshape.645 = f32[64]{0} reshape(reshape.644)
  broadcast.646 = f32[128,112,112,64]{3,2,1,0} broadcast(reshape.645), dimensions={3}
  subtract.647 = f32[128,112,112,64]{3,2,1,0} subtract(convert.600, broadcast.646)
  multiply.611 = f32[128,112,112,64]{3,2,1,0} multiply(convert.600, convert.600)
  constant.615 = f32[] constant(0)
  reduce.620 = f32[64]{0} reduce(multiply.611, constant.615), dimensions={0,1,2}, to_apply=primitive_computation_add.616
  constant.621 = s32[] constant(1605632)
  convert.622 = f32[] convert(constant.621)
  broadcast.623 = f32[64]{0} broadcast(convert.622), dimensions={}
  divide.624 = f32[64]{0} divide(reduce.620, broadcast.623)
  multiply.625 = f32[64]{0} multiply(divide.610, divide.610)
  subtract.629 = f32[64]{0} subtract(divide.624, multiply.625)
  constant.648 = f32[] constant(1e-05)
  broadcast.649 = f32[64]{0} broadcast(constant.648), dimensions={}
  add.650 = f32[64]{0} add(subtract.629, broadcast.649)
  rsqrt.651 = f32[64]{0} rsqrt(add.650)
  broadcast.659 = f32[1,1,1,64]{3,2,1,0} broadcast(rsqrt.651), dimensions={3}
  parameter.160 = f32[64]{0} parameter(159)
  reshape.658 = f32[1,1,1,64]{3,2,1,0} reshape(parameter.160)
  multiply.660 = f32[1,1,1,64]{3,2,1,0} multiply(broadcast.659, reshape.658)
  reshape.661 = f32[64]{0} reshape(multiply.660)
  broadcast.662 = f32[128,112,112,64]{3,2,1,0} broadcast(reshape.661), dimensions={3}
  multiply.663 = f32[128,112,112,64]{3,2,1,0} multiply(subtract.647, broadcast.662)
  parameter.159 = f32[64]{0} parameter(158)
  reshape.664 = f32[1,1,1,64]{3,2,1,0} reshape(parameter.159)
  reshape.665 = f32[64]{0} reshape(reshape.664)
  broadcast.666 = f32[128,112,112,64]{3,2,1,0} broadcast(reshape.665), dimensions={3}
  add.667 = f32[128,112,112,64]{3,2,1,0} add(multiply.663, broadcast.666)
  convert.668 = bf16[128,112,112,64]{3,2,1,0} convert(add.667)
  constant.670 = bf16[] constant(0)
  broadcast.671 = bf16[128,112,112,64]{3,2,1,0} broadcast(constant.670), dimensions={}
  maximum.672 = bf16[128,112,112,64]{3,2,1,0} maximum(convert.668, broadcast.671)
  tuple.673 = (bf16[128,112,112,64]{3,2,1,0}) tuple(maximum.672)
  get-tuple-element.674 = bf16[128,112,112,64]{3,2,1,0} get-tuple-element(tuple.673), index=0
  constant.680 = bf16[] constant(-inf)
  reduce-window.685 = bf16[128,56,56,64]{3,2,1,0} reduce-window(get-tuple-element.674, constant.680), window={size=1x3x3x1 stride=1x2x2x1 pad=0_0x0_1x0_1x0_0}, to_apply=primitive_computation_max.681
  parameter.10 = f32[1,1,64,256]{3,2,1,0} parameter(9)
  convert.921 = bf16[1,1,64,256]{3,2,1,0} convert(parameter.10)
  convolution.922 = bf16[128,56,56,256]{3,2,1,0} convolution(reduce-window.685, convert.921), window={size=1x1}, dim_labels=b01f_01io->b01f
  convert.923 = f32[128,56,56,256]{3,2,1,0} convert(convolution.922)
  constant.924 = f32[] constant(0)
  reduce.929 = f32[256]{0} reduce(convert.923, constant.924), dimensions={0,1,2}, to_apply=primitive_computation_add.925
  constant.930 = s32[] constant(401408)
  convert.931 = f32[] convert(constant.930)
  broadcast.932 = f32[256]{0} broadcast(convert.931), dimensions={}
  divide.933 = f32[256]{0} divide(reduce.929, broadcast.932)
  reshape.967 = f32[1,1,1,256]{3,2,1,0} reshape(divide.933)
  reshape.968 = f32[256]{0} reshape(reshape.967)
  broadcast.969 = f32[128,56,56,256]{3,2,1,0} broadcast(reshape.968), dimensions={3}
  subtract.970 = f32[128,56,56,256]{3,2,1,0} subtract(convert.923, broadcast.969)
  multiply.934 = f32[128,56,56,256]{3,2,1,0} multiply(convert.923, convert.923)
  constant.938 = f32[] constant(0)
  reduce.943 = f32[256]{0} reduce(multiply.934, constant.938), dimensions={0,1,2}, to_apply=primitive_computation_add.939
  constant.944 = s32[] constant(401408)
  convert.945 = f32[] convert(constant.944)
  broadcast.946 = f32[256]{0} broadcast(convert.945), dimensions={}
  divide.947 = f32[256]{0} divide(reduce.943, broadcast.946)
  multiply.948 = f32[256]{0} multiply(divide.933, divide.933)
  subtract.952 = f32[256]{0} subtract(divide.947, multiply.948)
  constant.971 = f32[] constant(1e-05)
  broadcast.972 = f32[256]{0} broadcast(constant.971), dimensions={}
  add.973 = f32[256]{0} add(subtract.952, broadcast.972)
  rsqrt.974 = f32[256]{0} rsqrt(add.973)
  broadcast.982 = f32[1,1,1,256]{3,2,1,0} broadcast(rsqrt.974), dimensions={3}
  parameter.12 = f32[256]{0} parameter(11)
  reshape.981 = f32[1,1,1,256]{3,2,1,0} reshape(parameter.12)
  multiply.983 = f32[1,1,1,256]{3,2,1,0} multiply(broadcast.982, reshape.981)
  reshape.984 = f32[256]{0} reshape(multiply.983)
  broadcast.985 = f32[128,56,56,256]{3,2,1,0} broadcast(reshape.984), dimensions={3}
  multiply.986 = f32[128,56,56,256]{3,2,1,0} multiply(subtract.970, broadcast.985)
  parameter.11 = f32[256]{0} parameter(10)
  reshape.987 = f32[1,1,1,256]{3,2,1,0} reshape(parameter.11)
  reshape.988 = f32[256]{0} reshape(reshape.987)
  broadcast.989 = f32[128,56,56,256]{3,2,1,0} broadcast(reshape.988), dimensions={3}
  add.990 = f32[128,56,56,256]{3,2,1,0} add(multiply.986, broadcast.989)
  convert.991 = bf16[128,56,56,256]{3,2,1,0} convert(add.990)
  parameter.7 = f32[1,1,64,64]{3,2,1,0} parameter(6)
  convert.686 = bf16[1,1,64,64]{3,2,1,0} convert(parameter.7)
  convolution.687 = bf16[128,56,56,64]{3,2,1,0} convolution(reduce-window.685, convert.686), window={size=1x1}, dim_labels=b01f_01io->b01f
  convert.688 = f32[128,56,56,64]{3,2,1,0} convert(convolution.687)
  constant.689 = f32[] constant(0)
  reduce.694 = f32[64]{0} reduce(convert.688, constant.689), dimensions={0,1,2}, to_apply=primitive_computation_add.690
  constant.695 = s32[] constant(401408)
  convert.696 = f32[] convert(constant.695)
  broadcast.697 = f32[64]{0} broadcast(convert.696), dimensions={}
  divide.698 = f32[64]{0} divide(reduce.694, broadcast.697)
  reshape.732 = f32[1,1,1,64]{3,2,1,0} reshape(divide.698)
  reshape.733 = f32[64]{0} reshape(reshape.732)
  broadcast.734 = f32[128,56,56,64]{3,2,1,0} broadcast(reshape.733), dimensions={3}
  subtract.735 = f32[128,56,56,64]{3,2,1,0} subtract(convert.688, broadcast.734)
  multiply.699 = f32[128,56,56,64]{3,2,1,0} multiply(convert.688, convert.688)
  constant.703 = f32[] constant(0)
  reduce.708 = f32[64]{0} reduce(multiply.699, constant.703), dimensions={0,1,2}, to_apply=primitive_computation_add.704
  constant.709 = s32[] constant(401408)
  convert.710 = f32[] convert(constant.709)
  broadcast.711 = f32[64]{0} broadcast(convert.710), dimensions={}
  divide.712 = f32[64]{0} divide(reduce.708, broadcast.711)
  multiply.713 = f32[64]{0} multiply(divide.698, divide.698)
  subtract.717 = f32[64]{0} subtract(divide.712, multiply.713)
  constant.736 = f32[] constant(1e-05)
  broadcast.737 = f32[64]{0} broadcast(constant.736), dimensions={}
  add.738 = f32[64]{0} add(subtract.717, broadcast.737)
  rsqrt.739 = f32[64]{0} rsqrt(add.738)
  broadcast.747 = f32[1,1,1,64]{3,2,1,0} broadcast(rsqrt.739), dimensions={3}
  parameter.2 = f32[64]{0} parameter(1)
  reshape.746 = f32[1,1,1,64]{3,2,1,0} reshape(parameter.2)
  multiply.748 = f32[1,1,1,64]{3,2,1,0} multiply(broadcast.747, reshape.746)
  reshape.749 = f32[64]{0} reshape(multiply.748)
  broadcast.750 = f32[128,56,56,64]{3,2,1,0} broadcast(reshape.749), dimensions={3}
  multiply.751 = f32[128,56,56,64]{3,2,1,0} multiply(subtract.735, broadcast.750)
  parameter.1 = f32[64]{0} parameter(0)
  reshape.752 = f32[1,1,1,64]{3,2,1,0} reshape(parameter.1)
  reshape.753 = f32[64]{0} reshape(reshape.752)
  broadcast.754 = f32[128,56,56,64]{3,2,1,0} broadcast(reshape.753), dimensions={3}
  add.755 = f32[128,56,56,64]{3,2,1,0} add(multiply.751, broadcast.754)
  convert.756 = bf16[128,56,56,64]{3,2,1,0} convert(add.755)
  constant.758 = bf16[] constant(0)
  broadcast.759 = bf16[128,56,56,64]{3,2,1,0} broadcast(constant.758), dimensions={}
  maximum.760 = bf16[128,56,56,64]{3,2,1,0} maximum(convert.756, broadcast.759)
  tuple.761 = (bf16[128,56,56,64]{3,2,1,0}) tuple(maximum.760)
  get-tuple-element.762 = bf16[128,56,56,64]{3,2,1,0} get-tuple-element(tuple.761), index=0
  parameter.8 = f32[3,3,64,64]{3,2,1,0} parameter(7)
  convert.768 = bf16[3,3,64,64]{3,2,1,0} convert(parameter.8)
  convolution.769 = bf16[128,56,56,64]{3,2,1,0} convolution(get-tuple-element.762, convert.768), window={size=3x3 pad=1_1x1_1}, dim_labels=b01f_01io->b01f
  convert.770 = f32[128,56,56,64]{3,2,1,0} convert(convolution.769)
  constant.771 = f32[] constant(0)
  reduce.776 = f32[64]{0} reduce(convert.770, constant.771), dimensions={0,1,2}, to_apply=primitive_computation_add.772
  constant.777 = s32[] constant(401408)
  convert.778 = f32[] convert(constant.777)
  broadcast.779 = f32[64]{0} broadcast(convert.778), dimensions={}
  divide.780 = f32[64]{0} divide(reduce.776, broadcast.779)
  reshape.814 = f32[1,1,1,64]{3,2,1,0} reshape(divide.780)
  reshape.815 = f32[64]{0} reshape(reshape.814)
  broadcast.816 = f32[128,56,56,64]{3,2,1,0} broadcast(reshape.815), dimensions={3}
  subtract.817 = f32[128,56,56,64]{3,2,1,0} subtract(convert.770, broadcast.816)
  multiply.781 = f32[128,56,56,64]{3,2,1,0} multiply(convert.770, convert.770)
  constant.785 = f32[] constant(0)
  reduce.790 = f32[64]{0} reduce(multiply.781, constant.785), dimensions={0,1,2}, to_apply=primitive_computation_add.786
  constant.791 = s32[] constant(401408)
  convert.792 = f32[] convert(constant.791)
  broadcast.793 = f32[64]{0} broadcast(convert.792), dimensions={}
  divide.794 = f32[64]{0} divide(reduce.790, broadcast.793)
  multiply.795 = f32[64]{0} multiply(divide.780, divide.780)
  subtract.799 = f32[64]{0} subtract(divide.794, multiply.795)
  constant.818 = f32[] constant(1e-05)
  broadcast.819 = f32[64]{0} broadcast(constant.818), dimensions={}
  add.820 = f32[64]{0} add(subtract.799, broadcast.819)
  rsqrt.821 = f32[64]{0} rsqrt(add.820)
  broadcast.829 = f32[1,1,1,64]{3,2,1,0} broadcast(rsqrt.821), dimensions={3}
  parameter.4 = f32[64]{0} parameter(3)
  reshape.828 = f32[1,1,1,64]{3,2,1,0} reshape(parameter.4)
  multiply.830 = f32[1,1,1,64]{3,2,1,0} multiply(broadcast.829, reshape.828)
  reshape.831 = f32[64]{0} reshape(multiply.830)
  broadcast.832 = f32[128,56,56,64]{3,2,1,0} broadcast(reshape.831), dimensions={3}
  multiply.833 = f32[128,56,56,64]{3,2,1,0} multiply(subtract.817, broadcast.832)
  parameter.3 = f32[64]{0} parameter(2)
  reshape.834 = f32[1,1,1,64]{3,2,1,0} reshape(parameter.3)
  reshape.835 = f32[64]{0} reshape(reshape.834)
  broadcast.836 = f32[128,56,56,64]{3,2,1,0} broadcast(reshape.835), dimensions={3}
  add.837 = f32[128,56,56,64]{3,2,1,0} add(multiply.833, broadcast.836)
  convert.838 = bf16[128,56,56,64]{3,2,1,0} convert(add.837)
  constant.840 = bf16[] constant(0)
  broadcast.841 = bf16[128,56,56,64]{3,2,1,0} broadcast(constant.840), dimensions={}
  maximum.842 = bf16[128,56,56,64]{3,2,1,0} maximum(convert.838, broadcast.841)
  tuple.843 = (bf16[128,56,56,64]{3,2,1,0}) tuple(maximum.842)
  get-tuple-element.844 = bf16[128,56,56,64]{3,2,1,0} get-tuple-element(tuple.843), index=0
  parameter.9 = f32[1,1,64,256]{3,2,1,0} parameter(8)
  convert.850 = bf16[1,1,64,256]{3,2,1,0} convert(parameter.9)
  convolution.851 = bf16[128,56,56,256]{3,2,1,0} convolution(get-tuple-element.844, convert.850), window={size=1x1}, dim_labels=b01f_01io->b01f
  convert.852 = f32[128,56,56,256]{3,2,1,0} convert(convolution.851)
  constant.853 = f32[] constant(0)
  reduce.858 = f32[256]{0} reduce(convert.852, constant.853), dimensions={0,1,2}, to_apply=primitive_computation_add.854
  constant.859 = s32[] constant(401408)
  convert.860 = f32[] convert(constant.859)
  broadcast.861 = f32[256]{0} broadcast(convert.860), dimensions={}
  divide.862 = f32[256]{0} divide(reduce.858, broadcast.861)
  reshape.896 = f32[1,1,1,256]{3,2,1,0} reshape(divide.862)
  reshape.897 = f32[256]{0} reshape(reshape.896)
  broadcast.898 = f32[128,56,56,256]{3,2,1,0} broadcast(reshape.897), dimensions={3}
  subtract.899 = f32[128,56,56,256]{3,2,1,0} subtract(convert.852, broadcast.898)
  multiply.863 = f32[128,56,56,256]{3,2,1,0} multiply(convert.852, convert.852)
  constant.867 = f32[] constant(0)
  reduce.872 = f32[256]{0} reduce(multiply.863, constant.867), dimensions={0,1,2}, to_apply=primitive_computation_add.868
  constant.873 = s32[] constant(401408)
  convert.874 = f32[] convert(constant.873)
  broadcast.875 = f32[256]{0} broadcast(convert.874), dimensions={}
  divide.876 = f32[256]{0} divide(reduce.872, broadcast.875)
  multiply.877 = f32[256]{0} multiply(divide.862, divide.862)
  subtract.881 = f32[256]{0} subtract(divide.876, multiply.877)
  constant.900 = f32[] constant(1e-05)
  broadcast.901 = f32[256]{0} broadcast(constant.900), dimensions={}
  add.902 = f32[256]{0} add(subtract.881, broadcast.901)
  rsqrt.903 = f32[256]{0} rsqrt(add.902)
  broadcast.911 = f32[1,1,1,256]{3,2,1,0} broadcast(rsqrt.903), dimensions={3}
  parameter.6 = f32[256]{0} parameter(5)
  reshape.910 = f32[1,1,1,256]{3,2,1,0} reshape(parameter.6)
  multiply.912 = f32[1,1,1,256]{3,2,1,0} multiply(broadcast.911, reshape.910)
  reshape.913 = f32[256]{0} reshape(multiply.912)
  broadcast.914 = f32[128,56,56,256]{3,2,1,0} broadcast(reshape.913), dimensions={3}
  multiply.915 = f32[128,56,56,256]{3,2,1,0} multiply(subtract.899, broadcast.914)
  parameter.5 = f32[256]{0} parameter(4)
  reshape.916 = f32[1,1,1,256]{3,2,1,0} reshape(parameter.5)
  reshape.917 = f32[256]{0} reshape(reshape.916)
  broadcast.918 = f32[128,56,56,256]{3,2,1,0} broadcast(reshape.917), dimensions={3}
  add.919 = f32[128,56,56,256]{3,2,1,0} add(multiply.915, broadcast.918)
  convert.920 = bf16[128,56,56,256]{3,2,1,0} convert(add.919)
  add.992 = bf16[128,56,56,256]{3,2,1,0} add(convert.991, convert.920)
  constant.994 = bf16[] constant(0)
  broadcast.995 = bf16[128,56,56,256]{3,2,1,0} broadcast(constant.994), dimensions={}
  maximum.996 = bf16[128,56,56,256]{3,2,1,0} maximum(add.992, broadcast.995)
  tuple.997 = (bf16[128,56,56,256]{3,2,1,0}) tuple(maximum.996)
  get-tuple-element.998 = bf16[128,56,56,256]{3,2,1,0} get-tuple-element(tuple.997), index=0
  parameter.19 = f32[1,1,256,64]{3,2,1,0} parameter(18)
  convert.1004 = bf16[1,1,256,64]{3,2,1,0} convert(parameter.19)
  convolution.1005 = bf16[128,56,56,64]{3,2,1,0} convolution(get-tuple-element.998, convert.1004), window={size=1x1}, dim_labels=b01f_01io->b01f
  convert.1006 = f32[128,56,56,64]{3,2,1,0} convert(convolution.1005)
  constant.1007 = f32[] constant(0)
  reduce.1012 = f32[64]{0} reduce(convert.1006, constant.1007), dimensions={0,1,2}, to_apply=primitive_computation_add.1008
  constant.1013 = s32[] constant(401408)
  convert.1014 = f32[] convert(constant.1013)
  broadcast.1015 = f32[64]{0} broadcast(convert.1014), dimensions={}
  divide.1016 = f32[64]{0} divide(reduce.1012, broadcast.1015)
  reshape.1050 = f32[1,1,1,64]{3,2,1,0} reshape(divide.1016)
  reshape.1051 = f32[64]{0} reshape(reshape.1050)
  broadcast.1052 = f32[128,56,56,64]{3,2,1,0} broadcast(reshape.1051), dimensions={3}
  subtract.1053 = f32[128,56,56,64]{3,2,1,0} subtract(convert.1006, broadcast.1052)
  multiply.1017 = f32[128,56,56,64]{3,2,1,0} multiply(convert.1006, convert.1006)
  constant.1021 = f32[] constant(0)
  reduce.1026 = f32[64]{0} reduce(multiply.1017, constant.1021), dimensions={0,1,2}, to_apply=primitive_computation_add.1022
  constant.1027 = s32[] constant(401408)
  convert.1028 = f32[] convert(constant.1027)
  broadcast.1029 = f32[64]{0} broadcast(convert.1028), dimensions={}
  divide.1030 = f32[64]{0} divide(reduce.1026, broadcast.1029)
  multiply.1031 = f32[64]{0} multiply(divide.1016, divide.1016)
  subtract.1035 = f32[64]{0} subtract(divide.1030, multiply.1031)
  constant.1054 = f32[] constant(1e-05)
  broadcast.1055 = f32[64]{0} broadcast(constant.1054), dimensions={}
  add.1056 = f32[64]{0} add(subtract.1035, broadcast.1055)
  rsqrt.1057 = f32[64]{0} rsqrt(add.1056)
  broadcast.1065 = f32[1,1,1,64]{3,2,1,0} broadcast(rsqrt.1057), dimensions={3}
  parameter.14 = f32[64]{0} parameter(13)
  reshape.1064 = f32[1,1,1,64]{3,2,1,0} reshape(parameter.14)
  multiply.1066 = f32[1,1,1,64]{3,2,1,0} multiply(broadcast.1065, reshape.1064)
  reshape.1067 = f32[64]{0} reshape(multiply.1066)
  broadcast.1068 = f32[128,56,56,64]{3,2,1,0} broadcast(reshape.1067), dimensions={3}
  multiply.1069 = f32[128,56,56,64]{3,2,1,0} multiply(subtract.1053, broadcast.1068)
  parameter.13 = f32[64]{0} parameter(12)
  reshape.1070 = f32[1,1,1,64]{3,2,1,0} reshape(parameter.13)
  reshape.1071 = f32[64]{0} reshape(reshape.1070)
  broadcast.1072 = f32[128,56,56,64]{3,2,1,0} broadcast(reshape.1071), dimensions={3}
  add.1073 = f32[128,56,56,64]{3,2,1,0} add(multiply.1069, broadcast.1072)
  convert.1074 = bf16[128,56,56,64]{3,2,1,0} convert(add.1073)
  constant.1076 = bf16[] constant(0)
  broadcast.1077 = bf16[128,56,56,64]{3,2,1,0} broadcast(constant.1076), dimensions={}
  maximum.1078 = bf16[128,56,56,64]{3,2,1,0} maximum(convert.1074, broadcast.1077)
  tuple.1079 = (bf16[128,56,56,64]{3,2,1,0}) tuple(maximum.1078)
  get-tuple-element.1080 = bf16[128,56,56,64]{3,2,1,0} get-tuple-element(tuple.1079), index=0
  parameter.20 = f32[3,3,64,64]{3,2,1,0} parameter(19)
  convert.1086 = bf16[3,3,64,64]{3,2,1,0} convert(parameter.20)
  convolution.1087 = bf16[128,56,56,64]{3,2,1,0} convolution(get-tuple-element.1080, convert.1086), window={size=3x3 pad=1_1x1_1}, dim_labels=b01f_01io->b01f
  convert.1088 = f32[128,56,56,64]{3,2,1,0} convert(convolution.1087)
  constant.1089 = f32[] constant(0)
  reduce.1094 = f32[64]{0} reduce(convert.1088, constant.1089), dimensions={0,1,2}, to_apply=primitive_computation_add.1090
  constant.1095 = s32[] constant(401408)
  convert.1096 = f32[] convert(constant.1095)
  broadcast.1097 = f32[64]{0} broadcast(convert.1096), dimensions={}
  divide.1098 = f32[64]{0} divide(reduce.1094, broadcast.1097)
  reshape.1132 = f32[1,1,1,64]{3,2,1,0} reshape(divide.1098)
  reshape.1133 = f32[64]{0} reshape(reshape.1132)
  broadcast.1134 = f32[128,56,56,64]{3,2,1,0} broadcast(reshape.1133), dimensions={3}
  subtract.1135 = f32[128,56,56,64]{3,2,1,0} subtract(convert.1088, broadcast.1134)
  multiply.1099 = f32[128,56,56,64]{3,2,1,0} multiply(convert.1088, convert.1088)
  constant.1103 = f32[] constant(0)
  reduce.1108 = f32[64]{0} reduce(multiply.1099, constant.1103), dimensions={0,1,2}, to_apply=primitive_computation_add.1104
  constant.1109 = s32[] constant(401408)
  convert.1110 = f32[] convert(constant.1109)
  broadcast.1111 = f32[64]{0} broadcast(convert.1110), dimensions={}
  divide.1112 = f32[64]{0} divide(reduce.1108, broadcast.1111)
  multiply.1113 = f32[64]{0} multiply(divide.1098, divide.1098)
  subtract.1117 = f32[64]{0} subtract(divide.1112, multiply.1113)
  constant.1136 = f32[] constant(1e-05)
  broadcast.1137 = f32[64]{0} broadcast(constant.1136), dimensions={}
  add.1138 = f32[64]{0} add(subtract.1117, broadcast.1137)
  rsqrt.1139 = f32[64]{0} rsqrt(add.1138)
  broadcast.1147 = f32[1,1,1,64]{3,2,1,0} broadcast(rsqrt.1139), dimensions={3}
  parameter.16 = f32[64]{0} parameter(15)
  reshape.1146 = f32[1,1,1,64]{3,2,1,0} reshape(parameter.16)
  multiply.1148 = f32[1,1,1,64]{3,2,1,0} multiply(broadcast.1147, reshape.1146)
  reshape.1149 = f32[64]{0} reshape(multiply.1148)
  broadcast.1150 = f32[128,56,56,64]{3,2,1,0} broadcast(reshape.1149), dimensions={3}
  multiply.1151 = f32[128,56,56,64]{3,2,1,0} multiply(subtract.1135, broadcast.1150)
  parameter.15 = f32[64]{0} parameter(14)
  reshape.1152 = f32[1,1,1,64]{3,2,1,0} reshape(parameter.15)
  reshape.1153 = f32[64]{0} reshape(reshape.1152)
  broadcast.1154 = f32[128,56,56,64]{3,2,1,0} broadcast(reshape.1153), dimensions={3}
  add.1155 = f32[128,56,56,64]{3,2,1,0} add(multiply.1151, broadcast.1154)
  convert.1156 = bf16[128,56,56,64]{3,2,1,0} convert(add.1155)
  constant.1158 = bf16[] constant(0)
  broadcast.1159 = bf16[128,56,56,64]{3,2,1,0} broadcast(constant.1158), dimensions={}
  maximum.1160 = bf16[128,56,56,64]{3,2,1,0} maximum(convert.1156, broadcast.1159)
  tuple.1161 = (bf16[128,56,56,64]{3,2,1,0}) tuple(maximum.1160)
  get-tuple-element.1162 = bf16[128,56,56,64]{3,2,1,0} get-tuple-element(tuple.1161), index=0
  parameter.21 = f32[1,1,64,256]{3,2,1,0} parameter(20)
  convert.1168 = bf16[1,1,64,256]{3,2,1,0} convert(parameter.21)
  convolution.1169 = bf16[128,56,56,256]{3,2,1,0} convolution(get-tuple-element.1162, convert.1168), window={size=1x1}, dim_labels=b01f_01io->b01f
  convert.1170 = f32[128,56,56,256]{3,2,1,0} convert(convolution.1169)
  constant.1171 = f32[] constant(0)
  reduce.1176 = f32[256]{0} reduce(convert.1170, constant.1171), dimensions={0,1,2}, to_apply=primitive_computation_add.1172
  constant.1177 = s32[] constant(401408)
  convert.1178 = f32[] convert(constant.1177)
  broadcast.1179 = f32[256]{0} broadcast(convert.1178), dimensions={}
  divide.1180 = f32[256]{0} divide(reduce.1176, broadcast.1179)
  reshape.1214 = f32[1,1,1,256]{3,2,1,0} reshape(divide.1180)
  reshape.1215 = f32[256]{0} reshape(reshape.1214)
  broadcast.1216 = f32[128,56,56,256]{3,2,1,0} broadcast(reshape.1215), dimensions={3}
  subtract.1217 = f32[128,56,56,256]{3,2,1,0} subtract(convert.1170, broadcast.1216)
  multiply.1181 = f32[128,56,56,256]{3,2,1,0} multiply(convert.1170, convert.1170)
  constant.1185 = f32[] constant(0)
  reduce.1190 = f32[256]{0} reduce(multiply.1181, constant.1185), dimensions={0,1,2}, to_apply=primitive_computation_add.1186
  constant.1191 = s32[] constant(401408)
  convert.1192 = f32[] convert(constant.1191)
  broadcast.1193 = f32[256]{0} broadcast(convert.1192), dimensions={}
  divide.1194 = f32[256]{0} divide(reduce.1190, broadcast.1193)
  multiply.1195 = f32[256]{0} multiply(divide.1180, divide.1180)
  subtract.1199 = f32[256]{0} subtract(divide.1194, multiply.1195)
  constant.1218 = f32[] constant(1e-05)
  broadcast.1219 = f32[256]{0} broadcast(constant.1218), dimensions={}
  add.1220 = f32[256]{0} add(subtract.1199, broadcast.1219)
  rsqrt.1221 = f32[256]{0} rsqrt(add.1220)
  broadcast.1229 = f32[1,1,1,256]{3,2,1,0} broadcast(rsqrt.1221), dimensions={3}
  parameter.18 = f32[256]{0} parameter(17)
  reshape.1228 = f32[1,1,1,256]{3,2,1,0} reshape(parameter.18)
  multiply.1230 = f32[1,1,1,256]{3,2,1,0} multiply(broadcast.1229, reshape.1228)
  reshape.1231 = f32[256]{0} reshape(multiply.1230)
  broadcast.1232 = f32[128,56,56,256]{3,2,1,0} broadcast(reshape.1231), dimensions={3}
  multiply.1233 = f32[128,56,56,256]{3,2,1,0} multiply(subtract.1217, broadcast.1232)
  parameter.17 = f32[256]{0} parameter(16)
  reshape.1234 = f32[1,1,1,256]{3,2,1,0} reshape(parameter.17)
  reshape.1235 = f32[256]{0} reshape(reshape.1234)
  broadcast.1236 = f32[128,56,56,256]{3,2,1,0} broadcast(reshape.1235), dimensions={3}
  add.1237 = f32[128,56,56,256]{3,2,1,0} add(multiply.1233, broadcast.1236)
  convert.1238 = bf16[128,56,56,256]{3,2,1,0} convert(add.1237)
  add.1239 = bf16[128,56,56,256]{3,2,1,0} add(get-tuple-element.998, convert.1238)
  constant.1241 = bf16[] constant(0)
  broadcast.1242 = bf16[128,56,56,256]{3,2,1,0} broadcast(constant.1241), dimensions={}
  maximum.1243 = bf16[128,56,56,256]{3,2,1,0} maximum(add.1239, broadcast.1242)
  tuple.1244 = (bf16[128,56,56,256]{3,2,1,0}) tuple(maximum.1243)
  get-tuple-element.1245 = bf16[128,56,56,256]{3,2,1,0} get-tuple-element(tuple.1244), index=0
  parameter.85 = f32[1,1,256,64]{3,2,1,0} parameter(84)
  convert.1251 = bf16[1,1,256,64]{3,2,1,0} convert(parameter.85)
  convolution.1252 = bf16[128,56,56,64]{3,2,1,0} convolution(get-tuple-element.1245, convert.1251), window={size=1x1}, dim_labels=b01f_01io->b01f
  convert.1253 = f32[128,56,56,64]{3,2,1,0} convert(convolution.1252)
  constant.1254 = f32[] constant(0)
  reduce.1259 = f32[64]{0} reduce(convert.1253, constant.1254), dimensions={0,1,2}, to_apply=primitive_computation_add.1255
  constant.1260 = s32[] constant(401408)
  convert.1261 = f32[] convert(constant.1260)
  broadcast.1262 = f32[64]{0} broadcast(convert.1261), dimensions={}
  divide.1263 = f32[64]{0} divide(reduce.1259, broadcast.1262)
  reshape.1297 = f32[1,1,1,64]{3,2,1,0} reshape(divide.1263)
  reshape.1298 = f32[64]{0} reshape(reshape.1297)
  broadcast.1299 = f32[128,56,56,64]{3,2,1,0} broadcast(reshape.1298), dimensions={3}
  subtract.1300 = f32[128,56,56,64]{3,2,1,0} subtract(convert.1253, broadcast.1299)
  multiply.1264 = f32[128,56,56,64]{3,2,1,0} multiply(convert.1253, convert.1253)
  constant.1268 = f32[] constant(0)
  reduce.1273 = f32[64]{0} reduce(multiply.1264, constant.1268), dimensions={0,1,2}, to_apply=primitive_computation_add.1269
  constant.1274 = s32[] constant(401408)
  convert.1275 = f32[] convert(constant.1274)
  broadcast.1276 = f32[64]{0} broadcast(convert.1275), dimensions={}
  divide.1277 = f32[64]{0} divide(reduce.1273, broadcast.1276)
  multiply.1278 = f32[64]{0} multiply(divide.1263, divide.1263)
  subtract.1282 = f32[64]{0} subtract(divide.1277, multiply.1278)
  constant.1301 = f32[] constant(1e-05)
  broadcast.1302 = f32[64]{0} broadcast(constant.1301), dimensions={}
  add.1303 = f32[64]{0} add(subtract.1282, broadcast.1302)
  rsqrt.1304 = f32[64]{0} rsqrt(add.1303)
  broadcast.1312 = f32[1,1,1,64]{3,2,1,0} broadcast(rsqrt.1304), dimensions={3}
  parameter.80 = f32[64]{0} parameter(79)
  reshape.1311 = f32[1,1,1,64]{3,2,1,0} reshape(parameter.80)
  multiply.1313 = f32[1,1,1,64]{3,2,1,0} multiply(broadcast.1312, reshape.1311)
  reshape.1314 = f32[64]{0} reshape(multiply.1313)
  broadcast.1315 = f32[128,56,56,64]{3,2,1,0} broadcast(reshape.1314), dimensions={3}
  multiply.1316 = f32[128,56,56,64]{3,2,1,0} multiply(subtract.1300, broadcast.1315)
  parameter.79 = f32[64]{0} parameter(78)
  reshape.1317 = f32[1,1,1,64]{3,2,1,0} reshape(parameter.79)
  reshape.1318 = f32[64]{0} reshape(reshape.1317)
  broadcast.1319 = f32[128,56,56,64]{3,2,1,0} broadcast(reshape.1318), dimensions={3}
  add.1320 = f32[128,56,56,64]{3,2,1,0} add(multiply.1316, broadcast.1319)
  convert.1321 = bf16[128,56,56,64]{3,2,1,0} convert(add.1320)
  constant.1323 = bf16[] constant(0)
  broadcast.1324 = bf16[128,56,56,64]{3,2,1,0} broadcast(constant.1323), dimensions={}
  maximum.1325 = bf16[128,56,56,64]{3,2,1,0} maximum(convert.1321, broadcast.1324)
  tuple.1326 = (bf16[128,56,56,64]{3,2,1,0}) tuple(maximum.1325)
  get-tuple-element.1327 = bf16[128,56,56,64]{3,2,1,0} get-tuple-element(tuple.1326), index=0
  parameter.86 = f32[3,3,64,64]{3,2,1,0} parameter(85)
  convert.1333 = bf16[3,3,64,64]{3,2,1,0} convert(parameter.86)
  convolution.1334 = bf16[128,56,56,64]{3,2,1,0} convolution(get-tuple-element.1327, convert.1333), window={size=3x3 pad=1_1x1_1}, dim_labels=b01f_01io->b01f
  convert.1335 = f32[128,56,56,64]{3,2,1,0} convert(convolution.1334)
  constant.1336 = f32[] constant(0)
  reduce.1341 = f32[64]{0} reduce(convert.1335, constant.1336), dimensions={0,1,2}, to_apply=primitive_computation_add.1337
  constant.1342 = s32[] constant(401408)
  convert.1343 = f32[] convert(constant.1342)
  broadcast.1344 = f32[64]{0} broadcast(convert.1343), dimensions={}
  divide.1345 = f32[64]{0} divide(reduce.1341, broadcast.1344)
  reshape.1379 = f32[1,1,1,64]{3,2,1,0} reshape(divide.1345)
  reshape.1380 = f32[64]{0} reshape(reshape.1379)
  broadcast.1381 = f32[128,56,56,64]{3,2,1,0} broadcast(reshape.1380), dimensions={3}
  subtract.1382 = f32[128,56,56,64]{3,2,1,0} subtract(convert.1335, broadcast.1381)
  multiply.1346 = f32[128,56,56,64]{3,2,1,0} multiply(convert.1335, convert.1335)
  constant.1350 = f32[] constant(0)
  reduce.1355 = f32[64]{0} reduce(multiply.1346, constant.1350), dimensions={0,1,2}, to_apply=primitive_computation_add.1351
  constant.1356 = s32[] constant(401408)
  convert.1357 = f32[] convert(constant.1356)
  broadcast.1358 = f32[64]{0} broadcast(convert.1357), dimensions={}
  divide.1359 = f32[64]{0} divide(reduce.1355, broadcast.1358)
  multiply.1360 = f32[64]{0} multiply(divide.1345, divide.1345)
  subtract.1364 = f32[64]{0} subtract(divide.1359, multiply.1360)
  constant.1383 = f32[] constant(1e-05)
  broadcast.1384 = f32[64]{0} broadcast(constant.1383), dimensions={}
  add.1385 = f32[64]{0} add(subtract.1364, broadcast.1384)
  rsqrt.1386 = f32[64]{0} rsqrt(add.1385)
  broadcast.1394 = f32[1,1,1,64]{3,2,1,0} broadcast(rsqrt.1386), dimensions={3}
  parameter.82 = f32[64]{0} parameter(81)
  reshape.1393 = f32[1,1,1,64]{3,2,1,0} reshape(parameter.82)
  multiply.1395 = f32[1,1,1,64]{3,2,1,0} multiply(broadcast.1394, reshape.1393)
  reshape.1396 = f32[64]{0} reshape(multiply.1395)
  broadcast.1397 = f32[128,56,56,64]{3,2,1,0} broadcast(reshape.1396), dimensions={3}
  multiply.1398 = f32[128,56,56,64]{3,2,1,0} multiply(subtract.1382, broadcast.1397)
  parameter.81 = f32[64]{0} parameter(80)
  reshape.1399 = f32[1,1,1,64]{3,2,1,0} reshape(parameter.81)
  reshape.1400 = f32[64]{0} reshape(reshape.1399)
  broadcast.1401 = f32[128,56,56,64]{3,2,1,0} broadcast(reshape.1400), dimensions={3}
  add.1402 = f32[128,56,56,64]{3,2,1,0} add(multiply.1398, broadcast.1401)
  convert.1403 = bf16[128,56,56,64]{3,2,1,0} convert(add.1402)
  constant.1405 = bf16[] constant(0)
  broadcast.1406 = bf16[128,56,56,64]{3,2,1,0} broadcast(constant.1405), dimensions={}
  maximum.1407 = bf16[128,56,56,64]{3,2,1,0} maximum(convert.1403, broadcast.1406)
  tuple.1408 = (bf16[128,56,56,64]{3,2,1,0}) tuple(maximum.1407)
  get-tuple-element.1409 = bf16[128,56,56,64]{3,2,1,0} get-tuple-element(tuple.1408), index=0
  parameter.87 = f32[1,1,64,256]{3,2,1,0} parameter(86)
  convert.1415 = bf16[1,1,64,256]{3,2,1,0} convert(parameter.87)
  convolution.1416 = bf16[128,56,56,256]{3,2,1,0} convolution(get-tuple-element.1409, convert.1415), window={size=1x1}, dim_labels=b01f_01io->b01f
  convert.1417 = f32[128,56,56,256]{3,2,1,0} convert(convolution.1416)
  constant.1418 = f32[] constant(0)
  reduce.1423 = f32[256]{0} reduce(convert.1417, constant.1418), dimensions={0,1,2}, to_apply=primitive_computation_add.1419
  constant.1424 = s32[] constant(401408)
  convert.1425 = f32[] convert(constant.1424)
  broadcast.1426 = f32[256]{0} broadcast(convert.1425), dimensions={}
  divide.1427 = f32[256]{0} divide(reduce.1423, broadcast.1426)
  reshape.1461 = f32[1,1,1,256]{3,2,1,0} reshape(divide.1427)
  reshape.1462 = f32[256]{0} reshape(reshape.1461)
  broadcast.1463 = f32[128,56,56,256]{3,2,1,0} broadcast(reshape.1462), dimensions={3}
  subtract.1464 = f32[128,56,56,256]{3,2,1,0} subtract(convert.1417, broadcast.1463)
  multiply.1428 = f32[128,56,56,256]{3,2,1,0} multiply(convert.1417, convert.1417)
  constant.1432 = f32[] constant(0)
  reduce.1437 = f32[256]{0} reduce(multiply.1428, constant.1432), dimensions={0,1,2}, to_apply=primitive_computation_add.1433
  constant.1438 = s32[] constant(401408)
  convert.1439 = f32[] convert(constant.1438)
  broadcast.1440 = f32[256]{0} broadcast(convert.1439), dimensions={}
  divide.1441 = f32[256]{0} divide(reduce.1437, broadcast.1440)
  multiply.1442 = f32[256]{0} multiply(divide.1427, divide.1427)
  subtract.1446 = f32[256]{0} subtract(divide.1441, multiply.1442)
  constant.1465 = f32[] constant(1e-05)
  broadcast.1466 = f32[256]{0} broadcast(constant.1465), dimensions={}
  add.1467 = f32[256]{0} add(subtract.1446, broadcast.1466)
  rsqrt.1468 = f32[256]{0} rsqrt(add.1467)
  broadcast.1476 = f32[1,1,1,256]{3,2,1,0} broadcast(rsqrt.1468), dimensions={3}
  parameter.84 = f32[256]{0} parameter(83)
  reshape.1475 = f32[1,1,1,256]{3,2,1,0} reshape(parameter.84)
  multiply.1477 = f32[1,1,1,256]{3,2,1,0} multiply(broadcast.1476, reshape.1475)
  reshape.1478 = f32[256]{0} reshape(multiply.1477)
  broadcast.1479 = f32[128,56,56,256]{3,2,1,0} broadcast(reshape.1478), dimensions={3}
  multiply.1480 = f32[128,56,56,256]{3,2,1,0} multiply(subtract.1464, broadcast.1479)
  parameter.83 = f32[256]{0} parameter(82)
  reshape.1481 = f32[1,1,1,256]{3,2,1,0} reshape(parameter.83)
  reshape.1482 = f32[256]{0} reshape(reshape.1481)
  broadcast.1483 = f32[128,56,56,256]{3,2,1,0} broadcast(reshape.1482), dimensions={3}
  add.1484 = f32[128,56,56,256]{3,2,1,0} add(multiply.1480, broadcast.1483)
  convert.1485 = bf16[128,56,56,256]{3,2,1,0} convert(add.1484)
  add.1486 = bf16[128,56,56,256]{3,2,1,0} add(get-tuple-element.1245, convert.1485)
  constant.1488 = bf16[] constant(0)
  broadcast.1489 = bf16[128,56,56,256]{3,2,1,0} broadcast(constant.1488), dimensions={}
  maximum.1490 = bf16[128,56,56,256]{3,2,1,0} maximum(add.1486, broadcast.1489)
  tuple.1491 = (bf16[128,56,56,256]{3,2,1,0}) tuple(maximum.1490)
  get-tuple-element.1492 = bf16[128,56,56,256]{3,2,1,0} get-tuple-element(tuple.1491), index=0
  parameter.97 = f32[1,1,256,512]{3,2,1,0} parameter(96)
  convert.1733 = bf16[1,1,256,512]{3,2,1,0} convert(parameter.97)
  convolution.1734 = bf16[128,28,28,512]{3,2,1,0} convolution(get-tuple-element.1492, convert.1733), window={size=1x1 stride=2x2}, dim_labels=b01f_01io->b01f
  convert.1735 = f32[128,28,28,512]{3,2,1,0} convert(convolution.1734)
  constant.1736 = f32[] constant(0)
  reduce.1741 = f32[512]{0} reduce(convert.1735, constant.1736), dimensions={0,1,2}, to_apply=primitive_computation_add.1737
  constant.1742 = s32[] constant(100352)
  convert.1743 = f32[] convert(constant.1742)
  broadcast.1744 = f32[512]{0} broadcast(convert.1743), dimensions={}
  divide.1745 = f32[512]{0} divide(reduce.1741, broadcast.1744)
  reshape.1779 = f32[1,1,1,512]{3,2,1,0} reshape(divide.1745)
  reshape.1780 = f32[512]{0} reshape(reshape.1779)
  broadcast.1781 = f32[128,28,28,512]{3,2,1,0} broadcast(reshape.1780), dimensions={3}
  subtract.1782 = f32[128,28,28,512]{3,2,1,0} subtract(convert.1735, broadcast.1781)
  multiply.1746 = f32[128,28,28,512]{3,2,1,0} multiply(convert.1735, convert.1735)
  constant.1750 = f32[] constant(0)
  reduce.1755 = f32[512]{0} reduce(multiply.1746, constant.1750), dimensions={0,1,2}, to_apply=primitive_computation_add.1751
  constant.1756 = s32[] constant(100352)
  convert.1757 = f32[] convert(constant.1756)
  broadcast.1758 = f32[512]{0} broadcast(convert.1757), dimensions={}
  divide.1759 = f32[512]{0} divide(reduce.1755, broadcast.1758)
  multiply.1760 = f32[512]{0} multiply(divide.1745, divide.1745)
  subtract.1764 = f32[512]{0} subtract(divide.1759, multiply.1760)
  constant.1783 = f32[] constant(1e-05)
  broadcast.1784 = f32[512]{0} broadcast(constant.1783), dimensions={}
  add.1785 = f32[512]{0} add(subtract.1764, broadcast.1784)
  rsqrt.1786 = f32[512]{0} rsqrt(add.1785)
  broadcast.1794 = f32[1,1,1,512]{3,2,1,0} broadcast(rsqrt.1786), dimensions={3}
  parameter.99 = f32[512]{0} parameter(98)
  reshape.1793 = f32[1,1,1,512]{3,2,1,0} reshape(parameter.99)
  multiply.1795 = f32[1,1,1,512]{3,2,1,0} multiply(broadcast.1794, reshape.1793)
  reshape.1796 = f32[512]{0} reshape(multiply.1795)
  broadcast.1797 = f32[128,28,28,512]{3,2,1,0} broadcast(reshape.1796), dimensions={3}
  multiply.1798 = f32[128,28,28,512]{3,2,1,0} multiply(subtract.1782, broadcast.1797)
  parameter.98 = f32[512]{0} parameter(97)
  reshape.1799 = f32[1,1,1,512]{3,2,1,0} reshape(parameter.98)
  reshape.1800 = f32[512]{0} reshape(reshape.1799)
  broadcast.1801 = f32[128,28,28,512]{3,2,1,0} broadcast(reshape.1800), dimensions={3}
  add.1802 = f32[128,28,28,512]{3,2,1,0} add(multiply.1798, broadcast.1801)
  convert.1803 = bf16[128,28,28,512]{3,2,1,0} convert(add.1802)
  parameter.94 = f32[1,1,256,128]{3,2,1,0} parameter(93)
  convert.1498 = bf16[1,1,256,128]{3,2,1,0} convert(parameter.94)
  convolution.1499 = bf16[128,56,56,128]{3,2,1,0} convolution(get-tuple-element.1492, convert.1498), window={size=1x1}, dim_labels=b01f_01io->b01f
  convert.1500 = f32[128,56,56,128]{3,2,1,0} convert(convolution.1499)
  constant.1501 = f32[] constant(0)
  reduce.1506 = f32[128]{0} reduce(convert.1500, constant.1501), dimensions={0,1,2}, to_apply=primitive_computation_add.1502
  constant.1507 = s32[] constant(401408)
  convert.1508 = f32[] convert(constant.1507)
  broadcast.1509 = f32[128]{0} broadcast(convert.1508), dimensions={}
  divide.1510 = f32[128]{0} divide(reduce.1506, broadcast.1509)
  reshape.1544 = f32[1,1,1,128]{3,2,1,0} reshape(divide.1510)
  reshape.1545 = f32[128]{0} reshape(reshape.1544)
  broadcast.1546 = f32[128,56,56,128]{3,2,1,0} broadcast(reshape.1545), dimensions={3}
  subtract.1547 = f32[128,56,56,128]{3,2,1,0} subtract(convert.1500, broadcast.1546)
  multiply.1511 = f32[128,56,56,128]{3,2,1,0} multiply(convert.1500, convert.1500)
  constant.1515 = f32[] constant(0)
  reduce.1520 = f32[128]{0} reduce(multiply.1511, constant.1515), dimensions={0,1,2}, to_apply=primitive_computation_add.1516
  constant.1521 = s32[] constant(401408)
  convert.1522 = f32[] convert(constant.1521)
  broadcast.1523 = f32[128]{0} broadcast(convert.1522), dimensions={}
  divide.1524 = f32[128]{0} divide(reduce.1520, broadcast.1523)
  multiply.1525 = f32[128]{0} multiply(divide.1510, divide.1510)
  subtract.1529 = f32[128]{0} subtract(divide.1524, multiply.1525)
  constant.1548 = f32[] constant(1e-05)
  broadcast.1549 = f32[128]{0} broadcast(constant.1548), dimensions={}
  add.1550 = f32[128]{0} add(subtract.1529, broadcast.1549)
  rsqrt.1551 = f32[128]{0} rsqrt(add.1550)
  broadcast.1559 = f32[1,1,1,128]{3,2,1,0} broadcast(rsqrt.1551), dimensions={3}
  parameter.89 = f32[128]{0} parameter(88)
  reshape.1558 = f32[1,1,1,128]{3,2,1,0} reshape(parameter.89)
  multiply.1560 = f32[1,1,1,128]{3,2,1,0} multiply(broadcast.1559, reshape.1558)
  reshape.1561 = f32[128]{0} reshape(multiply.1560)
  broadcast.1562 = f32[128,56,56,128]{3,2,1,0} broadcast(reshape.1561), dimensions={3}
  multiply.1563 = f32[128,56,56,128]{3,2,1,0} multiply(subtract.1547, broadcast.1562)
  parameter.88 = f32[128]{0} parameter(87)
  reshape.1564 = f32[1,1,1,128]{3,2,1,0} reshape(parameter.88)
  reshape.1565 = f32[128]{0} reshape(reshape.1564)
  broadcast.1566 = f32[128,56,56,128]{3,2,1,0} broadcast(reshape.1565), dimensions={3}
  add.1567 = f32[128,56,56,128]{3,2,1,0} add(multiply.1563, broadcast.1566)
  convert.1568 = bf16[128,56,56,128]{3,2,1,0} convert(add.1567)
  constant.1570 = bf16[] constant(0)
  broadcast.1571 = bf16[128,56,56,128]{3,2,1,0} broadcast(constant.1570), dimensions={}
  maximum.1572 = bf16[128,56,56,128]{3,2,1,0} maximum(convert.1568, broadcast.1571)
  tuple.1573 = (bf16[128,56,56,128]{3,2,1,0}) tuple(maximum.1572)
  get-tuple-element.1574 = bf16[128,56,56,128]{3,2,1,0} get-tuple-element(tuple.1573), index=0
  parameter.95 = f32[3,3,128,128]{3,2,1,0} parameter(94)
  convert.1580 = bf16[3,3,128,128]{3,2,1,0} convert(parameter.95)
  convolution.1581 = bf16[128,28,28,128]{3,2,1,0} convolution(get-tuple-element.1574, convert.1580), window={size=3x3 stride=2x2 pad=0_1x0_1}, dim_labels=b01f_01io->b01f
  convert.1582 = f32[128,28,28,128]{3,2,1,0} convert(convolution.1581)
  constant.1583 = f32[] constant(0)
  reduce.1588 = f32[128]{0} reduce(convert.1582, constant.1583), dimensions={0,1,2}, to_apply=primitive_computation_add.1584
  constant.1589 = s32[] constant(100352)
  convert.1590 = f32[] convert(constant.1589)
  broadcast.1591 = f32[128]{0} broadcast(convert.1590), dimensions={}
  divide.1592 = f32[128]{0} divide(reduce.1588, broadcast.1591)
  reshape.1626 = f32[1,1,1,128]{3,2,1,0} reshape(divide.1592)
  reshape.1627 = f32[128]{0} reshape(reshape.1626)
  broadcast.1628 = f32[128,28,28,128]{3,2,1,0} broadcast(reshape.1627), dimensions={3}
  subtract.1629 = f32[128,28,28,128]{3,2,1,0} subtract(convert.1582, broadcast.1628)
  multiply.1593 = f32[128,28,28,128]{3,2,1,0} multiply(convert.1582, convert.1582)
  constant.1597 = f32[] constant(0)
  reduce.1602 = f32[128]{0} reduce(multiply.1593, constant.1597), dimensions={0,1,2}, to_apply=primitive_computation_add.1598
  constant.1603 = s32[] constant(100352)
  convert.1604 = f32[] convert(constant.1603)
  broadcast.1605 = f32[128]{0} broadcast(convert.1604), dimensions={}
  divide.1606 = f32[128]{0} divide(reduce.1602, broadcast.1605)
  multiply.1607 = f32[128]{0} multiply(divide.1592, divide.1592)
  subtract.1611 = f32[128]{0} subtract(divide.1606, multiply.1607)
  constant.1630 = f32[] constant(1e-05)
  broadcast.1631 = f32[128]{0} broadcast(constant.1630), dimensions={}
  add.1632 = f32[128]{0} add(subtract.1611, broadcast.1631)
  rsqrt.1633 = f32[128]{0} rsqrt(add.1632)
  broadcast.1641 = f32[1,1,1,128]{3,2,1,0} broadcast(rsqrt.1633), dimensions={3}
  parameter.91 = f32[128]{0} parameter(90)
  reshape.1640 = f32[1,1,1,128]{3,2,1,0} reshape(parameter.91)
  multiply.1642 = f32[1,1,1,128]{3,2,1,0} multiply(broadcast.1641, reshape.1640)
  reshape.1643 = f32[128]{0} reshape(multiply.1642)
  broadcast.1644 = f32[128,28,28,128]{3,2,1,0} broadcast(reshape.1643), dimensions={3}
  multiply.1645 = f32[128,28,28,128]{3,2,1,0} multiply(subtract.1629, broadcast.1644)
  parameter.90 = f32[128]{0} parameter(89)
  reshape.1646 = f32[1,1,1,128]{3,2,1,0} reshape(parameter.90)
  reshape.1647 = f32[128]{0} reshape(reshape.1646)
  broadcast.1648 = f32[128,28,28,128]{3,2,1,0} broadcast(reshape.1647), dimensions={3}
  add.1649 = f32[128,28,28,128]{3,2,1,0} add(multiply.1645, broadcast.1648)
  convert.1650 = bf16[128,28,28,128]{3,2,1,0} convert(add.1649)
  constant.1652 = bf16[] constant(0)
  broadcast.1653 = bf16[128,28,28,128]{3,2,1,0} broadcast(constant.1652), dimensions={}
  maximum.1654 = bf16[128,28,28,128]{3,2,1,0} maximum(convert.1650, broadcast.1653)
  tuple.1655 = (bf16[128,28,28,128]{3,2,1,0}) tuple(maximum.1654)
  get-tuple-element.1656 = bf16[128,28,28,128]{3,2,1,0} get-tuple-element(tuple.1655), index=0
  parameter.96 = f32[1,1,128,512]{3,2,1,0} parameter(95)
  convert.1662 = bf16[1,1,128,512]{3,2,1,0} convert(parameter.96)
  convolution.1663 = bf16[128,28,28,512]{3,2,1,0} convolution(get-tuple-element.1656, convert.1662), window={size=1x1}, dim_labels=b01f_01io->b01f
  convert.1664 = f32[128,28,28,512]{3,2,1,0} convert(convolution.1663)
  constant.1665 = f32[] constant(0)
  reduce.1670 = f32[512]{0} reduce(convert.1664, constant.1665), dimensions={0,1,2}, to_apply=primitive_computation_add.1666
  constant.1671 = s32[] constant(100352)
  convert.1672 = f32[] convert(constant.1671)
  broadcast.1673 = f32[512]{0} broadcast(convert.1672), dimensions={}
  divide.1674 = f32[512]{0} divide(reduce.1670, broadcast.1673)
  reshape.1708 = f32[1,1,1,512]{3,2,1,0} reshape(divide.1674)
  reshape.1709 = f32[512]{0} reshape(reshape.1708)
  broadcast.1710 = f32[128,28,28,512]{3,2,1,0} broadcast(reshape.1709), dimensions={3}
  subtract.1711 = f32[128,28,28,512]{3,2,1,0} subtract(convert.1664, broadcast.1710)
  multiply.1675 = f32[128,28,28,512]{3,2,1,0} multiply(convert.1664, convert.1664)
  constant.1679 = f32[] constant(0)
  reduce.1684 = f32[512]{0} reduce(multiply.1675, constant.1679), dimensions={0,1,2}, to_apply=primitive_computation_add.1680
  constant.1685 = s32[] constant(100352)
  convert.1686 = f32[] convert(constant.1685)
  broadcast.1687 = f32[512]{0} broadcast(convert.1686), dimensions={}
  divide.1688 = f32[512]{0} divide(reduce.1684, broadcast.1687)
  multiply.1689 = f32[512]{0} multiply(divide.1674, divide.1674)
  subtract.1693 = f32[512]{0} subtract(divide.1688, multiply.1689)
  constant.1712 = f32[] constant(1e-05)
  broadcast.1713 = f32[512]{0} broadcast(constant.1712), dimensions={}
  add.1714 = f32[512]{0} add(subtract.1693, broadcast.1713)
  rsqrt.1715 = f32[512]{0} rsqrt(add.1714)
  broadcast.1723 = f32[1,1,1,512]{3,2,1,0} broadcast(rsqrt.1715), dimensions={3}
  parameter.93 = f32[512]{0} parameter(92)
  reshape.1722 = f32[1,1,1,512]{3,2,1,0} reshape(parameter.93)
  multiply.1724 = f32[1,1,1,512]{3,2,1,0} multiply(broadcast.1723, reshape.1722)
  reshape.1725 = f32[512]{0} reshape(multiply.1724)
  broadcast.1726 = f32[128,28,28,512]{3,2,1,0} broadcast(reshape.1725), dimensions={3}
  multiply.1727 = f32[128,28,28,512]{3,2,1,0} multiply(subtract.1711, broadcast.1726)
  parameter.92 = f32[512]{0} parameter(91)
  reshape.1728 = f32[1,1,1,512]{3,2,1,0} reshape(parameter.92)
  reshape.1729 = f32[512]{0} reshape(reshape.1728)
  broadcast.1730 = f32[128,28,28,512]{3,2,1,0} broadcast(reshape.1729), dimensions={3}
  add.1731 = f32[128,28,28,512]{3,2,1,0} add(multiply.1727, broadcast.1730)
  convert.1732 = bf16[128,28,28,512]{3,2,1,0} convert(add.1731)
  add.1804 = bf16[128,28,28,512]{3,2,1,0} add(convert.1803, convert.1732)
  constant.1806 = bf16[] constant(0)
  broadcast.1807 = bf16[128,28,28,512]{3,2,1,0} broadcast(constant.1806), dimensions={}
  maximum.1808 = bf16[128,28,28,512]{3,2,1,0} maximum(add.1804, broadcast.1807)
  tuple.1809 = (bf16[128,28,28,512]{3,2,1,0}) tuple(maximum.1808)
  get-tuple-element.1810 = bf16[128,28,28,512]{3,2,1,0} get-tuple-element(tuple.1809), index=0
  parameter.106 = f32[1,1,512,128]{3,2,1,0} parameter(105)
  convert.1816 = bf16[1,1,512,128]{3,2,1,0} convert(parameter.106)
  convolution.1817 = bf16[128,28,28,128]{3,2,1,0} convolution(get-tuple-element.1810, convert.1816), window={size=1x1}, dim_labels=b01f_01io->b01f
  convert.1818 = f32[128,28,28,128]{3,2,1,0} convert(convolution.1817)
  constant.1819 = f32[] constant(0)
  reduce.1824 = f32[128]{0} reduce(convert.1818, constant.1819), dimensions={0,1,2}, to_apply=primitive_computation_add.1820
  constant.1825 = s32[] constant(100352)
  convert.1826 = f32[] convert(constant.1825)
  broadcast.1827 = f32[128]{0} broadcast(convert.1826), dimensions={}
  divide.1828 = f32[128]{0} divide(reduce.1824, broadcast.1827)
  reshape.1862 = f32[1,1,1,128]{3,2,1,0} reshape(divide.1828)
  reshape.1863 = f32[128]{0} reshape(reshape.1862)
  broadcast.1864 = f32[128,28,28,128]{3,2,1,0} broadcast(reshape.1863), dimensions={3}
  subtract.1865 = f32[128,28,28,128]{3,2,1,0} subtract(convert.1818, broadcast.1864)
  multiply.1829 = f32[128,28,28,128]{3,2,1,0} multiply(convert.1818, convert.1818)
  constant.1833 = f32[] constant(0)
  reduce.1838 = f32[128]{0} reduce(multiply.1829, constant.1833), dimensions={0,1,2}, to_apply=primitive_computation_add.1834
  constant.1839 = s32[] constant(100352)
  convert.1840 = f32[] convert(constant.1839)
  broadcast.1841 = f32[128]{0} broadcast(convert.1840), dimensions={}
  divide.1842 = f32[128]{0} divide(reduce.1838, broadcast.1841)
  multiply.1843 = f32[128]{0} multiply(divide.1828, divide.1828)
  subtract.1847 = f32[128]{0} subtract(divide.1842, multiply.1843)
  constant.1866 = f32[] constant(1e-05)
  broadcast.1867 = f32[128]{0} broadcast(constant.1866), dimensions={}
  add.1868 = f32[128]{0} add(subtract.1847, broadcast.1867)
  rsqrt.1869 = f32[128]{0} rsqrt(add.1868)
  broadcast.1877 = f32[1,1,1,128]{3,2,1,0} broadcast(rsqrt.1869), dimensions={3}
  parameter.101 = f32[128]{0} parameter(100)
  reshape.1876 = f32[1,1,1,128]{3,2,1,0} reshape(parameter.101)
  multiply.1878 = f32[1,1,1,128]{3,2,1,0} multiply(broadcast.1877, reshape.1876)
  reshape.1879 = f32[128]{0} reshape(multiply.1878)
  broadcast.1880 = f32[128,28,28,128]{3,2,1,0} broadcast(reshape.1879), dimensions={3}
  multiply.1881 = f32[128,28,28,128]{3,2,1,0} multiply(subtract.1865, broadcast.1880)
  parameter.100 = f32[128]{0} parameter(99)
  reshape.1882 = f32[1,1,1,128]{3,2,1,0} reshape(parameter.100)
  reshape.1883 = f32[128]{0} reshape(reshape.1882)
  broadcast.1884 = f32[128,28,28,128]{3,2,1,0} broadcast(reshape.1883), dimensions={3}
  add.1885 = f32[128,28,28,128]{3,2,1,0} add(multiply.1881, broadcast.1884)
  convert.1886 = bf16[128,28,28,128]{3,2,1,0} convert(add.1885)
  constant.1888 = bf16[] constant(0)
  broadcast.1889 = bf16[128,28,28,128]{3,2,1,0} broadcast(constant.1888), dimensions={}
  maximum.1890 = bf16[128,28,28,128]{3,2,1,0} maximum(convert.1886, broadcast.1889)
  tuple.1891 = (bf16[128,28,28,128]{3,2,1,0}) tuple(maximum.1890)
  get-tuple-element.1892 = bf16[128,28,28,128]{3,2,1,0} get-tuple-element(tuple.1891), index=0
  parameter.107 = f32[3,3,128,128]{3,2,1,0} parameter(106)
  convert.1898 = bf16[3,3,128,128]{3,2,1,0} convert(parameter.107)
  convolution.1899 = bf16[128,28,28,128]{3,2,1,0} convolution(get-tuple-element.1892, convert.1898), window={size=3x3 pad=1_1x1_1}, dim_labels=b01f_01io->b01f
  convert.1900 = f32[128,28,28,128]{3,2,1,0} convert(convolution.1899)
  constant.1901 = f32[] constant(0)
  reduce.1906 = f32[128]{0} reduce(convert.1900, constant.1901), dimensions={0,1,2}, to_apply=primitive_computation_add.1902
  constant.1907 = s32[] constant(100352)
  convert.1908 = f32[] convert(constant.1907)
  broadcast.1909 = f32[128]{0} broadcast(convert.1908), dimensions={}
  divide.1910 = f32[128]{0} divide(reduce.1906, broadcast.1909)
  reshape.1944 = f32[1,1,1,128]{3,2,1,0} reshape(divide.1910)
  reshape.1945 = f32[128]{0} reshape(reshape.1944)
  broadcast.1946 = f32[128,28,28,128]{3,2,1,0} broadcast(reshape.1945), dimensions={3}
  subtract.1947 = f32[128,28,28,128]{3,2,1,0} subtract(convert.1900, broadcast.1946)
  multiply.1911 = f32[128,28,28,128]{3,2,1,0} multiply(convert.1900, convert.1900)
  constant.1915 = f32[] constant(0)
  reduce.1920 = f32[128]{0} reduce(multiply.1911, constant.1915), dimensions={0,1,2}, to_apply=primitive_computation_add.1916
  constant.1921 = s32[] constant(100352)
  convert.1922 = f32[] convert(constant.1921)
  broadcast.1923 = f32[128]{0} broadcast(convert.1922), dimensions={}
  divide.1924 = f32[128]{0} divide(reduce.1920, broadcast.1923)
  multiply.1925 = f32[128]{0} multiply(divide.1910, divide.1910)
  subtract.1929 = f32[128]{0} subtract(divide.1924, multiply.1925)
  constant.1948 = f32[] constant(1e-05)
  broadcast.1949 = f32[128]{0} broadcast(constant.1948), dimensions={}
  add.1950 = f32[128]{0} add(subtract.1929, broadcast.1949)
  rsqrt.1951 = f32[128]{0} rsqrt(add.1950)
  broadcast.1959 = f32[1,1,1,128]{3,2,1,0} broadcast(rsqrt.1951), dimensions={3}
  parameter.103 = f32[128]{0} parameter(102)
  reshape.1958 = f32[1,1,1,128]{3,2,1,0} reshape(parameter.103)
  multiply.1960 = f32[1,1,1,128]{3,2,1,0} multiply(broadcast.1959, reshape.1958)
  reshape.1961 = f32[128]{0} reshape(multiply.1960)
  broadcast.1962 = f32[128,28,28,128]{3,2,1,0} broadcast(reshape.1961), dimensions={3}
  multiply.1963 = f32[128,28,28,128]{3,2,1,0} multiply(subtract.1947, broadcast.1962)
  parameter.102 = f32[128]{0} parameter(101)
  reshape.1964 = f32[1,1,1,128]{3,2,1,0} reshape(parameter.102)
  reshape.1965 = f32[128]{0} reshape(reshape.1964)
  broadcast.1966 = f32[128,28,28,128]{3,2,1,0} broadcast(reshape.1965), dimensions={3}
  add.1967 = f32[128,28,28,128]{3,2,1,0} add(multiply.1963, broadcast.1966)
  convert.1968 = bf16[128,28,28,128]{3,2,1,0} convert(add.1967)
  constant.1970 = bf16[] constant(0)
  broadcast.1971 = bf16[128,28,28,128]{3,2,1,0} broadcast(constant.1970), dimensions={}
  maximum.1972 = bf16[128,28,28,128]{3,2,1,0} maximum(convert.1968, broadcast.1971)
  tuple.1973 = (bf16[128,28,28,128]{3,2,1,0}) tuple(maximum.1972)
  get-tuple-element.1974 = bf16[128,28,28,128]{3,2,1,0} get-tuple-element(tuple.1973), index=0
  parameter.108 = f32[1,1,128,512]{3,2,1,0} parameter(107)
  convert.1980 = bf16[1,1,128,512]{3,2,1,0} convert(parameter.108)
  convolution.1981 = bf16[128,28,28,512]{3,2,1,0} convolution(get-tuple-element.1974, convert.1980), window={size=1x1}, dim_labels=b01f_01io->b01f
  convert.1982 = f32[128,28,28,512]{3,2,1,0} convert(convolution.1981)
  constant.1983 = f32[] constant(0)
  reduce.1988 = f32[512]{0} reduce(convert.1982, constant.1983), dimensions={0,1,2}, to_apply=primitive_computation_add.1984
  constant.1989 = s32[] constant(100352)
  convert.1990 = f32[] convert(constant.1989)
  broadcast.1991 = f32[512]{0} broadcast(convert.1990), dimensions={}
  divide.1992 = f32[512]{0} divide(reduce.1988, broadcast.1991)
  reshape.2026 = f32[1,1,1,512]{3,2,1,0} reshape(divide.1992)
  reshape.2027 = f32[512]{0} reshape(reshape.2026)
  broadcast.2028 = f32[128,28,28,512]{3,2,1,0} broadcast(reshape.2027), dimensions={3}
  subtract.2029 = f32[128,28,28,512]{3,2,1,0} subtract(convert.1982, broadcast.2028)
  multiply.1993 = f32[128,28,28,512]{3,2,1,0} multiply(convert.1982, convert.1982)
  constant.1997 = f32[] constant(0)
  reduce.2002 = f32[512]{0} reduce(multiply.1993, constant.1997), dimensions={0,1,2}, to_apply=primitive_computation_add.1998
  constant.2003 = s32[] constant(100352)
  convert.2004 = f32[] convert(constant.2003)
  broadcast.2005 = f32[512]{0} broadcast(convert.2004), dimensions={}
  divide.2006 = f32[512]{0} divide(reduce.2002, broadcast.2005)
  multiply.2007 = f32[512]{0} multiply(divide.1992, divide.1992)
  subtract.2011 = f32[512]{0} subtract(divide.2006, multiply.2007)
  constant.2030 = f32[] constant(1e-05)
  broadcast.2031 = f32[512]{0} broadcast(constant.2030), dimensions={}
  add.2032 = f32[512]{0} add(subtract.2011, broadcast.2031)
  rsqrt.2033 = f32[512]{0} rsqrt(add.2032)
  broadcast.2041 = f32[1,1,1,512]{3,2,1,0} broadcast(rsqrt.2033), dimensions={3}
  parameter.105 = f32[512]{0} parameter(104)
  reshape.2040 = f32[1,1,1,512]{3,2,1,0} reshape(parameter.105)
  multiply.2042 = f32[1,1,1,512]{3,2,1,0} multiply(broadcast.2041, reshape.2040)
  reshape.2043 = f32[512]{0} reshape(multiply.2042)
  broadcast.2044 = f32[128,28,28,512]{3,2,1,0} broadcast(reshape.2043), dimensions={3}
  multiply.2045 = f32[128,28,28,512]{3,2,1,0} multiply(subtract.2029, broadcast.2044)
  parameter.104 = f32[512]{0} parameter(103)
  reshape.2046 = f32[1,1,1,512]{3,2,1,0} reshape(parameter.104)
  reshape.2047 = f32[512]{0} reshape(reshape.2046)
  broadcast.2048 = f32[128,28,28,512]{3,2,1,0} broadcast(reshape.2047), dimensions={3}
  add.2049 = f32[128,28,28,512]{3,2,1,0} add(multiply.2045, broadcast.2048)
  convert.2050 = bf16[128,28,28,512]{3,2,1,0} convert(add.2049)
  add.2051 = bf16[128,28,28,512]{3,2,1,0} add(get-tuple-element.1810, convert.2050)
  constant.2053 = bf16[] constant(0)
  broadcast.2054 = bf16[128,28,28,512]{3,2,1,0} broadcast(constant.2053), dimensions={}
  maximum.2055 = bf16[128,28,28,512]{3,2,1,0} maximum(add.2051, broadcast.2054)
  tuple.2056 = (bf16[128,28,28,512]{3,2,1,0}) tuple(maximum.2055)
  get-tuple-element.2057 = bf16[128,28,28,512]{3,2,1,0} get-tuple-element(tuple.2056), index=0
  parameter.115 = f32[1,1,512,128]{3,2,1,0} parameter(114)
  convert.2063 = bf16[1,1,512,128]{3,2,1,0} convert(parameter.115)
  convolution.2064 = bf16[128,28,28,128]{3,2,1,0} convolution(get-tuple-element.2057, convert.2063), window={size=1x1}, dim_labels=b01f_01io->b01f
  convert.2065 = f32[128,28,28,128]{3,2,1,0} convert(convolution.2064)
  constant.2066 = f32[] constant(0)
  reduce.2071 = f32[128]{0} reduce(convert.2065, constant.2066), dimensions={0,1,2}, to_apply=primitive_computation_add.2067
  constant.2072 = s32[] constant(100352)
  convert.2073 = f32[] convert(constant.2072)
  broadcast.2074 = f32[128]{0} broadcast(convert.2073), dimensions={}
  divide.2075 = f32[128]{0} divide(reduce.2071, broadcast.2074)
  reshape.2109 = f32[1,1,1,128]{3,2,1,0} reshape(divide.2075)
  reshape.2110 = f32[128]{0} reshape(reshape.2109)
  broadcast.2111 = f32[128,28,28,128]{3,2,1,0} broadcast(reshape.2110), dimensions={3}
  subtract.2112 = f32[128,28,28,128]{3,2,1,0} subtract(convert.2065, broadcast.2111)
  multiply.2076 = f32[128,28,28,128]{3,2,1,0} multiply(convert.2065, convert.2065)
  constant.2080 = f32[] constant(0)
  reduce.2085 = f32[128]{0} reduce(multiply.2076, constant.2080), dimensions={0,1,2}, to_apply=primitive_computation_add.2081
  constant.2086 = s32[] constant(100352)
  convert.2087 = f32[] convert(constant.2086)
  broadcast.2088 = f32[128]{0} broadcast(convert.2087), dimensions={}
  divide.2089 = f32[128]{0} divide(reduce.2085, broadcast.2088)
  multiply.2090 = f32[128]{0} multiply(divide.2075, divide.2075)
  subtract.2094 = f32[128]{0} subtract(divide.2089, multiply.2090)
  constant.2113 = f32[] constant(1e-05)
  broadcast.2114 = f32[128]{0} broadcast(constant.2113), dimensions={}
  add.2115 = f32[128]{0} add(subtract.2094, broadcast.2114)
  rsqrt.2116 = f32[128]{0} rsqrt(add.2115)
  broadcast.2124 = f32[1,1,1,128]{3,2,1,0} broadcast(rsqrt.2116), dimensions={3}
  parameter.110 = f32[128]{0} parameter(109)
  reshape.2123 = f32[1,1,1,128]{3,2,1,0} reshape(parameter.110)
  multiply.2125 = f32[1,1,1,128]{3,2,1,0} multiply(broadcast.2124, reshape.2123)
  reshape.2126 = f32[128]{0} reshape(multiply.2125)
  broadcast.2127 = f32[128,28,28,128]{3,2,1,0} broadcast(reshape.2126), dimensions={3}
  multiply.2128 = f32[128,28,28,128]{3,2,1,0} multiply(subtract.2112, broadcast.2127)
  parameter.109 = f32[128]{0} parameter(108)
  reshape.2129 = f32[1,1,1,128]{3,2,1,0} reshape(parameter.109)
  reshape.2130 = f32[128]{0} reshape(reshape.2129)
  broadcast.2131 = f32[128,28,28,128]{3,2,1,0} broadcast(reshape.2130), dimensions={3}
  add.2132 = f32[128,28,28,128]{3,2,1,0} add(multiply.2128, broadcast.2131)
  convert.2133 = bf16[128,28,28,128]{3,2,1,0} convert(add.2132)
  constant.2135 = bf16[] constant(0)
  broadcast.2136 = bf16[128,28,28,128]{3,2,1,0} broadcast(constant.2135), dimensions={}
  maximum.2137 = bf16[128,28,28,128]{3,2,1,0} maximum(convert.2133, broadcast.2136)
  tuple.2138 = (bf16[128,28,28,128]{3,2,1,0}) tuple(maximum.2137)
  get-tuple-element.2139 = bf16[128,28,28,128]{3,2,1,0} get-tuple-element(tuple.2138), index=0
  parameter.116 = f32[3,3,128,128]{3,2,1,0} parameter(115)
  convert.2145 = bf16[3,3,128,128]{3,2,1,0} convert(parameter.116)
  convolution.2146 = bf16[128,28,28,128]{3,2,1,0} convolution(get-tuple-element.2139, convert.2145), window={size=3x3 pad=1_1x1_1}, dim_labels=b01f_01io->b01f
  convert.2147 = f32[128,28,28,128]{3,2,1,0} convert(convolution.2146)
  constant.2148 = f32[] constant(0)
  reduce.2153 = f32[128]{0} reduce(convert.2147, constant.2148), dimensions={0,1,2}, to_apply=primitive_computation_add.2149
  constant.2154 = s32[] constant(100352)
  convert.2155 = f32[] convert(constant.2154)
  broadcast.2156 = f32[128]{0} broadcast(convert.2155), dimensions={}
  divide.2157 = f32[128]{0} divide(reduce.2153, broadcast.2156)
  reshape.2191 = f32[1,1,1,128]{3,2,1,0} reshape(divide.2157)
  reshape.2192 = f32[128]{0} reshape(reshape.2191)
  broadcast.2193 = f32[128,28,28,128]{3,2,1,0} broadcast(reshape.2192), dimensions={3}
  subtract.2194 = f32[128,28,28,128]{3,2,1,0} subtract(convert.2147, broadcast.2193)
  multiply.2158 = f32[128,28,28,128]{3,2,1,0} multiply(convert.2147, convert.2147)
  constant.2162 = f32[] constant(0)
  reduce.2167 = f32[128]{0} reduce(multiply.2158, constant.2162), dimensions={0,1,2}, to_apply=primitive_computation_add.2163
  constant.2168 = s32[] constant(100352)
  convert.2169 = f32[] convert(constant.2168)
  broadcast.2170 = f32[128]{0} broadcast(convert.2169), dimensions={}
  divide.2171 = f32[128]{0} divide(reduce.2167, broadcast.2170)
  multiply.2172 = f32[128]{0} multiply(divide.2157, divide.2157)
  subtract.2176 = f32[128]{0} subtract(divide.2171, multiply.2172)
  constant.2195 = f32[] constant(1e-05)
  broadcast.2196 = f32[128]{0} broadcast(constant.2195), dimensions={}
  add.2197 = f32[128]{0} add(subtract.2176, broadcast.2196)
  rsqrt.2198 = f32[128]{0} rsqrt(add.2197)
…
  multiply.5204 = f32[1,1,2048,512]{3,2,1,0} multiply(broadcast.5203, parameter.67)
  multiply.5669 = f32[1,1,2048,512]{3,2,1,0} multiply(broadcast.5668, multiply.5204)
  convolution.6143 = bf16[1,1,2048,512]{3,2,1,0} convolution(get-tuple-element.4422, convert.6142), window={size=7x7}, dim_labels=f01b_i01o->01bf
  convert.6144 = f32[1,1,2048,512]{3,2,1,0} convert(convolution.6143)
  add.6145 = f32[1,1,2048,512]{3,2,1,0} add(multiply.5669, convert.6144)
  broadcast.5666 = f32[3,3,512,512]{3,2,1,0} broadcast(multiply.5601), dimensions={}
  constant.5212 = f32[] constant(2)
  broadcast.5213 = f32[3,3,512,512]{3,2,1,0} broadcast(constant.5212), dimensions={}
  multiply.5214 = f32[3,3,512,512]{3,2,1,0} multiply(broadcast.5213, parameter.68)
  multiply.5667 = f32[3,3,512,512]{3,2,1,0} multiply(broadcast.5666, multiply.5214)
  convolution.6079 = bf16[3,3,512,512]{3,2,1,0} convolution(get-tuple-element.4504, convert.6078), window={size=7x7 pad=1_1x1_1}, dim_labels=f01b_i01o->01bf
  convert.6080 = f32[3,3,512,512]{3,2,1,0} convert(convolution.6079)
  add.6081 = f32[3,3,512,512]{3,2,1,0} add(multiply.5667, convert.6080)
  broadcast.5664 = f32[1,1,512,2048]{3,2,1,0} broadcast(multiply.5601), dimensions={}
  constant.5222 = f32[] constant(2)
  broadcast.5223 = f32[1,1,512,2048]{3,2,1,0} broadcast(constant.5222), dimensions={}
  multiply.5224 = f32[1,1,512,2048]{3,2,1,0} multiply(broadcast.5223, parameter.69)
  multiply.5665 = f32[1,1,512,2048]{3,2,1,0} multiply(broadcast.5664, multiply.5224)
  convolution.6015 = bf16[1,1,512,2048]{3,2,1,0} convolution(get-tuple-element.4586, convert.6014), window={size=7x7}, dim_labels=f01b_i01o->01bf
  convert.6016 = f32[1,1,512,2048]{3,2,1,0} convert(convolution.6015)
  add.6017 = f32[1,1,512,2048]{3,2,1,0} add(multiply.5665, convert.6016)
  constant.5895 = f32[] constant(0)
  reduce.5900 = f32[512]{0} reduce(convert.5894, constant.5895), dimensions={0,1,2}, to_apply=primitive_computation_add.5896
  broadcast.5901 = f32[512]{0} broadcast(reduce.5900), dimensions={0}
  broadcast.5902 = f32[1,1,1,512]{3,2,1,0} broadcast(broadcast.5901), dimensions={3}
  reshape.5903 = f32[512]{0} reshape(broadcast.5902)
  multiply.5913 = f32[1,1,1,512]{3,2,1,0} multiply(broadcast.5912, broadcast.4736)
  reshape.5914 = f32[512]{0} reshape(multiply.5913)
  constant.5831 = f32[] constant(0)
  reduce.5836 = f32[512]{0} reduce(convert.5830, constant.5831), dimensions={0,1,2}, to_apply=primitive_computation_add.5832
  broadcast.5837 = f32[512]{0} broadcast(reduce.5836), dimensions={0}
  broadcast.5838 = f32[1,1,1,512]{3,2,1,0} broadcast(broadcast.5837), dimensions={3}
  reshape.5839 = f32[512]{0} reshape(broadcast.5838)
  multiply.5849 = f32[1,1,1,512]{3,2,1,0} multiply(broadcast.5848, broadcast.4818)
  reshape.5850 = f32[512]{0} reshape(multiply.5849)
  constant.5767 = f32[] constant(0)
  reduce.5772 = f32[2048]{0} reduce(convert.5766, constant.5767), dimensions={0,1,2}, to_apply=primitive_computation_add.5768
  broadcast.5773 = f32[2048]{0} broadcast(reduce.5772), dimensions={0}
  broadcast.5774 = f32[1,1,1,2048]{3,2,1,0} broadcast(broadcast.5773), dimensions={3}
  reshape.5775 = f32[2048]{0} reshape(broadcast.5774)
  multiply.5785 = f32[1,1,1,2048]{3,2,1,0} multiply(broadcast.5784, broadcast.4900)
  reshape.5786 = f32[2048]{0} reshape(multiply.5785)
  broadcast.5662 = f32[1,1,2048,512]{3,2,1,0} broadcast(multiply.5601), dimensions={}
  constant.5232 = f32[] constant(2)
  broadcast.5233 = f32[1,1,2048,512]{3,2,1,0} broadcast(constant.5232), dimensions={}
  multiply.5234 = f32[1,1,2048,512]{3,2,1,0} multiply(broadcast.5233, parameter.76)
  multiply.5663 = f32[1,1,2048,512]{3,2,1,0} multiply(broadcast.5662, multiply.5234)
  convolution.5950 = bf16[1,1,2048,512]{3,2,1,0} convolution(get-tuple-element.4669, convert.5949), window={size=7x7}, dim_labels=f01b_i01o->01bf
  convert.5951 = f32[1,1,2048,512]{3,2,1,0} convert(convolution.5950)
  add.5952 = f32[1,1,2048,512]{3,2,1,0} add(multiply.5663, convert.5951)
  broadcast.5660 = f32[3,3,512,512]{3,2,1,0} broadcast(multiply.5601), dimensions={}
  constant.5242 = f32[] constant(2)
  broadcast.5243 = f32[3,3,512,512]{3,2,1,0} broadcast(constant.5242), dimensions={}
  multiply.5244 = f32[3,3,512,512]{3,2,1,0} multiply(broadcast.5243, parameter.77)
  multiply.5661 = f32[3,3,512,512]{3,2,1,0} multiply(broadcast.5660, multiply.5244)
  convolution.5886 = bf16[3,3,512,512]{3,2,1,0} convolution(get-tuple-element.4751, convert.5885), window={size=7x7 pad=1_1x1_1}, dim_labels=f01b_i01o->01bf
  convert.5887 = f32[3,3,512,512]{3,2,1,0} convert(convolution.5886)
  add.5888 = f32[3,3,512,512]{3,2,1,0} add(multiply.5661, convert.5887)
  broadcast.5658 = f32[1,1,512,2048]{3,2,1,0} broadcast(multiply.5601), dimensions={}
  constant.5252 = f32[] constant(2)
  broadcast.5253 = f32[1,1,512,2048]{3,2,1,0} broadcast(constant.5252), dimensions={}
  multiply.5254 = f32[1,1,512,2048]{3,2,1,0} multiply(broadcast.5253, parameter.78)
  multiply.5659 = f32[1,1,512,2048]{3,2,1,0} multiply(broadcast.5658, multiply.5254)
  convolution.5822 = bf16[1,1,512,2048]{3,2,1,0} convolution(get-tuple-element.4833, convert.5821), window={size=7x7}, dim_labels=f01b_i01o->01bf
  convert.5823 = f32[1,1,512,2048]{3,2,1,0} convert(convolution.5822)
  add.5824 = f32[1,1,512,2048]{3,2,1,0} add(multiply.5659, convert.5823)
  constant.8587 = f32[] constant(0)
  reduce.8592 = f32[64]{0} reduce(convert.8586, constant.8587), dimensions={0,1,2}, to_apply=primitive_computation_add.8588
  broadcast.8593 = f32[64]{0} broadcast(reduce.8592), dimensions={0}
  broadcast.8594 = f32[1,1,1,64]{3,2,1,0} broadcast(broadcast.8593), dimensions={3}
  reshape.8595 = f32[64]{0} reshape(broadcast.8594)
  multiply.8605 = f32[1,1,1,64]{3,2,1,0} multiply(broadcast.8604, broadcast.1312)
  reshape.8606 = f32[64]{0} reshape(multiply.8605)
  constant.8523 = f32[] constant(0)
  reduce.8528 = f32[64]{0} reduce(convert.8522, constant.8523), dimensions={0,1,2}, to_apply=primitive_computation_add.8524
  broadcast.8529 = f32[64]{0} broadcast(reduce.8528), dimensions={0}
  broadcast.8530 = f32[1,1,1,64]{3,2,1,0} broadcast(broadcast.8529), dimensions={3}
  reshape.8531 = f32[64]{0} reshape(broadcast.8530)
  multiply.8541 = f32[1,1,1,64]{3,2,1,0} multiply(broadcast.8540, broadcast.1394)
  reshape.8542 = f32[64]{0} reshape(multiply.8541)
  constant.8459 = f32[] constant(0)
  reduce.8464 = f32[256]{0} reduce(convert.8458, constant.8459), dimensions={0,1,2}, to_apply=primitive_computation_add.8460
  broadcast.8465 = f32[256]{0} broadcast(reduce.8464), dimensions={0}
  broadcast.8466 = f32[1,1,1,256]{3,2,1,0} broadcast(broadcast.8465), dimensions={3}
  reshape.8467 = f32[256]{0} reshape(broadcast.8466)
  multiply.8477 = f32[1,1,1,256]{3,2,1,0} multiply(broadcast.8476, broadcast.1476)
  reshape.8478 = f32[256]{0} reshape(multiply.8477)
  broadcast.5656 = f32[1,1,256,64]{3,2,1,0} broadcast(multiply.5601), dimensions={}
  constant.5262 = f32[] constant(2)
  broadcast.5263 = f32[1,1,256,64]{3,2,1,0} broadcast(constant.5262), dimensions={}
  multiply.5264 = f32[1,1,256,64]{3,2,1,0} multiply(broadcast.5263, parameter.85)
  multiply.5657 = f32[1,1,256,64]{3,2,1,0} multiply(broadcast.5656, multiply.5264)
  convolution.8642 = bf16[1,1,256,64]{3,2,1,0} convolution(get-tuple-element.1245, convert.8641), window={size=56x56}, dim_labels=f01b_i01o->01bf
  convert.8643 = f32[1,1,256,64]{3,2,1,0} convert(convolution.8642)
  add.8644 = f32[1,1,256,64]{3,2,1,0} add(multiply.5657, convert.8643)
  broadcast.5654 = f32[3,3,64,64]{3,2,1,0} broadcast(multiply.5601), dimensions={}
  constant.5272 = f32[] constant(2)
  broadcast.5273 = f32[3,3,64,64]{3,2,1,0} broadcast(constant.5272), dimensions={}
  multiply.5274 = f32[3,3,64,64]{3,2,1,0} multiply(broadcast.5273, parameter.86)
  multiply.5655 = f32[3,3,64,64]{3,2,1,0} multiply(broadcast.5654, multiply.5274)
  convolution.8578 = bf16[3,3,64,64]{3,2,1,0} convolution(get-tuple-element.1327, convert.8577), window={size=56x56 pad=1_1x1_1}, dim_labels=f01b_i01o->01bf
  convert.8579 = f32[3,3,64,64]{3,2,1,0} convert(convolution.8578)
  add.8580 = f32[3,3,64,64]{3,2,1,0} add(multiply.5655, convert.8579)
  broadcast.5652 = f32[1,1,64,256]{3,2,1,0} broadcast(multiply.5601), dimensions={}
  constant.5282 = f32[] constant(2)
  broadcast.5283 = f32[1,1,64,256]{3,2,1,0} broadcast(constant.5282), dimensions={}
  multiply.5284 = f32[1,1,64,256]{3,2,1,0} multiply(broadcast.5283, parameter.87)
  multiply.5653 = f32[1,1,64,256]{3,2,1,0} multiply(broadcast.5652, multiply.5284)
  convolution.8514 = bf16[1,1,64,256]{3,2,1,0} convolution(get-tuple-element.1409, convert.8513), window={size=56x56}, dim_labels=f01b_i01o->01bf
  convert.8515 = f32[1,1,64,256]{3,2,1,0} convert(convolution.8514)
  add.8516 = f32[1,1,64,256]{3,2,1,0} add(multiply.5653, convert.8515)
  constant.8333 = f32[] constant(0)
  reduce.8338 = f32[128]{0} reduce(convert.8332, constant.8333), dimensions={0,1,2}, to_apply=primitive_computation_add.8334
  broadcast.8339 = f32[128]{0} broadcast(reduce.8338), dimensions={0}
  broadcast.8340 = f32[1,1,1,128]{3,2,1,0} broadcast(broadcast.8339), dimensions={3}
  reshape.8341 = f32[128]{0} reshape(broadcast.8340)
  multiply.8351 = f32[1,1,1,128]{3,2,1,0} multiply(broadcast.8350, broadcast.1559)
  reshape.8352 = f32[128]{0} reshape(multiply.8351)
  constant.8269 = f32[] constant(0)
  reduce.8274 = f32[128]{0} reduce(convert.8268, constant.8269), dimensions={0,1,2}, to_apply=primitive_computation_add.8270
  broadcast.8275 = f32[128]{0} broadcast(reduce.8274), dimensions={0}
  broadcast.8276 = f32[1,1,1,128]{3,2,1,0} broadcast(broadcast.8275), dimensions={3}
  reshape.8277 = f32[128]{0} reshape(broadcast.8276)
  multiply.8287 = f32[1,1,1,128]{3,2,1,0} multiply(broadcast.8286, broadcast.1641)
  reshape.8288 = f32[128]{0} reshape(multiply.8287)
  constant.8205 = f32[] constant(0)
  reduce.8210 = f32[512]{0} reduce(convert.8204, constant.8205), dimensions={0,1,2}, to_apply=primitive_computation_add.8206
  broadcast.8211 = f32[512]{0} broadcast(reduce.8210), dimensions={0}
  broadcast.8212 = f32[1,1,1,512]{3,2,1,0} broadcast(broadcast.8211), dimensions={3}
  reshape.8213 = f32[512]{0} reshape(broadcast.8212)
  multiply.8223 = f32[1,1,1,512]{3,2,1,0} multiply(broadcast.8222, broadcast.1723)
  reshape.8224 = f32[512]{0} reshape(multiply.8223)
  broadcast.5650 = f32[1,1,256,128]{3,2,1,0} broadcast(multiply.5601), dimensions={}
  constant.5292 = f32[] constant(2)
  broadcast.5293 = f32[1,1,256,128]{3,2,1,0} broadcast(constant.5292), dimensions={}
  multiply.5294 = f32[1,1,256,128]{3,2,1,0} multiply(broadcast.5293, parameter.94)
  multiply.5651 = f32[1,1,256,128]{3,2,1,0} multiply(broadcast.5650, multiply.5294)
  convolution.8388 = bf16[1,1,256,128]{3,2,1,0} convolution(get-tuple-element.1492, convert.8387), window={size=56x56}, dim_labels=f01b_i01o->01bf
  convert.8389 = f32[1,1,256,128]{3,2,1,0} convert(convolution.8388)
  add.8390 = f32[1,1,256,128]{3,2,1,0} add(multiply.5651, convert.8389)
  broadcast.5648 = f32[3,3,128,128]{3,2,1,0} broadcast(multiply.5601), dimensions={}
  constant.5302 = f32[] constant(2)
  broadcast.5303 = f32[3,3,128,128]{3,2,1,0} broadcast(constant.5302), dimensions={}
  multiply.5304 = f32[3,3,128,128]{3,2,1,0} multiply(broadcast.5303, parameter.95)
  multiply.5649 = f32[3,3,128,128]{3,2,1,0} multiply(broadcast.5648, multiply.5304)
  convolution.8324 = bf16[3,3,128,128]{3,2,1,0} convolution(get-tuple-element.1574, convert.8323), window={size=28x28 pad=0_1x0_1 rhs_dilate=2x2}, dim_labels=f01b_i01o->01bf
  convert.8325 = f32[3,3,128,128]{3,2,1,0} convert(convolution.8324)
  add.8326 = f32[3,3,128,128]{3,2,1,0} add(multiply.5649, convert.8325)
  broadcast.5646 = f32[1,1,128,512]{3,2,1,0} broadcast(multiply.5601), dimensions={}
  constant.5312 = f32[] constant(2)
  broadcast.5313 = f32[1,1,128,512]{3,2,1,0} broadcast(constant.5312), dimensions={}
  multiply.5314 = f32[1,1,128,512]{3,2,1,0} multiply(broadcast.5313, parameter.96)
  multiply.5647 = f32[1,1,128,512]{3,2,1,0} multiply(broadcast.5646, multiply.5314)
  convolution.8260 = bf16[1,1,128,512]{3,2,1,0} convolution(get-tuple-element.1656, convert.8259), window={size=28x28}, dim_labels=f01b_i01o->01bf
  convert.8261 = f32[1,1,128,512]{3,2,1,0} convert(convolution.8260)
  add.8262 = f32[1,1,128,512]{3,2,1,0} add(multiply.5647, convert.8261)
  broadcast.5644 = f32[1,1,256,512]{3,2,1,0} broadcast(multiply.5601), dimensions={}
  constant.5322 = f32[] constant(2)
  broadcast.5323 = f32[1,1,256,512]{3,2,1,0} broadcast(constant.5322), dimensions={}
  multiply.5324 = f32[1,1,256,512]{3,2,1,0} multiply(broadcast.5323, parameter.97)
  multiply.5645 = f32[1,1,256,512]{3,2,1,0} multiply(broadcast.5644, multiply.5324)
  convolution.8449 = bf16[1,1,256,512]{3,2,1,0} convolution(get-tuple-element.1492, convert.8448), window={size=28x28 pad=0_-1x0_-1 rhs_dilate=2x2}, dim_labels=f01b_i01o->01bf
  convert.8450 = f32[1,1,256,512]{3,2,1,0} convert(convolution.8449)
  add.8451 = f32[1,1,256,512]{3,2,1,0} add(multiply.5645, convert.8450)
  constant.8394 = f32[] constant(0)
  reduce.8399 = f32[512]{0} reduce(convert.8393, constant.8394), dimensions={0,1,2}, to_apply=primitive_computation_add.8395
  broadcast.8400 = f32[512]{0} broadcast(reduce.8399), dimensions={0}
  broadcast.8401 = f32[1,1,1,512]{3,2,1,0} broadcast(broadcast.8400), dimensions={3}
  reshape.8402 = f32[512]{0} reshape(broadcast.8401)
  multiply.8412 = f32[1,1,1,512]{3,2,1,0} multiply(broadcast.8411, broadcast.1794)
  reshape.8413 = f32[512]{0} reshape(multiply.8412)
  constant.8140 = f32[] constant(0)
  reduce.8145 = f32[128]{0} reduce(convert.8139, constant.8140), dimensions={0,1,2}, to_apply=primitive_computation_add.8141
  broadcast.8146 = f32[128]{0} broadcast(reduce.8145), dimensions={0}
  broadcast.8147 = f32[1,1,1,128]{3,2,1,0} broadcast(broadcast.8146), dimensions={3}
  reshape.8148 = f32[128]{0} reshape(broadcast.8147)
  multiply.8158 = f32[1,1,1,128]{3,2,1,0} multiply(broadcast.8157, broadcast.1877)
  reshape.8159 = f32[128]{0} reshape(multiply.8158)
  constant.8076 = f32[] constant(0)
  reduce.8081 = f32[128]{0} reduce(convert.8075, constant.8076), dimensions={0,1,2}, to_apply=primitive_computation_add.8077
  broadcast.8082 = f32[128]{0} broadcast(reduce.8081), dimensions={0}
  broadcast.8083 = f32[1,1,1,128]{3,2,1,0} broadcast(broadcast.8082), dimensions={3}
  reshape.8084 = f32[128]{0} reshape(broadcast.8083)
  multiply.8094 = f32[1,1,1,128]{3,2,1,0} multiply(broadcast.8093, broadcast.1959)
  reshape.8095 = f32[128]{0} reshape(multiply.8094)
  constant.8012 = f32[] constant(0)
  reduce.8017 = f32[512]{0} reduce(convert.8011, constant.8012), dimensions={0,1,2}, to_apply=primitive_computation_add.8013
  broadcast.8018 = f32[512]{0} broadcast(reduce.8017), dimensions={0}
  broadcast.8019 = f32[1,1,1,512]{3,2,1,0} broadcast(broadcast.8018), dimensions={3}
  reshape.8020 = f32[512]{0} reshape(broadcast.8019)
  multiply.8030 = f32[1,1,1,512]{3,2,1,0} multiply(broadcast.8029, broadcast.2041)
  reshape.8031 = f32[512]{0} reshape(multiply.8030)
  broadcast.5642 = f32[1,1,512,128]{3,2,1,0} broadcast(multiply.5601), dimensions={}
  constant.5332 = f32[] constant(2)
  broadcast.5333 = f32[1,1,512,128]{3,2,1,0} broadcast(constant.5332), dimensions={}
  multiply.5334 = f32[1,1,512,128]{3,2,1,0} multiply(broadcast.5333, parameter.106)
  multiply.5643 = f32[1,1,512,128]{3,2,1,0} multiply(broadcast.5642, multiply.5334)
  convolution.8195 = bf16[1,1,512,128]{3,2,1,0} convolution(get-tuple-element.1810, convert.8194), window={size=28x28}, dim_labels=f01b_i01o->01bf
  convert.8196 = f32[1,1,512,128]{3,2,1,0} convert(convolution.8195)
  add.8197 = f32[1,1,512,128]{3,2,1,0} add(multiply.5643, convert.8196)
  broadcast.5640 = f32[3,3,128,128]{3,2,1,0} broadcast(multiply.5601), dimensions={}
  constant.5342 = f32[] constant(2)
  broadcast.5343 = f32[3,3,128,128]{3,2,1,0} broadcast(constant.5342), dimensions={}
  multiply.5344 = f32[3,3,128,128]{3,2,1,0} multiply(broadcast.5343, parameter.107)
  multiply.5641 = f32[3,3,128,128]{3,2,1,0} multiply(broadcast.5640, multiply.5344)
  convolution.8131 = bf16[3,3,128,128]{3,2,1,0} convolution(get-tuple-element.1892, convert.8130), window={size=28x28 pad=1_1x1_1}, dim_labels=f01b_i01o->01bf
  convert.8132 = f32[3,3,128,128]{3,2,1,0} convert(convolution.8131)
  add.8133 = f32[3,3,128,128]{3,2,1,0} add(multiply.5641, convert.8132)
  broadcast.5638 = f32[1,1,128,512]{3,2,1,0} broadcast(multiply.5601), dimensions={}
  constant.5352 = f32[] constant(2)
  broadcast.5353 = f32[1,1,128,512]{3,2,1,0} broadcast(constant.5352), dimensions={}
  multiply.5354 = f32[1,1,128,512]{3,2,1,0} multiply(broadcast.5353, parameter.108)
  multiply.5639 = f32[1,1,128,512]{3,2,1,0} multiply(broadcast.5638, multiply.5354)
  convolution.8067 = bf16[1,1,128,512]{3,2,1,0} convolution(get-tuple-element.1974, convert.8066), window={size=28x28}, dim_labels=f01b_i01o->01bf
  convert.8068 = f32[1,1,128,512]{3,2,1,0} convert(convolution.8067)
  add.8069 = f32[1,1,128,512]{3,2,1,0} add(multiply.5639, convert.8068)
  constant.7947 = f32[] constant(0)
  reduce.7952 = f32[128]{0} reduce(convert.7946, constant.7947), dimensions={0,1,2}, to_apply=primitive_computation_add.7948
  broadcast.7953 = f32[128]{0} broadcast(reduce.7952), dimensions={0}
  broadcast.7954 = f32[1,1,1,128]{3,2,1,0} broadcast(broadcast.7953), dimensions={3}
  reshape.7955 = f32[128]{0} reshape(broadcast.7954)
  multiply.7965 = f32[1,1,1,128]{3,2,1,0} multiply(broadcast.7964, broadcast.2124)
  reshape.7966 = f32[128]{0} reshape(multiply.7965)
  constant.7883 = f32[] constant(0)
  reduce.7888 = f32[128]{0} reduce(convert.7882, constant.7883), dimensions={0,1,2}, to_apply=primitive_computation_add.7884
  broadcast.7889 = f32[128]{0} broadcast(reduce.7888), dimensions={0}
  broadcast.7890 = f32[1,1,1,128]{3,2,1,0} broadcast(broadcast.7889), dimensions={3}
  reshape.7891 = f32[128]{0} reshape(broadcast.7890)
  multiply.7901 = f32[1,1,1,128]{3,2,1,0} multiply(broadcast.7900, broadcast.2206)
  reshape.7902 = f32[128]{0} reshape(multiply.7901)
  constant.7819 = f32[] constant(0)
  reduce.7824 = f32[512]{0} reduce(convert.7818, constant.7819), dimensions={0,1,2}, to_apply=primitive_computation_add.7820
  broadcast.7825 = f32[512]{0} broadcast(reduce.7824), dimensions={0}
  broadcast.7826 = f32[1,1,1,512]{3,2,1,0} broadcast(broadcast.7825), dimensions={3}
  reshape.7827 = f32[512]{0} reshape(broadcast.7826)
  multiply.7837 = f32[1,1,1,512]{3,2,1,0} multiply(broadcast.7836, broadcast.2288)
  reshape.7838 = f32[512]{0} reshape(multiply.7837)
  broadcast.5636 = f32[1,1,512,128]{3,2,1,0} broadcast(multiply.5601), dimensions={}
  constant.5362 = f32[] constant(2)
  broadcast.5363 = f32[1,1,512,128]{3,2,1,0} broadcast(constant.5362), dimensions={}
  multiply.5364 = f32[1,1,512,128]{3,2,1,0} multiply(broadcast.5363, parameter.115)
  multiply.5637 = f32[1,1,512,128]{3,2,1,0} multiply(broadcast.5636, multiply.5364)
  convolution.8002 = bf16[1,1,512,128]{3,2,1,0} convolution(get-tuple-element.2057, convert.8001), window={size=28x28}, dim_labels=f01b_i01o->01bf
  convert.8003 = f32[1,1,512,128]{3,2,1,0} convert(convolution.8002)
  add.8004 = f32[1,1,512,128]{3,2,1,0} add(multiply.5637, convert.8003)
  broadcast.5634 = f32[3,3,128,128]{3,2,1,0} broadcast(multiply.5601), dimensions={}
  constant.5372 = f32[] constant(2)
  broadcast.5373 = f32[3,3,128,128]{3,2,1,0} broadcast(constant.5372), dimensions={}
  multiply.5374 = f32[3,3,128,128]{3,2,1,0} multiply(broadcast.5373, parameter.116)
  multiply.5635 = f32[3,3,128,128]{3,2,1,0} multiply(broadcast.5634, multiply.5374)
  convolution.7938 = bf16[3,3,128,128]{3,2,1,0} convolution(get-tuple-element.2139, convert.7937), window={size=28x28 pad=1_1x1_1}, dim_labels=f01b_i01o->01bf
  convert.7939 = f32[3,3,128,128]{3,2,1,0} convert(convolution.7938)
  add.7940 = f32[3,3,128,128]{3,2,1,0} add(multiply.5635, convert.7939)
  broadcast.5632 = f32[1,1,128,512]{3,2,1,0} broadcast(multiply.5601), dimensions={}
  constant.5382 = f32[] constant(2)
  broadcast.5383 = f32[1,1,128,512]{3,2,1,0} broadcast(constant.5382), dimensions={}
  multiply.5384 = f32[1,1,128,512]{3,2,1,0} multiply(broadcast.5383, parameter.117)
  multiply.5633 = f32[1,1,128,512]{3,2,1,0} multiply(broadcast.5632, multiply.5384)
  convolution.7874 = bf16[1,1,128,512]{3,2,1,0} convolution(get-tuple-element.2221, convert.7873), window={size=28x28}, dim_labels=f01b_i01o->01bf
  convert.7875 = f32[1,1,128,512]{3,2,1,0} convert(convolution.7874)
  add.7876 = f32[1,1,128,512]{3,2,1,0} add(multiply.5633, convert.7875)
  constant.7754 = f32[] constant(0)
  reduce.7759 = f32[128]{0} reduce(convert.7753, constant.7754), dimensions={0,1,2}, to_apply=primitive_computation_add.7755
  broadcast.7760 = f32[128]{0} broadcast(reduce.7759), dimensions={0}
  broadcast.7761 = f32[1,1,1,128]{3,2,1,0} broadcast(broadcast.7760), dimensions={3}
  reshape.7762 = f32[128]{0} reshape(broadcast.7761)
  multiply.7772 = f32[1,1,1,128]{3,2,1,0} multiply(broadcast.7771, broadcast.2371)
  reshape.7773 = f32[128]{0} reshape(multiply.7772)
  constant.7690 = f32[] constant(0)
  reduce.7695 = f32[128]{0} reduce(convert.7689, constant.7690), dimensions={0,1,2}, to_apply=primitive_computation_add.7691
  broadcast.7696 = f32[128]{0} broadcast(reduce.7695), dimensions={0}
  broadcast.7697 = f32[1,1,1,128]{3,2,1,0} broadcast(broadcast.7696), dimensions={3}
  reshape.7698 = f32[128]{0} reshape(broadcast.7697)
  multiply.7708 = f32[1,1,1,128]{3,2,1,0} multiply(broadcast.7707, broadcast.2453)
  reshape.7709 = f32[128]{0} reshape(multiply.7708)
  constant.7626 = f32[] constant(0)
  reduce.7631 = f32[512]{0} reduce(convert.7625, constant.7626), dimensions={0,1,2}, to_apply=primitive_computation_add.7627
  broadcast.7632 = f32[512]{0} broadcast(reduce.7631), dimensions={0}
  broadcast.7633 = f32[1,1,1,512]{3,2,1,0} broadcast(broadcast.7632), dimensions={3}
  reshape.7634 = f32[512]{0} reshape(broadcast.7633)
  multiply.7644 = f32[1,1,1,512]{3,2,1,0} multiply(broadcast.7643, broadcast.2535)
  reshape.7645 = f32[512]{0} reshape(multiply.7644)
  broadcast.5630 = f32[1,1,512,128]{3,2,1,0} broadcast(multiply.5601), dimensions={}
  constant.5392 = f32[] constant(2)
  broadcast.5393 = f32[1,1,512,128]{3,2,1,0} broadcast(constant.5392), dimensions={}
  multiply.5394 = f32[1,1,512,128]{3,2,1,0} multiply(broadcast.5393, parameter.124)
  multiply.5631 = f32[1,1,512,128]{3,2,1,0} multiply(broadcast.5630, multiply.5394)
  convolution.7809 = bf16[1,1,512,128]{3,2,1,0} convolution(get-tuple-element.2304, convert.7808), window={size=28x28}, dim_labels=f01b_i01o->01bf
  convert.7810 = f32[1,1,512,128]{3,2,1,0} convert(convolution.7809)
  add.7811 = f32[1,1,512,128]{3,2,1,0} add(multiply.5631, convert.7810)
  broadcast.5628 = f32[3,3,128,128]{3,2,1,0} broadcast(multiply.5601), dimensions={}
  constant.5402 = f32[] constant(2)
  broadcast.5403 = f32[3,3,128,128]{3,2,1,0} broadcast(constant.5402), dimensions={}
  multiply.5404 = f32[3,3,128,128]{3,2,1,0} multiply(broadcast.5403, parameter.125)
  multiply.5629 = f32[3,3,128,128]{3,2,1,0} multiply(broadcast.5628, multiply.5404)
  convolution.7745 = bf16[3,3,128,128]{3,2,1,0} convolution(get-tuple-element.2386, convert.7744), window={size=28x28 pad=1_1x1_1}, dim_labels=f01b_i01o->01bf
  convert.7746 = f32[3,3,128,128]{3,2,1,0} convert(convolution.7745)
  add.7747 = f32[3,3,128,128]{3,2,1,0} add(multiply.5629, convert.7746)
  broadcast.5626 = f32[1,1,128,512]{3,2,1,0} broadcast(multiply.5601), dimensions={}
  constant.5412 = f32[] constant(2)
  broadcast.5413 = f32[1,1,128,512]{3,2,1,0} broadcast(constant.5412), dimensions={}
  multiply.5414 = f32[1,1,128,512]{3,2,1,0} multiply(broadcast.5413, parameter.126)
  multiply.5627 = f32[1,1,128,512]{3,2,1,0} multiply(broadcast.5626, multiply.5414)
  convolution.7681 = bf16[1,1,128,512]{3,2,1,0} convolution(get-tuple-element.2468, convert.7680), window={size=28x28}, dim_labels=f01b_i01o->01bf
  convert.7682 = f32[1,1,128,512]{3,2,1,0} convert(convolution.7681)
  add.7683 = f32[1,1,128,512]{3,2,1,0} add(multiply.5627, convert.7682)
  constant.7500 = f32[] constant(0)
  reduce.7505 = f32[256]{0} reduce(convert.7499, constant.7500), dimensions={0,1,2}, to_apply=primitive_computation_add.7501
  broadcast.7506 = f32[256]{0} broadcast(reduce.7505), dimensions={0}
  broadcast.7507 = f32[1,1,1,256]{3,2,1,0} broadcast(broadcast.7506), dimensions={3}
  reshape.7508 = f32[256]{0} reshape(broadcast.7507)
  multiply.7518 = f32[1,1,1,256]{3,2,1,0} multiply(broadcast.7517, broadcast.2618)
  reshape.7519 = f32[256]{0} reshape(multiply.7518)
  constant.7436 = f32[] constant(0)
  reduce.7441 = f32[256]{0} reduce(convert.7435, constant.7436), dimensions={0,1,2}, to_apply=primitive_computation_add.7437
  broadcast.7442 = f32[256]{0} broadcast(reduce.7441), dimensions={0}
  broadcast.7443 = f32[1,1,1,256]{3,2,1,0} broadcast(broadcast.7442), dimensions={3}
  reshape.7444 = f32[256]{0} reshape(broadcast.7443)
  multiply.7454 = f32[1,1,1,256]{3,2,1,0} multiply(broadcast.7453, broadcast.2700)
  reshape.7455 = f32[256]{0} reshape(multiply.7454)
  constant.7372 = f32[] constant(0)
  reduce.7377 = f32[1024]{0} reduce(convert.7371, constant.7372), dimensions={0,1,2}, to_apply=primitive_computation_add.7373
  broadcast.7378 = f32[1024]{0} broadcast(reduce.7377), dimensions={0}
  broadcast.7379 = f32[1,1,1,1024]{3,2,1,0} broadcast(broadcast.7378), dimensions={3}
  reshape.7380 = f32[1024]{0} reshape(broadcast.7379)
  multiply.7390 = f32[1,1,1,1024]{3,2,1,0} multiply(broadcast.7389, broadcast.2782)
  reshape.7391 = f32[1024]{0} reshape(multiply.7390)
  broadcast.5624 = f32[1,1,512,256]{3,2,1,0} broadcast(multiply.5601), dimensions={}
  constant.5422 = f32[] constant(2)
  broadcast.5423 = f32[1,1,512,256]{3,2,1,0} broadcast(constant.5422), dimensions={}
  multiply.5424 = f32[1,1,512,256]{3,2,1,0} multiply(broadcast.5423, parameter.133)
  multiply.5625 = f32[1,1,512,256]{3,2,1,0} multiply(broadcast.5624, multiply.5424)
  convolution.7555 = bf16[1,1,512,256]{3,2,1,0} convolution(get-tuple-element.2551, convert.7554), window={size=28x28}, dim_labels=f01b_i01o->01bf
  convert.7556 = f32[1,1,512,256]{3,2,1,0} convert(convolution.7555)
  add.7557 = f32[1,1,512,256]{3,2,1,0} add(multiply.5625, convert.7556)
  broadcast.5622 = f32[3,3,256,256]{3,2,1,0} broadcast(multiply.5601), dimensions={}
  constant.5432 = f32[] constant(2)
  broadcast.5433 = f32[3,3,256,256]{3,2,1,0} broadcast(constant.5432), dimensions={}
  multiply.5434 = f32[3,3,256,256]{3,2,1,0} multiply(broadcast.5433, parameter.134)
  multiply.5623 = f32[3,3,256,256]{3,2,1,0} multiply(broadcast.5622, multiply.5434)
  convolution.7491 = bf16[3,3,256,256]{3,2,1,0} convolution(get-tuple-element.2633, convert.7490), window={size=14x14 pad=0_1x0_1 rhs_dilate=2x2}, dim_labels=f01b_i01o->01bf
  convert.7492 = f32[3,3,256,256]{3,2,1,0} convert(convolution.7491)
  add.7493 = f32[3,3,256,256]{3,2,1,0} add(multiply.5623, convert.7492)
  broadcast.5620 = f32[1,1,256,1024]{3,2,1,0} broadcast(multiply.5601), dimensions={}
  constant.5442 = f32[] constant(2)
  broadcast.5443 = f32[1,1,256,1024]{3,2,1,0} broadcast(constant.5442), dimensions={}
  multiply.5444 = f32[1,1,256,1024]{3,2,1,0} multiply(broadcast.5443, parameter.135)
  multiply.5621 = f32[1,1,256,1024]{3,2,1,0} multiply(broadcast.5620, multiply.5444)
  convolution.7427 = bf16[1,1,256,1024]{3,2,1,0} convolution(get-tuple-element.2715, convert.7426), window={size=14x14}, dim_labels=f01b_i01o->01bf
  convert.7428 = f32[1,1,256,1024]{3,2,1,0} convert(convolution.7427)
  add.7429 = f32[1,1,256,1024]{3,2,1,0} add(multiply.5621, convert.7428)
  broadcast.5618 = f32[1,1,512,1024]{3,2,1,0} broadcast(multiply.5601), dimensions={}
  constant.5452 = f32[] constant(2)
  broadcast.5453 = f32[1,1,512,1024]{3,2,1,0} broadcast(constant.5452), dimensions={}
  multiply.5454 = f32[1,1,512,1024]{3,2,1,0} multiply(broadcast.5453, parameter.136)
  multiply.5619 = f32[1,1,512,1024]{3,2,1,0} multiply(broadcast.5618, multiply.5454)
  convolution.7616 = bf16[1,1,512,1024]{3,2,1,0} convolution(get-tuple-element.2551, convert.7615), window={size=14x14 pad=0_-1x0_-1 rhs_dilate=2x2}, dim_labels=f01b_i01o->01bf
  convert.7617 = f32[1,1,512,1024]{3,2,1,0} convert(convolution.7616)
  add.7618 = f32[1,1,512,1024]{3,2,1,0} add(multiply.5619, convert.7617)
  constant.7561 = f32[] constant(0)
  reduce.7566 = f32[1024]{0} reduce(convert.7560, constant.7561), dimensions={0,1,2}, to_apply=primitive_computation_add.7562
  broadcast.7567 = f32[1024]{0} broadcast(reduce.7566), dimensions={0}
  broadcast.7568 = f32[1,1,1,1024]{3,2,1,0} broadcast(broadcast.7567), dimensions={3}
  reshape.7569 = f32[1024]{0} reshape(broadcast.7568)
  multiply.7579 = f32[1,1,1,1024]{3,2,1,0} multiply(broadcast.7578, broadcast.2853)
  reshape.7580 = f32[1024]{0} reshape(multiply.7579)
  constant.7307 = f32[] constant(0)
  reduce.7312 = f32[256]{0} reduce(convert.7306, constant.7307), dimensions={0,1,2}, to_apply=primitive_computation_add.7308
  broadcast.7313 = f32[256]{0} broadcast(reduce.7312), dimensions={0}
  broadcast.7314 = f32[1,1,1,256]{3,2,1,0} broadcast(broadcast.7313), dimensions={3}
  reshape.7315 = f32[256]{0} reshape(broadcast.7314)
  multiply.7325 = f32[1,1,1,256]{3,2,1,0} multiply(broadcast.7324, broadcast.2936)
  reshape.7326 = f32[256]{0} reshape(multiply.7325)
  constant.7243 = f32[] constant(0)
  reduce.7248 = f32[256]{0} reduce(convert.7242, constant.7243), dimensions={0,1,2}, to_apply=primitive_computation_add.7244
  broadcast.7249 = f32[256]{0} broadcast(reduce.7248), dimensions={0}
  broadcast.7250 = f32[1,1,1,256]{3,2,1,0} broadcast(broadcast.7249), dimensions={3}
  reshape.7251 = f32[256]{0} reshape(broadcast.7250)
  multiply.7261 = f32[1,1,1,256]{3,2,1,0} multiply(broadcast.7260, broadcast.3018)
  reshape.7262 = f32[256]{0} reshape(multiply.7261)
  constant.7179 = f32[] constant(0)
  reduce.7184 = f32[1024]{0} reduce(convert.7178, constant.7179), dimensions={0,1,2}, to_apply=primitive_computation_add.7180
  broadcast.7185 = f32[1024]{0} broadcast(reduce.7184), dimensions={0}
  broadcast.7186 = f32[1,1,1,1024]{3,2,1,0} broadcast(broadcast.7185), dimensions={3}
  reshape.7187 = f32[1024]{0} reshape(broadcast.7186)
  multiply.7197 = f32[1,1,1,1024]{3,2,1,0} multiply(broadcast.7196, broadcast.3100)
  reshape.7198 = f32[1024]{0} reshape(multiply.7197)
  broadcast.5616 = f32[1,1,1024,256]{3,2,1,0} broadcast(multiply.5601), dimensions={}
  constant.5462 = f32[] constant(2)
  broadcast.5463 = f32[1,1,1024,256]{3,2,1,0} broadcast(constant.5462), dimensions={}
  multiply.5464 = f32[1,1,1024,256]{3,2,1,0} multiply(broadcast.5463, parameter.145)
  multiply.5617 = f32[1,1,1024,256]{3,2,1,0} multiply(broadcast.5616, multiply.5464)
  convolution.7362 = bf16[1,1,1024,256]{3,2,1,0} convolution(get-tuple-element.2869, convert.7361), window={size=14x14}, dim_labels=f01b_i01o->01bf
  convert.7363 = f32[1,1,1024,256]{3,2,1,0} convert(convolution.7362)
  add.7364 = f32[1,1,1024,256]{3,2,1,0} add(multiply.5617, convert.7363)
  broadcast.5614 = f32[3,3,256,256]{3,2,1,0} broadcast(multiply.5601), dimensions={}
  constant.5472 = f32[] constant(2)
  broadcast.5473 = f32[3,3,256,256]{3,2,1,0} broadcast(constant.5472), dimensions={}
  multiply.5474 = f32[3,3,256,256]{3,2,1,0} multiply(broadcast.5473, parameter.146)
  multiply.5615 = f32[3,3,256,256]{3,2,1,0} multiply(broadcast.5614, multiply.5474)
  convolution.7298 = bf16[3,3,256,256]{3,2,1,0} convolution(get-tuple-element.2951, convert.7297), window={size=14x14 pad=1_1x1_1}, dim_labels=f01b_i01o->01bf
  convert.7299 = f32[3,3,256,256]{3,2,1,0} convert(convolution.7298)
  add.7300 = f32[3,3,256,256]{3,2,1,0} add(multiply.5615, convert.7299)
  broadcast.5612 = f32[1,1,256,1024]{3,2,1,0} broadcast(multiply.5601), dimensions={}
  constant.5482 = f32[] constant(2)
  broadcast.5483 = f32[1,1,256,1024]{3,2,1,0} broadcast(constant.5482), dimensions={}
  multiply.5484 = f32[1,1,256,1024]{3,2,1,0} multiply(broadcast.5483, parameter.147)
  multiply.5613 = f32[1,1,256,1024]{3,2,1,0} multiply(broadcast.5612, multiply.5484)
  convolution.7234 = bf16[1,1,256,1024]{3,2,1,0} convolution(get-tuple-element.3033, convert.7233), window={size=14x14}, dim_labels=f01b_i01o->01bf
  convert.7235 = f32[1,1,256,1024]{3,2,1,0} convert(convolution.7234)
  add.7236 = f32[1,1,256,1024]{3,2,1,0} add(multiply.5613, convert.7235)
  constant.7114 = f32[] constant(0)
  reduce.7119 = f32[256]{0} reduce(convert.7113, constant.7114), dimensions={0,1,2}, to_apply=primitive_computation_add.7115
  broadcast.7120 = f32[256]{0} broadcast(reduce.7119), dimensions={0}
  broadcast.7121 = f32[1,1,1,256]{3,2,1,0} broadcast(broadcast.7120), dimensions={3}
  reshape.7122 = f32[256]{0} reshape(broadcast.7121)
  multiply.7132 = f32[1,1,1,256]{3,2,1,0} multiply(broadcast.7131, broadcast.3183)
  reshape.7133 = f32[256]{0} reshape(multiply.7132)
  constant.7050 = f32[] constant(0)
  reduce.7055 = f32[256]{0} reduce(convert.7049, constant.7050), dimensions={0,1,2}, to_apply=primitive_computation_add.7051
  broadcast.7056 = f32[256]{0} broadcast(reduce.7055), dimensions={0}
  broadcast.7057 = f32[1,1,1,256]{3,2,1,0} broadcast(broadcast.7056), dimensions={3}
  reshape.7058 = f32[256]{0} reshape(broadcast.7057)
  multiply.7068 = f32[1,1,1,256]{3,2,1,0} multiply(broadcast.7067, broadcast.3265)
  reshape.7069 = f32[256]{0} reshape(multiply.7068)
  constant.6986 = f32[] constant(0)
  reduce.6991 = f32[1024]{0} reduce(convert.6985, constant.6986), dimensions={0,1,2}, to_apply=primitive_computation_add.6987
  broadcast.6992 = f32[1024]{0} broadcast(reduce.6991), dimensions={0}
  broadcast.6993 = f32[1,1,1,1024]{3,2,1,0} broadcast(broadcast.6992), dimensions={3}
  reshape.6994 = f32[1024]{0} reshape(broadcast.6993)
  multiply.7004 = f32[1,1,1,1024]{3,2,1,0} multiply(broadcast.7003, broadcast.3347)
  reshape.7005 = f32[1024]{0} reshape(multiply.7004)
  broadcast.5610 = f32[1,1,1024,256]{3,2,1,0} broadcast(multiply.5601), dimensions={}
  constant.5492 = f32[] constant(2)
  broadcast.5493 = f32[1,1,1024,256]{3,2,1,0} broadcast(constant.5492), dimensions={}
  multiply.5494 = f32[1,1,1024,256]{3,2,1,0} multiply(broadcast.5493, parameter.154)
  multiply.5611 = f32[1,1,1024,256]{3,2,1,0} multiply(broadcast.5610, multiply.5494)
  convolution.7169 = bf16[1,1,1024,256]{3,2,1,0} convolution(get-tuple-element.3116, convert.7168), window={size=14x14}, dim_labels=f01b_i01o->01bf
  convert.7170 = f32[1,1,1024,256]{3,2,1,0} convert(convolution.7169)
  add.7171 = f32[1,1,1024,256]{3,2,1,0} add(multiply.5611, convert.7170)
  broadcast.5608 = f32[3,3,256,256]{3,2,1,0} broadcast(multiply.5601), dimensions={}
  constant.5502 = f32[] constant(2)
  broadcast.5503 = f32[3,3,256,256]{3,2,1,0} broadcast(constant.5502), dimensions={}
  multiply.5504 = f32[3,3,256,256]{3,2,1,0} multiply(broadcast.5503, parameter.155)
  multiply.5609 = f32[3,3,256,256]{3,2,1,0} multiply(broadcast.5608, multiply.5504)
  convolution.7105 = bf16[3,3,256,256]{3,2,1,0} convolution(get-tuple-element.3198, convert.7104), window={size=14x14 pad=1_1x1_1}, dim_labels=f01b_i01o->01bf
  convert.7106 = f32[3,3,256,256]{3,2,1,0} convert(convolution.7105)
  add.7107 = f32[3,3,256,256]{3,2,1,0} add(multiply.5609, convert.7106)
  broadcast.5606 = f32[1,1,256,1024]{3,2,1,0} broadcast(multiply.5601), dimensions={}
  constant.5512 = f32[] constant(2)
  broadcast.5513 = f32[1,1,256,1024]{3,2,1,0} broadcast(constant.5512), dimensions={}
  multiply.5514 = f32[1,1,256,1024]{3,2,1,0} multiply(broadcast.5513, parameter.156)
  multiply.5607 = f32[1,1,256,1024]{3,2,1,0} multiply(broadcast.5606, multiply.5514)
  convolution.7041 = bf16[1,1,256,1024]{3,2,1,0} convolution(get-tuple-element.3280, convert.7040), window={size=14x14}, dim_labels=f01b_i01o->01bf
  convert.7042 = f32[1,1,256,1024]{3,2,1,0} convert(convolution.7041)
  add.7043 = f32[1,1,256,1024]{3,2,1,0} add(multiply.5607, convert.7042)
  constant.5737 = bf16[] constant(0)
  reduce.5742 = bf16[1000]{0} reduce(convert.5736, constant.5737), dimensions={0}, to_apply=primitive_computation_add__1.5738
  broadcast.5743 = bf16[1000]{0} broadcast(reduce.5742), dimensions={0}
  broadcast.5744 = bf16[1,1000]{1,0} broadcast(broadcast.5743), dimensions={1}
  constant.5745 = bf16[] constant(0)
  reduce.5750 = bf16[1000]{0} reduce(broadcast.5744, constant.5745), dimensions={0}, to_apply=primitive_computation_add__1.5746
  broadcast.5751 = bf16[1000]{0} broadcast(reduce.5750), dimensions={0}
  convert.5752 = f32[1000]{0} convert(broadcast.5751)
  broadcast.5604 = f32[2048,1000]{1,0} broadcast(multiply.5601), dimensions={}
  constant.5522 = f32[] constant(2)
  broadcast.5523 = f32[2048,1000]{1,0} broadcast(constant.5522), dimensions={}
  multiply.5524 = f32[2048,1000]{1,0} multiply(broadcast.5523, parameter.158)
  multiply.5605 = f32[2048,1000]{1,0} multiply(broadcast.5604, multiply.5524)
  dot.5753 = bf16[1000,2048]{1,0} dot(convert.5736, divide.4933), lhs_contracting_dims={0}, rhs_contracting_dims={0}
  transpose.5754 = bf16[2048,1000]{0,1} transpose(dot.5753), dimensions={1,0}
  convert.5755 = f32[2048,1000]{0,1} convert(transpose.5754)
  add.5756 = f32[2048,1000]{1,0} add(multiply.5605, convert.5755)
  constant.675 = bf16[] constant(0)
  broadcast.676 = bf16[128,112,112,64]{3,2,1,0} broadcast(constant.675), dimensions={}
  compare.677 = pred[128,112,112,64]{3,2,1,0} compare(convert.668, broadcast.676), direction=GT
  reverse.9031 = bf16[1,1,64,64]{3,2,1,0} reverse(convert.686), dimensions={0,1}
  convolution.9032 = bf16[128,56,56,64]{3,2,1,0} convolution(convert.9027, reverse.9031), window={size=1x1}, dim_labels=b01f_01oi->b01f
  reverse.9092 = bf16[1,1,64,256]{3,2,1,0} reverse(convert.921), dimensions={0,1}
  convolution.9093 = bf16[128,56,56,64]{3,2,1,0} convolution(convert.9088, reverse.9092), window={size=1x1}, dim_labels=b01f_01oi->b01f
  add.9094 = bf16[128,56,56,64]{3,2,1,0} add(convolution.9032, convolution.9093)
  constant.9095 = bf16[] constant(0)
  select-and-scatter.9104 = bf16[128,112,112,64]{3,2,1,0} select-and-scatter(get-tuple-element.674, add.9094, constant.9095), window={size=1x3x3x1 stride=1x2x2x1 pad=0_0x0_1x0_1x0_0}, select=primitive_computation_ge.9096, scatter=primitive_computation_add__1.9100
  constant.9105 = bf16[] constant(0)
  broadcast.9106 = bf16[128,112,112,64]{3,2,1,0} broadcast(constant.9105), dimensions={}
  select.9107 = bf16[128,112,112,64]{3,2,1,0} select(compare.677, select-and-scatter.9104, broadcast.9106)
  convert.9108 = f32[128,112,112,64]{3,2,1,0} convert(select.9107)
  constant.9109 = f32[] constant(0)
  reduce.9114 = f32[64]{0} reduce(convert.9108, constant.9109), dimensions={0,1,2}, to_apply=primitive_computation_add.9110
  broadcast.9115 = f32[64]{0} broadcast(reduce.9114), dimensions={0}
  broadcast.9116 = f32[1,1,1,64]{3,2,1,0} broadcast(broadcast.9115), dimensions={3}
  reshape.9117 = f32[64]{0} reshape(broadcast.9116)
  multiply.9118 = f32[128,112,112,64]{3,2,1,0} multiply(convert.9108, subtract.647)
  constant.9119 = f32[] constant(0)
  reduce.9124 = f32[64]{0} reduce(multiply.9118, constant.9119), dimensions={0,1,2}, to_apply=primitive_computation_add.9120
  broadcast.9125 = f32[64]{0} broadcast(reduce.9124), dimensions={0}
  broadcast.9126 = f32[1,1,1,64]{3,2,1,0} broadcast(broadcast.9125), dimensions={3}
  multiply.9127 = f32[1,1,1,64]{3,2,1,0} multiply(broadcast.9126, broadcast.659)
  reshape.9128 = f32[64]{0} reshape(multiply.9127)
  broadcast.5602 = f32[7,7,3,64]{3,2,1,0} broadcast(multiply.5601), dimensions={}
  constant.5532 = f32[] constant(2)
  broadcast.5533 = f32[7,7,3,64]{3,2,1,0} broadcast(constant.5532), dimensions={}
  multiply.5534 = f32[7,7,3,64]{3,2,1,0} multiply(broadcast.5533, parameter.161)
  multiply.5603 = f32[7,7,3,64]{3,2,1,0} multiply(broadcast.5602, multiply.5534)
  multiply.9129 = f32[1,1,1,64]{3,2,1,0} multiply(broadcast.9126, reshape.658)
  constant.9130 = f32[] constant(0)
  reduce.9135 = f32[64]{0} reduce(multiply.9129, constant.9130), dimensions={0,1,2}, to_apply=primitive_computation_add.9131
  broadcast.9136 = f32[64]{0} broadcast(reduce.9135), dimensions={0}
  constant.655 = f32[] constant(-0.5)
  broadcast.656 = f32[64]{0} broadcast(constant.655), dimensions={}
  constant.652 = f32[] constant(-1.5)
  broadcast.653 = f32[64]{0} broadcast(constant.652), dimensions={}
  power.654 = f32[64]{0} power(add.650, broadcast.653)
  multiply.657 = f32[64]{0} multiply(broadcast.656, power.654)
  multiply.9137 = f32[64]{0} multiply(broadcast.9136, multiply.657)
  broadcast.9140 = f32[64]{0} broadcast(convert.622), dimensions={}
  divide.9141 = f32[64]{0} divide(multiply.9137, broadcast.9140)
  broadcast.9142 = f32[128,112,112,64]{3,2,1,0} broadcast(divide.9141), dimensions={3}
  constant.612 = f32[] constant(2)
  broadcast.613 = f32[128,112,112,64]{3,2,1,0} broadcast(constant.612), dimensions={}
  multiply.614 = f32[128,112,112,64]{3,2,1,0} multiply(broadcast.613, convert.600)
  multiply.9143 = f32[128,112,112,64]{3,2,1,0} multiply(broadcast.9142, multiply.614)
  reshape.9144 = f32[64]{0} reshape(multiply.660)
  broadcast.9145 = f32[128,112,112,64]{3,2,1,0} broadcast(reshape.9144), dimensions={3}
  multiply.9146 = f32[128,112,112,64]{3,2,1,0} multiply(convert.9108, broadcast.9145)
  add.9147 = f32[128,112,112,64]{3,2,1,0} add(multiply.9143, multiply.9146)
  negate.9138 = f32[64]{0} negate(multiply.9137)
  constant.626 = f32[] constant(2)
  broadcast.627 = f32[64]{0} broadcast(constant.626), dimensions={}
  multiply.628 = f32[64]{0} multiply(broadcast.627, divide.610)
  multiply.9139 = f32[64]{0} multiply(negate.9138, multiply.628)
  constant.9148 = f32[] constant(0)
  reduce.9153 = f32[64]{0} reduce(multiply.9146, constant.9148), dimensions={0,1,2}, to_apply=primitive_computation_add.9149
  broadcast.9154 = f32[64]{0} broadcast(reduce.9153), dimensions={0}
  broadcast.9155 = f32[1,1,1,64]{3,2,1,0} broadcast(broadcast.9154), dimensions={3}
  negate.9156 = f32[1,1,1,64]{3,2,1,0} negate(broadcast.9155)
  reshape.9157 = f32[64]{0} reshape(negate.9156)
  add.9158 = f32[64]{0} add(multiply.9139, reshape.9157)
  broadcast.9159 = f32[64]{0} broadcast(convert.608), dimensions={}
  divide.9160 = f32[64]{0} divide(add.9158, broadcast.9159)
  broadcast.9161 = f32[128,112,112,64]{3,2,1,0} broadcast(divide.9160), dimensions={3}
  add.9162 = f32[128,112,112,64]{3,2,1,0} add(add.9147, broadcast.9161)
  convert.9163 = bf16[128,112,112,64]{3,2,1,0} convert(add.9162)
  convolution.9164 = bf16[7,7,3,64]{3,2,1,0} convolution(convert.597, convert.9163), window={size=112x112 pad=3_2x3_2 rhs_dilate=2x2}, dim_labels=f01b_i01o->01bf
  convert.9165 = f32[7,7,3,64]{3,2,1,0} convert(convolution.9164)
  add.9166 = f32[7,7,3,64]{3,2,1,0} add(multiply.5603, convert.9165)
  ROOT tuple.9167 = (f32[], f32[64]{0}, f32[64]{0}, f32[64]{0}, f32[64]{0}, f32[256]{0}, f32[256]{0}, f32[256]{0}, f32[256]{0}, f32[64]{0}, f32[64]{0}, f32[64]{0}, f32[64]{0}, f32[256]{0}, f32[256]{0}, f32[256]{0}, f32[256]{0}, f32[256]{0}, f32[256]{0}, f32[1024]{0}, f32[1024]{0}, f32[256]{0}, f32[256]{0}, f32[256]{0}, f32[256]{0}, f32[1024]{0}, f32[1024]{0}, f32[256]{0}, f32[256]{0}, f32[256]{0}, f32[256]{0}, f32[1024]{0}, f32[1024]{0}, f32[512]{0}, f32[512]{0}, f32[512]{0}, f32[512]{0}, f32[2048]{0}, f32[2048]{0}, f32[2048]{0}, f32[2048]{0}, f32[512]{0}, f32[512]{0}, f32[512]{0}, f32[512]{0}, f32[2048]{0}, f32[2048]{0}, f32[512]{0}, f32[512]{0}, f32[512]{0}, f32[512]{0}, f32[2048]{0}, f32[2048]{0}, f32[64]{0}, f32[64]{0}, f32[64]{0}, f32[64]{0}, f32[256]{0}, f32[256]{0}, f32[128]{0}, f32[128]{0}, f32[128]{0}, f32[128]{0}, f32[512]{0}, f32[512]{0}, f32[512]{0}, f32[512]{0}, f32[128]{0}, f32[128]{0}, f32[128]{0}, f32[128]{0}, f32[512]{0}, f32[512]{0}, f32[128]{0}, f32[128]{0}, f32[128]{0}, f32[128]{0}, f32[512]{0}, f32[512]{0}, f32[128]{0}, f32[128]{0}, f32[128]{0}, f32[128]{0}, f32[512]{0}, f32[512]{0}, f32[256]{0}, f32[256]{0}, f32[256]{0}, f32[256]{0}, f32[1024]{0}, f32[1024]{0}, f32[1024]{0}, f32[1024]{0}, f32[256]{0}, f32[256]{0}, f32[256]{0}, f32[256]{0}, f32[1024]{0}, f32[1024]{0}, f32[256]{0}, f32[256]{0}, f32[256]{0}, f32[256]{0}, f32[1024]{0}, f32[1024]{0}, f32[64]{0}, f32[64]{0}, f32[128,1000]{1,0}, f32[64]{0}, f32[64]{0}, f32[64]{0}, f32[64]{0}, f32[256]{0}, f32[256]{0}, f32[1,1,64,64]{3,2,1,0}, f32[3,3,64,64]{3,2,1,0}, f32[1,1,64,256]{3,2,1,0}, f32[1,1,64,256]{3,2,1,0}, f32[256]{0}, f32[256]{0}, f32[64]{0}, f32[64]{0}, f32[64]{0}, f32[64]{0}, f32[256]{0}, f32[256]{0}, f32[1,1,256,64]{3,2,1,0}, f32[3,3,64,64]{3,2,1,0}, f32[1,1,64,256]{3,2,1,0}, f32[256]{0}, f32[256]{0}, f32[256]{0}, f32[256]{0}, f32[1024]{0}, f32[1024]{0}, f32[1,1,1024,256]{3,2,1,0}, f32[3,3,256,256]{3,2,1,0}, f32[1,1,256,1024]{3,2,1,0}, f32[256]{0}, f32[256]{0}, f32[256]{0}, f32[256]{0}, f32[1024]{0}, f32[1024]{0}, f32[1,1,1024,256]{3,2,1,0}, f32[3,3,256,256]{3,2,1,0}, f32[1,1,256,1024]{3,2,1,0}, f32[256]{0}, f32[256]{0}, f32[256]{0}, f32[256]{0}, f32[1024]{0}, f32[1024]{0}, f32[1,1,1024,256]{3,2,1,0}, f32[3,3,256,256]{3,2,1,0}, f32[1,1,256,1024]{3,2,1,0}, f32[512]{0}, f32[512]{0}, f32[512]{0}, f32[512]{0}, f32[2048]{0}, f32[2048]{0}, f32[1,1,1024,512]{3,2,1,0}, f32[3,3,512,512]{3,2,1,0}, f32[1,1,512,2048]{3,2,1,0}, f32[1,1,1024,2048]{3,2,1,0}, f32[2048]{0}, f32[2048]{0}, f32[512]{0}, f32[512]{0}, f32[512]{0}, f32[512]{0}, f32[2048]{0}, f32[2048]{0}, f32[1,1,2048,512]{3,2,1,0}, f32[3,3,512,512]{3,2,1,0}, f32[1,1,512,2048]{3,2,1,0}, f32[512]{0}, f32[512]{0}, f32[512]{0}, f32[512]{0}, f32[2048]{0}, f32[2048]{0}, f32[1,1,2048,512]{3,2,1,0}, f32[3,3,512,512]{3,2,1,0}, f32[1,1,512,2048]{3,2,1,0}, f32[64]{0}, f32[64]{0}, f32[64]{0}, f32[64]{0}, f32[256]{0}, f32[256]{0}, f32[1,1,256,64]{3,2,1,0}, f32[3,3,64,64]{3,2,1,0}, f32[1,1,64,256]{3,2,1,0}, f32[128]{0}, f32[128]{0}, f32[128]{0}, f32[128]{0}, f32[512]{0}, f32[512]{0}, f32[1,1,256,128]{3,2,1,0}, f32[3,3,128,128]{3,2,1,0}, f32[1,1,128,512]{3,2,1,0}, f32[1,1,256,512]{3,2,1,0}, f32[512]{0}, f32[512]{0}, f32[128]{0}, f32[128]{0}, f32[128]{0}, f32[128]{0}, f32[512]{0}, f32[512]{0}, f32[1,1,512,128]{3,2,1,0}, f32[3,3,128,128]{3,2,1,0}, f32[1,1,128,512]{3,2,1,0}, f32[128]{0}, f32[128]{0}, f32[128]{0}, f32[128]{0}, f32[512]{0}, f32[512]{0}, f32[1,1,512,128]{3,2,1,0}, f32[3,3,128,128]{3,2,1,0}, f32[1,1,128,512]{3,2,1,0}, f32[128]{0}, f32[128]{0}, f32[128]{0}, f32[128]{0}, f32[512]{0}, f32[512]{0}, f32[1,1,512,128]{3,2,1,0}, f32[3,3,128,128]{3,2,1,0}, f32[1,1,128,512]{3,2,1,0}, f32[256]{0}, f32[256]{0}, f32[256]{0}, f32[256]{0}, f32[1024]{0}, f32[1024]{0}, f32[1,1,512,256]{3,2,1,0}, f32[3,3,256,256]{3,2,1,0}, f32[1,1,256,1024]{3,2,1,0}, f32[1,1,512,1024]{3,2,1,0}, f32[1024]{0}, f32[1024]{0}, f32[256]{0}, f32[256]{0}, f32[256]{0}, f32[256]{0}, f32[1024]{0}, f32[1024]{0}, f32[1,1,1024,256]{3,2,1,0}, f32[3,3,256,256]{3,2,1,0}, f32[1,1,256,1024]{3,2,1,0}, f32[256]{0}, f32[256]{0}, f32[256]{0}, f32[256]{0}, f32[1024]{0}, f32[1024]{0}, f32[1,1,1024,256]{3,2,1,0}, f32[3,3,256,256]{3,2,1,0}, f32[1,1,256,1024]{3,2,1,0}, f32[1000]{0}, f32[2048,1000]{1,0}, f32[64]{0}, f32[64]{0}, f32[7,7,3,64]{3,2,1,0}) tuple(add.5598, add.724, add.731, add.806, add.813, add.888, add.895, add.959, add.966, add.1042, add.1049, add.1124, add.1131, add.1206, add.1213, add.3407, add.3414, add.3489, add.3496, add.3571, add.3578, add.3654, add.3661, add.3736, add.3743, add.3818, add.3825, add.3901, add.3908, add.3983, add.3990, add.4065, add.4072, add.4148, add.4155, add.4230, add.4237, add.4312, add.4319, add.4383, add.4390, add.4466, add.4473, add.4548, add.4555, add.4630, add.4637, add.4713, add.4720, add.4795, add.4802, add.4877, add.4884, add.1289, add.1296, add.1371, add.1378, add.1453, add.1460, add.1536, add.1543, add.1618, add.1625, add.1700, add.1707, add.1771, add.1778, add.1854, add.1861, add.1936, add.1943, add.2018, add.2025, add.2101, add.2108, add.2183, add.2190, add.2265, add.2272, add.2348, add.2355, add.2430, add.2437, add.2512, add.2519, add.2595, add.2602, add.2677, add.2684, add.2759, add.2766, add.2830, add.2837, add.2913, add.2920, add.2995, add.3002, add.3077, add.3084, add.3160, add.3167, add.3242, add.3249, add.3324, add.3331, add.636, add.643, subtract.4977, reshape.8981, reshape.8992, reshape.8917, reshape.8928, reshape.8853, reshape.8864, add.9030, add.8966, add.8902, add.9091, reshape.9042, reshape.9053, reshape.8788, reshape.8799, reshape.8724, reshape.8735, reshape.8660, reshape.8671, add.8837, add.8773, add.8709, reshape.6929, reshape.6940, reshape.6865, reshape.6876, reshape.6801, reshape.6812, add.6978, add.6914, add.6850, reshape.6736, reshape.6747, reshape.6672, reshape.6683, reshape.6608, reshape.6619, add.6785, add.6721, add.6657, reshape.6543, reshape.6554, reshape.6479, reshape.6490, reshape.6415, reshape.6426, add.6592, add.6528, add.6464, reshape.6289, reshape.6300, reshape.6225, reshape.6236, reshape.6161, reshape.6172, add.6338, add.6274, add.6210, add.6399, reshape.6350, reshape.6361, reshape.6096, reshape.6107, reshape.6032, reshape.6043, reshape.5968, reshape.5979, add.6145, add.6081, add.6017, reshape.5903, reshape.5914, reshape.5839, reshape.5850, reshape.5775, reshape.5786, add.5952, add.5888, add.5824, reshape.8595, reshape.8606, reshape.8531, reshape.8542, reshape.8467, reshape.8478, add.8644, add.8580, add.8516, reshape.8341, reshape.8352, reshape.8277, reshape.8288, reshape.8213, reshape.8224, add.8390, add.8326, add.8262, add.8451, reshape.8402, reshape.8413, reshape.8148, reshape.8159, reshape.8084, reshape.8095, reshape.8020, reshape.8031, add.8197, add.8133, add.8069, reshape.7955, reshape.7966, reshape.7891, reshape.7902, reshape.7827, reshape.7838, add.8004, add.7940, add.7876, reshape.7762, reshape.7773, reshape.7698, reshape.7709, reshape.7634, reshape.7645, add.7811, add.7747, add.7683, reshape.7508, reshape.7519, reshape.7444, reshape.7455, reshape.7380, reshape.7391, add.7557, add.7493, add.7429, add.7618, reshape.7569, reshape.7580, reshape.7315, reshape.7326, reshape.7251, reshape.7262, reshape.7187, reshape.7198, add.7364, add.7300, add.7236, reshape.7122, reshape.7133, reshape.7058, reshape.7069, reshape.6994, reshape.7005, add.7171, add.7107, add.7043, convert.5752, add.5756, reshape.9117, reshape.9128, add.9166)
}


